…
  top: "data"
  top: "label"
  include {
    phase: TRAIN
  }
  transform_param {
    mirror: true
    crop_size: 473
    mean_value: 103.939
    mean_value: 116.779
    mean_value: 123.68
    scale_factors: 0.5
    scale_factors: 0.75
    scale_factors: 1
    scale_factors: 1.25
    scale_factors: 1.5
    scale_factors: 1.75
    scale_factors: 2
  }
  image_data_param {
    source: "/home/cvipbs/data/cityscapes/list/cityscapes_train.txt"
    batch_size: 1
    shuffle: true
    root_folder: "/home/cvipbs/data/cityscapes/"
    label_type: PIXEL
  }
}
layer {
  name: "conv1_1_3x3_s2"
  type: "Convolution"
  bottom: "data"
  top: "conv1_1_3x3_s2"
  param {
    lr_mult: 1
    decay_mult: 1
  }
  convolution_param {
    num_output: 64
    bias_term: false
    pad: 1
    kernel_size: 3
    stride: 2
    weight_filler {
      type: "msra"
    }
  }
}
layer {
  name: "conv1_1_3x3_s2/bn"
  type: "BN"
  bottom: "conv1_1_3x3_s2"
  top: "conv1_1_3x3_s2"
  param {
    lr_mult: 1
    decay_mult: 0
  }
  param {
    lr_mult: 1
    decay_mult: 0
  }
  param {
    lr_mult: 0
    decay_mult: 0
  }
  param {
    lr_mult: 0
    decay_mult: 0
  }
  bn_param {
    slope_filler {
      type: "constant"
      value: 1
    }
    bias_filler {
      type: "constant"
      value: 0
    }
    momentum: 0.95
    frozen: true
  }
}
layer {
  name: "conv1_1_3x3_s2/relu"
  type: "ReLU"
  bottom: "conv1_1_3x3_s2"
  top: "conv1_1_3x3_s2"
}
layer {
  name: "conv1_2_3x3"
  type: "Convolution"
  bottom: "conv1_1_3x3_s2"
  top: "conv1_2_3x3"
  param {
    lr_mult: 1
    decay_mult: 1
  }
  convolution_param {
    num_output: 64
    bias_term: false
    pad: 1
    kernel_size: 3
    stride: 1
    weight_filler {
      type: "msra"
    }
  }
}
layer {
  name: "conv1_2_3x3/bn"
  type: "BN"
  bottom: "conv1_2_3x3"
  top: "conv1_2_3x3"
  param {
    lr_mult: 1
    decay_mult: 0
  }
  param {
    lr_mult: 1
    decay_mult: 0
  }
  param {
    lr_mult: 0
    decay_mult: 0
  }
  param {
    lr_mult: 0
    decay_mult: 0
  }
  bn_param {
    slope_filler {
      type: "constant"
      value: 1
    }
    bias_filler {
      type: "constant"
      value: 0
    }
    momentum: 0.95
    frozen: true
  }
}
layer {
  name: "conv1_2_3x3/relu"
  type: "ReLU"
  bottom: "conv1_2_3x3"
  top: "conv1_2_3x3"
}
layer {
  name: "conv1_3_3x3"
  type: "Convolution"
  bottom: "conv1_2_3x3"
  top: "conv1_3_3x3"
  param {
    lr_mult: 1
    decay_mult: 1
  }
  convolution_param {
    num_output: 128
    bias_term: false
    pad: 1
    kernel_size: 3
    stride: 1
    weight_filler {
      type: "msra"
    }
  }
}
layer {
  name: "conv1_3_3x3/bn"
  type: "BN"
  bottom: "conv1_3_3x3"
  top: "conv1_3_3x3"
  param {
    lr_mult: 1
    decay_mult: 0
  }
  param {
    lr_mult: 1
    decay_mult: 0
  }
  param {
    lr_mult: 0
    decay_mult: 0
  }
  param {
    lr_mult: 0
    decay_mult: 0
  }
  bn_param {
    slope_filler {
      type: "constant"
      value: 1
    }
    bias_filler {
      type: "constant"
      value: 0
    }
    momentum: 0.95
    frozen: true
  }
}
layer {
  name: "conv1_3_3x3/relu"
  type: "ReLU"
  bottom: "conv1_3_3x3"
  top: "conv1_3_3x3"
}
layer {
  name: "pool1_3x3_s2"
  type: "Pooling"
  bottom: "conv1_3_3x3"
  top: "pool1_3x3_s2"
  pooling_param {
    pool: MAX
    kernel_size: 3
    stride: 2
    pad: 1
  }
}
layer {
  name: "conv2_1_1x1_reduce"
  type: "Convolution"
  bottom: "pool1_3x3_s2"
  top: "conv2_1_1x1_reduce"
  param {
    lr_mult: 1
    decay_mult: 1
  }
  convolution_param {
    num_output: 64
    bias_term: false
    pad: 0
    kernel_size: 1
    stride: 1
    weight_filler {
      type: "msra"
    }
  }
}
layer {
  name: "conv2_1_1x1_reduce/bn"
  type: "BN"
  bottom: "conv2_1_1x1_reduce"
  top: "conv2_1_1x1_reduce"
  param {
    lr_mult: 1
    decay_mult: 0
  }
  param {
    lr_mult: 1
    decay_mult: 0
  }
  param {
    lr_mult: 0
    decay_mult: 0
  }
  param {
    lr_mult: 0
    decay_mult: 0
  }
  bn_param {
    slope_filler {
      type: "constant"
      value: 1
    }
    bias_filler {
      type: "constant"
      value: 0
    }
    momentum: 0.95
    frozen: true
  }
}
layer {
  name: "conv2_1_1x1_reduce/relu"
  type: "ReLU"
  bottom: "conv2_1_1x1_reduce"
  top: "conv2_1_1x1_reduce"
}
layer {
  name: "conv2_1_3x3"
  type: "Convolution"
  bottom: "conv2_1_1x1_reduce"
  top: "conv2_1_3x3"
  param {
    lr_mult: 1
    decay_mult: 1
  }
  convolution_param {
    num_output: 64
    bias_term: false
    pad: 1
    kernel_size: 3
    stride: 1
    weight_filler {
      type: "msra"
    }
  }
}
layer {
  name: "conv2_1_3x3/bn"
  type: "BN"
  bottom: "conv2_1_3x3"
  top: "conv2_1_3x3"
  param {
    lr_mult: 1
    decay_mult: 0
  }
  param {
    lr_mult: 1
    decay_mult: 0
  }
  param {
    lr_mult: 0
    decay_mult: 0
  }
  param {
    lr_mult: 0
    decay_mult: 0
  }
  bn_param {
    slope_filler {
      type: "constant"
      value: 1
    }
    bias_filler {
      type: "constant"
      value: 0
    }
    momentum: 0.95
    frozen: true
  }
}
layer {
  name: "conv2_1_3x3/relu"
  type: "ReLU"
  bottom: "conv2_1_3x3"
  top: "conv2_1_3x3"
}
layer {
  name: "conv2_1_1x1_increase"
  type: "Convolution"
  bottom: "conv2_1_3x3"
  top: "conv2_1_1x1_increase"
  param {
    lr_mult: 1
    decay_mult: 1
  }
  convolution_param {
    num_output: 256
    bias_term: false
    pad: 0
    kernel_size: 1
    stride: 1
    weight_filler {
      type: "msra"
    }
  }
}
layer {
  name: "conv2_1_1x1_increase/bn"
  type: "BN"
  bottom: "conv2_1_1x1_increase"
  top: "conv2_1_1x1_increase"
  param {
    lr_mult: 1
    decay_mult: 0
  }
  param {
    lr_mult: 1
    decay_mult: 0
  }
  param {
    lr_mult: 0
    decay_mult: 0
  }
  param {
    lr_mult: 0
    decay_mult: 0
  }
  bn_param {
    slope_filler {
      type: "constant"
      value: 1
    }
    bias_filler {
      type: "constant"
      value: 0
    }
    momentum: 0.95
    frozen: true
  }
}
layer {
  name: "conv2_1_1x1_proj"
  type: "Convolution"
  bottom: "pool1_3x3_s2"
  top: "conv2_1_1x1_proj"
  param {
    lr_mult: 1
    decay_mult: 1
  }
  convolution_param {
    num_output: 256
    bias_term: false
    pad: 0
    kernel_size: 1
    stride: 1
    weight_filler {
      type: "msra"
    }
  }
}
layer {
  name: "conv2_1_1x1_proj/bn"
  type: "BN"
  bottom: "conv2_1_1x1_proj"
  top: "conv2_1_1x1_proj"
  param {
    lr_mult: 1
    decay_mult: 0
  }
  param {
    lr_mult: 1
    decay_mult: 0
  }
  param {
    lr_mult: 0
    decay_mult: 0
  }
  param {
    lr_mult: 0
    decay_mult: 0
  }
  bn_param {
    slope_filler {
      type: "constant"
      value: 1
    }
    bias_filler {
      type: "constant"
      value: 0
    }
    momentum: 0.95
    frozen: true
  }
}
layer {
  name: "conv2_1"
  type: "Eltwise"
  bottom: "conv2_1_1x1_proj"
  bottom: "conv2_1_1x1_increase"
  top: "conv2_1"
  eltwise_param {
    operation: SUM
  }
}
layer {
  name: "conv2_1/relu"
  type: "ReLU"
  bottom: "conv2_1"
  top: "conv2_1"
}
layer {
  name: "conv2_2_1x1_reduce"
  type: "Convolution"
  bottom: "conv2_1"
  top: "conv2_2_1x1_reduce"
  param {
    lr_mult: 1
    decay_mult: 1
  }
  convolution_param {
    num_output: 64
    bias_term: false
    pad: 0
    kernel_size: 1
    stride: 1
    weight_filler {
      type: "msra"
    }
  }
}
layer {
  name: "conv2_2_1x1_reduce/bn"
  type: "BN"
  bottom: "conv2_2_1x1_reduce"
  top: "conv2_2_1x1_reduce"
  param {
    lr_mult: 1
    decay_mult: 0
  }
  param {
    lr_mult: 1
    decay_mult: 0
  }
  param {
    lr_mult: 0
    decay_mult: 0
  }
  param {
    lr_mult: 0
    decay_mult: 0
  }
  bn_param {
    slope_filler {
      type: "constant"
      value: 1
    }
    bias_filler {
      type: "constant"
      value: 0
    }
    momentum: 0.95
    frozen: true
  }
}
layer {
  name: "conv2_2_1x1_reduce/relu"
  type: "ReLU"
  bottom: "conv2_2_1x1_reduce"
  top: "conv2_2_1x1_reduce"
}
layer {
  name: "conv2_2_3x3"
  type: "Convolution"
  bottom: "conv2_2_1x1_reduce"
  top: "conv2_2_3x3"
  param {
    lr_mult: 1
    decay_mult: 1
  }
  convolution_param {
    num_output: 64
    bias_term: false
    pad: 1
    kernel_size: 3
    stride: 1
    weight_filler {
      type: "msra"
    }
  }
}
layer {
  name: "conv2_2_3x3/bn"
  type: "BN"
  bottom: "conv2_2_3x3"
  top: "conv2_2_3x3"
  param {
    lr_mult: 1
    decay_mult: 0
  }
  param {
    lr_mult: 1
    decay_mult: 0
  }
  param {
    lr_mult: 0
    decay_mult: 0
  }
  param {
    lr_mult: 0
    decay_mult: 0
  }
  bn_param {
    slope_filler {
      type: "constant"
      value: 1
    }
    bias_filler {
      type: "constant"
      value: 0
    }
    momentum: 0.95
    frozen: true
  }
}
layer {
  name: "conv2_2_3x3/relu"
  type: "ReLU"
  bottom: "conv2_2_3x3"
  top: "conv2_2_3x3"
}
layer {
  name: "conv2_2_1x1_increase"
  type: "Convolution"
  bottom: "conv2_2_3x3"
  top: "conv2_2_1x1_increase"
  param {
    lr_mult: 1
    decay_mult: 1
  }
  convolution_param {
    num_output: 256
    bias_term: false
    pad: 0
    kernel_size: 1
    stride: 1
    weight_filler {
      type: "msra"
    }
  }
}
layer {
  name: "conv2_2_1x1_increase/bn"
  type: "BN"
  bottom: "conv2_2_1x1_increase"
  top: "conv2_2_1x1_increase"
  param {
    lr_mult: 1
    decay_mult: 0
  }
  param {
    lr_mult: 1
    decay_mult: 0
  }
  param {
    lr_mult: 0
    decay_mult: 0
  }
  param {
    lr_mult: 0
    decay_mult: 0
  }
  bn_param {
    slope_filler {
      type: "constant"
      value: 1
    }
    bias_filler {
      type: "constant"
      value: 0
    }
    momentum: 0.95
    frozen: true
  }
}
layer {
  name: "conv2_2"
  type: "Eltwise"
  bottom: "conv2_1"
  bottom: "conv2_2_1x1_increase"
  top: "conv2_2"
  eltwise_param {
    operation: SUM
  }
}
layer {
  name: "conv2_2/relu"
  type: "ReLU"
  bottom: "conv2_2"
  top: "conv2_2"
}
layer {
  name: "conv2_3_1x1_reduce"
  type: "Convolution"
  bottom: "conv2_2"
  top: "conv2_3_1x1_reduce"
  param {
    lr_mult: 1
    decay_mult: 1
  }
  convolution_param {
    num_output: 64
    bias_term: false
    pad: 0
    kernel_size: 1
    stride: 1
    weight_filler {
      type: "msra"
    }
  }
}
layer {
  name: "conv2_3_1x1_reduce/bn"
  type: "BN"
  bottom: "conv2_3_1x1_reduce"
  top: "conv2_3_1x1_reduce"
  param {
    lr_mult: 1
    decay_mult: 0
  }
  param {
    lr_mult: 1
    decay_mult: 0
  }
  param {
    lr_mult: 0
    decay_mult: 0
  }
  param {
    lr_mult: 0
    decay_mult: 0
  }
  bn_param {
    slope_filler {
      type: "constant"
      value: 1
    }
    bias_filler {
      type: "constant"
      value: 0
    }
    momentum: 0.95
    frozen: true
  }
}
layer {
  name: "conv2_3_1x1_reduce/relu"
  type: "ReLU"
  bottom: "conv2_3_1x1_reduce"
  top: "conv2_3_1x1_reduce"
}
layer {
  name: "conv2_3_3x3"
  type: "Convolution"
  bottom: "conv2_3_1x1_reduce"
  top: "conv2_3_3x3"
  param {
    lr_mult: 1
    decay_mult: 1
  }
  convolution_param {
    num_output: 64
    bias_term: false
    pad: 1
    kernel_size: 3
    stride: 1
    weight_filler {
      type: "msra"
    }
  }
}
layer {
  name: "conv2_3_3x3/bn"
  type: "BN"
  bottom: "conv2_3_3x3"
  top: "conv2_3_3x3"
  param {
    lr_mult: 1
    decay_mult: 0
  }
  param {
    lr_mult: 1
    decay_mult: 0
  }
  param {
    lr_mult: 0
    decay_mult: 0
  }
  param {
    lr_mult: 0
    decay_mult: 0
  }
  bn_param {
    slope_filler {
      type: "constant"
      value: 1
    }
    bias_filler {
      type: "constant"
      value: 0
    }
    momentum: 0.95
    frozen: true
  }
}
layer {
  name: "conv2_3_3x3/relu"
  type: "ReLU"
  bottom: "conv2_3_3x3"
  top: "conv2_3_3x3"
}
layer {
  name: "conv2_3_1x1_increase"
  type: "Convolution"
  bottom: "conv2_3_3x3"
  top: "conv2_3_1x1_increase"
  param {
    lr_mult: 1
    decay_mult: 1
  }
  convolution_param {
    num_output: 256
    bias_term: false
    pad: 0
    kernel_size: 1
    stride: 1
    weight_filler {
      type: "msra"
    }
  }
}
layer {
  name: "conv2_3_1x1_increase/bn"
  type: "BN"
  bottom: "conv2_3_1x1_increase"
  top: "conv2_3_1x1_increase"
  param {
    lr_mult: 1
    decay_mult: 0
  }
  param {
    lr_mult: 1
    decay_mult: 0
  }
  param {
    lr_mult: 0
    decay_mult: 0
  }
  param {
    lr_mult: 0
    decay_mult: 0
  }
  bn_param {
    slope_filler {
      type: "constant"
      value: 1
    }
    bias_filler {
      type: "constant"
      value: 0
    }
    momentum: 0.95
    frozen: true
  }
}
layer {
  name: "conv2_3"
  type: "Eltwise"
  bottom: "conv2_2"
  bottom: "conv2_3_1x1_increase"
  top: "conv2_3"
  eltwise_param {
    operation: SUM
  }
}
layer {
  name: "conv2_3/relu"
  type: "ReLU"
  bottom: "conv2_3"
  top: "conv2_3"
}
layer {
  name: "conv3_1_1x1_reduce"
  type: "Convolution"
  bottom: "conv2_3"
  top: "conv3_1_1x1_reduce"
  param {
    lr_mult: 1
    decay_mult: 1
  }
  convolution_param {
    num_output: 128
    bias_term: false
    pad: 0
    kernel_size: 1
    stride: 1
    weight_filler {
      type: "msra"
    }
  }
}
layer {
  name: "conv3_1_1x1_reduce/bn"
  type: "BN"
  bottom: "conv3_1_1x1_reduce"
  top: "conv3_1_1x1_reduce"
  param {
    lr_mult: 1
    decay_mult: 0
  }
  param {
    lr_mult: 1
    decay_mult: 0
  }
  param {
    lr_mult: 0
    decay_mult: 0
  }
  param {
    lr_mult: 0
    decay_mult: 0
  }
  bn_param {
    slope_filler {
      type: "constant"
      value: 1
    }
    bias_filler {
      type: "constant"
      value: 0
    }
    momentum: 0.95
    frozen: true
  }
}
layer {
  name: "conv3_1_1x1_reduce/relu"
  type: "ReLU"
  bottom: "conv3_1_1x1_reduce"
  top: "conv3_1_1x1_reduce"
}
layer {
  name: "conv3_1_3x3"
  type: "Convolution"
  bottom: "conv3_1_1x1_reduce"
  top: "conv3_1_3x3"
  param {
    lr_mult: 1
    decay_mult: 1
  }
  convolution_param {
    num_output: 128
    bias_term: false
    pad: 1
    kernel_size: 3
    stride: 2
    weight_filler {
      type: "msra"
    }
  }
}
layer {
  name: "conv3_1_3x3/bn"
  type: "BN"
  bottom: "conv3_1_3x3"
  top: "conv3_1_3x3"
  param {
    lr_mult: 1
    decay_mult: 0
  }
  param {
    lr_mult: 1
    decay_mult: 0
  }
  param {
    lr_mult: 0
    decay_mult: 0
  }
  param {
    lr_mult: 0
    decay_mult: 0
  }
  bn_param {
    slope_filler {
      type: "constant"
      value: 1
    }
    bias_filler {
      type: "constant"
      value: 0
    }
    momentum: 0.95
    frozen: true
  }
}
layer {
  name: "conv3_1_3x3/relu"
  type: "ReLU"
  bottom: "conv3_1_3x3"
  top: "conv3_1_3x3"
}
layer {
  name: "conv3_1_1x1_increase"
  type: "Convolution"
  bottom: "conv3_1_3x3"
  top: "conv3_1_1x1_increase"
  param {
    lr_mult: 1
    decay_mult: 1
  }
  convolution_param {
    num_output: 512
    bias_term: false
    pad: 0
    kernel_size: 1
    stride: 1
    weight_filler {
      type: "msra"
    }
  }
}
layer {
  name: "conv3_1_1x1_increase/bn"
  type: "BN"
  bottom: "conv3_1_1x1_increase"
  top: "conv3_1_1x1_increase"
  param {
    lr_mult: 1
    decay_mult: 0
  }
  param {
    lr_mult: 1
    decay_mult: 0
  }
  param {
    lr_mult: 0
    decay_mult: 0
  }
  param {
    lr_mult: 0
    decay_mult: 0
  }
  bn_param {
    slope_filler {
      type: "constant"
      value: 1
    }
    bias_filler {
      type: "constant"
      value: 0
    }
    momentum: 0.95
    frozen: true
  }
}
layer {
  name: "conv3_1_1x1_proj"
  type: "Convolution"
  bottom: "conv2_3"
  top: "conv3_1_1x1_proj"
  param {
    lr_mult: 1
    decay_mult: 1
  }
  convolution_param {
    num_output: 512
    bias_term: false
    pad: 0
    kernel_size: 1
    stride: 2
    weight_filler {
      type: "msra"
    }
  }
}
layer {
  name: "conv3_1_1x1_proj/bn"
  type: "BN"
  bottom: "conv3_1_1x1_proj"
  top: "conv3_1_1x1_proj"
  param {
    lr_mult: 1
    decay_mult: 0
  }
  param {
    lr_mult: 1
    decay_mult: 0
  }
  param {
    lr_mult: 0
    decay_mult: 0
  }
  param {
    lr_mult: 0
    decay_mult: 0
  }
  bn_param {
    slope_filler {
      type: "constant"
      value: 1
    }
    bias_filler {
      type: "constant"
      value: 0
    }
    momentum: 0.95
    frozen: true
  }
}
layer {
  name: "conv3_1"
  type: "Eltwise"
  bottom: "conv3_1_1x1_proj"
  bottom: "conv3_1_1x1_increase"
  top: "conv3_1"
  eltwise_param {
    operation: SUM
  }
}
layer {
  name: "conv3_1/relu"
  type: "ReLU"
  bottom: "conv3_1"
  top: "conv3_1"
}
layer {
  name: "conv3_2_1x1_reduce"
  type: "Convolution"
  bottom: "conv3_1"
  top: "conv3_2_1x1_reduce"
  param {
    lr_mult: 1
    decay_mult: 1
  }
  convolution_param {
    num_output: 128
    bias_term: false
    pad: 0
    kernel_size: 1
    stride: 1
    weight_filler {
      type: "msra"
    }
  }
}
layer {
  name: "conv3_2_1x1_reduce/bn"
  type: "BN"
  bottom: "conv3_2_1x1_reduce"
  top: "conv3_2_1x1_reduce"
  param {
    lr_mult: 1
    decay_mult: 0
  }
  param {
    lr_mult: 1
    decay_mult: 0
  }
  param {
    lr_mult: 0
    decay_mult: 0
  }
  param {
    lr_mult: 0
    decay_mult: 0
  }
  bn_param {
    slope_filler {
      type: "constant"
      value: 1
    }
    bias_filler {
      type: "constant"
      value: 0
    }
    momentum: 0.95
    frozen: true
  }
}
layer {
  name: "conv3_2_1x1_reduce/relu"
  type: "ReLU"
  bottom: "conv3_2_1x1_reduce"
  top: "conv3_2_1x1_reduce"
}
layer {
  name: "conv3_2_3x3"
  type: "Convolution"
  bottom: "conv3_2_1x1_reduce"
  top: "conv3_2_3x3"
  param {
    lr_mult: 1
    decay_mult: 1
  }
  convolution_param {
    num_output: 128
    bias_term: false
    pad: 1
    kernel_size: 3
    stride: 1
    weight_filler {
      type: "msra"
    }
  }
}
layer {
  name: "conv3_2_3x3/bn"
  type: "BN"
  bottom: "conv3_2_3x3"
  top: "conv3_2_3x3"
  param {
    lr_mult: 1
    decay_mult: 0
  }
  param {
    lr_mult: 1
    decay_mult: 0
  }
  param {
    lr_mult: 0
    decay_mult: 0
  }
  param {
    lr_mult: 0
    decay_mult: 0
  }
  bn_param {
    slope_filler {
      type: "constant"
      value: 1
    }
    bias_filler {
      type: "constant"
      value: 0
    }
    momentum: 0.95
    frozen: true
  }
}
layer {
  name: "conv3_2_3x3/relu"
  type: "ReLU"
  bottom: "conv3_2_3x3"
  top: "conv3_2_3x3"
}
layer {
  name: "conv3_2_1x1_increase"
  type: "Convolution"
  bottom: "conv3_2_3x3"
  top: "conv3_2_1x1_increase"
  param {
    lr_mult: 1
    decay_mult: 1
  }
  convolution_param {
    num_output: 512
    bias_term: false
    pad: 0
    kernel_size: 1
    stride: 1
    weight_filler {
      type: "msra"
    }
  }
}
layer {
  name: "conv3_2_1x1_increase/bn"
  type: "BN"
  bottom: "conv3_2_1x1_increase"
  top: "conv3_2_1x1_increase"
  param {
    lr_mult: 1
    decay_mult: 0
  }
  param {
    lr_mult: 1
    decay_mult: 0
  }
  param {
    lr_mult: 0
    decay_mult: 0
  }
  param {
    lr_mult: 0
    decay_mult: 0
  }
  bn_param {
    slope_filler {
      type: "constant"
      value: 1
    }
    bias_filler {
      type: "constant"
      value: 0
    }
    momentum: 0.95
    frozen: true
  }
}
layer {
  name: "conv3_2"
  type: "Eltwise"
  bottom: "conv3_1"
  bottom: "conv3_2_1x1_increase"
  top: "conv3_2"
  eltwise_param {
    operation: SUM
  }
}
layer {
  name: "conv3_2/relu"
  type: "ReLU"
  bottom: "conv3_2"
  top: "conv3_2"
}
layer {
  name: "conv3_3_1x1_reduce"
  type: "Convolution"
  bottom: "conv3_2"
  top: "conv3_3_1x1_reduce"
  param {
    lr_mult: 1
    decay_mult: 1
  }
  convolution_param {
    num_output: 128
    bias_term: false
    pad: 0
    kernel_size: 1
    stride: 1
    weight_filler {
      type: "msra"
    }
  }
}
layer {
  name: "conv3_3_1x1_reduce/bn"
  type: "BN"
  bottom: "conv3_3_1x1_reduce"
  top: "conv3_3_1x1_reduce"
  param {
    lr_mult: 1
    decay_mult: 0
  }
  param {
    lr_mult: 1
    decay_mult: 0
  }
  param {
    lr_mult: 0
    decay_mult: 0
  }
  param {
    lr_mult: 0
    decay_mult: 0
  }
  bn_param {
    slope_filler {
      type: "constant"
      value: 1
    }
    bias_filler {
      type: "constant"
      value: 0
    }
    momentum: 0.95
    frozen: true
  }
}
layer {
  name: "conv3_3_1x1_reduce/relu"
  type: "ReLU"
  bottom: "conv3_3_1x1_reduce"
  top: "conv3_3_1x1_reduce"
}
layer {
  name: "conv3_3_3x3"
  type: "Convolution"
  bottom: "conv3_3_1x1_reduce"
  top: "conv3_3_3x3"
  param {
    lr_mult: 1
    decay_mult: 1
  }
  convolution_param {
    num_output: 128
    bias_term: false
    pad: 1
    kernel_size: 3
    stride: 1
    weight_filler {
      type: "msra"
    }
  }
}
layer {
  name: "conv3_3_3x3/bn"
  type: "BN"
  bottom: "conv3_3_3x3"
  top: "conv3_3_3x3"
  param {
    lr_mult: 1
    decay_mult: 0
  }
  param {
    lr_mult: 1
    decay_mult: 0
  }
  param {
    lr_mult: 0
    decay_mult: 0
  }
  param {
    lr_mult: 0
    decay_mult: 0
  }
  bn_param {
    slope_filler {
      type: "constant"
      value: 1
    }
    bias_filler {
      type: "constant"
      value: 0
    }
    momentum: 0.95
    frozen: true
  }
}
layer {
  name: "conv3_3_3x3/relu"
  type: "ReLU"
  bottom: "conv3_3_3x3"
  top: "conv3_3_3x3"
}
layer {
  name: "conv3_3_1x1_increase"
  type: "Convolution"
  bottom: "conv3_3_3x3"
  top: "conv3_3_1x1_increase"
  param {
    lr_mult: 1
    decay_mult: 1
  }
  convolution_param {
    num_output: 512
    bias_term: false
    pad: 0
    kernel_size: 1
    stride: 1
    weight_filler {
      type: "msra"
    }
  }
}
layer {
  name: "conv3_3_1x1_increase/bn"
  type: "BN"
  bottom: "conv3_3_1x1_increase"
  top: "conv3_3_1x1_increase"
  param {
    lr_mult: 1
    decay_mult: 0
  }
  param {
    lr_mult: 1
    decay_mult: 0
  }
  param {
    lr_mult: 0
    decay_mult: 0
  }
  param {
    lr_mult: 0
    decay_mult: 0
  }
  bn_param {
    slope_filler {
      type: "constant"
      value: 1
    }
    bias_filler {
      type: "constant"
      value: 0
    }
    momentum: 0.95
    frozen: true
  }
}
layer {
  name: "conv3_3"
  type: "Eltwise"
  bottom: "conv3_2"
  bottom: "conv3_3_1x1_increase"
  top: "conv3_3"
  eltwise_param {
    operation: SUM
  }
}
layer {
  name: "conv3_3/relu"
  type: "ReLU"
  bottom: "conv3_3"
  top: "conv3_3"
}
layer {
  name: "conv3_4_1x1_reduce"
  type: "Convolution"
  bottom: "conv3_3"
  top: "conv3_4_1x1_reduce"
  param {
    lr_mult: 1
    decay_mult: 1
  }
  convolution_param {
    num_output: 128
    bias_term: false
    pad: 0
    kernel_size: 1
    stride: 1
    weight_filler {
      type: "msra"
    }
  }
}
layer {
  name: "conv3_4_1x1_reduce/bn"
  type: "BN"
  bottom: "conv3_4_1x1_reduce"
  top: "conv3_4_1x1_reduce"
  param {
    lr_mult: 1
    decay_mult: 0
  }
  param {
    lr_mult: 1
    decay_mult: 0
  }
  param {
    lr_mult: 0
    decay_mult: 0
  }
  param {
    lr_mult: 0
    decay_mult: 0
  }
  bn_param {
    slope_filler {
      type: "constant"
      value: 1
    }
    bias_filler {
      type: "constant"
      value: 0
    }
    momentum: 0.95
    frozen: true
  }
}
layer {
  name: "conv3_4_1x1_reduce/relu"
  type: "ReLU"
  bottom: "conv3_4_1x1_reduce"
  top: "conv3_4_1x1_reduce"
}
layer {
  name: "conv3_4_3x3"
  type: "Convolution"
  bottom: "conv3_4_1x1_reduce"
  top: "conv3_4_3x3"
  param {
    lr_mult: 1
    decay_mult: 1
  }
  convolution_param {
    num_output: 128
    bias_term: false
    pad: 1
    kernel_size: 3
    stride: 1
    weight_filler {
      type: "msra"
    }
  }
}
layer {
  name: "conv3_4_3x3/bn"
  type: "BN"
  bottom: "conv3_4_3x3"
  top: "conv3_4_3x3"
  param {
    lr_mult: 1
    decay_mult: 0
  }
  param {
    lr_mult: 1
    decay_mult: 0
  }
  param {
    lr_mult: 0
    decay_mult: 0
  }
  param {
    lr_mult: 0
    decay_mult: 0
  }
  bn_param {
    slope_filler {
      type: "constant"
      value: 1
    }
    bias_filler {
      type: "constant"
      value: 0
    }
    momentum: 0.95
    frozen: true
  }
}
layer {
  name: "conv3_4_3x3/relu"
  type: "ReLU"
  bottom: "conv3_4_3x3"
  top: "conv3_4_3x3"
}
layer {
  name: "conv3_4_1x1_increase"
  type: "Convolution"
  bottom: "conv3_4_3x3"
  top: "conv3_4_1x1_increase"
  param {
    lr_mult: 1
    decay_mult: 1
  }
  convolution_param {
    num_output: 512
    bias_term: false
    pad: 0
    kernel_size: 1
    stride: 1
    weight_filler {
      type: "msra"
    }
  }
}
layer {
  name: "conv3_4_1x1_increase/bn"
  type: "BN"
  bottom: "conv3_4_1x1_increase"
  top: "conv3_4_1x1_increase"
  param {
    lr_mult: 1
    decay_mult: 0
  }
  param {
    lr_mult: 1
    decay_mult: 0
  }
  param {
    lr_mult: 0
    decay_mult: 0
  }
  param {
    lr_mult: 0
    decay_mult: 0
  }
  bn_param {
    slope_filler {
      type: "constant"
      value: 1
    }
    bias_filler {
      type: "constant"
      value: 0
    }
    momentum: 0.95
    frozen: true
  }
}
layer {
  name: "conv3_4"
  type: "Eltwise"
  bottom: "conv3_3"
  bottom: "conv3_4_1x1_increase"
  top: "conv3_4"
  eltwise_param {
    operation: SUM
  }
}
layer {
  name: "conv3_4/relu"
  type: "ReLU"
  bottom: "conv3_4"
  top: "conv3_4"
}
layer {
  name: "conv4_1_1x1_reduce"
  type: "Convolution"
  bottom: "conv3_4"
  top: "conv4_1_1x1_reduce"
  param {
    lr_mult: 1
    decay_mult: 1
  }
  convolution_param {
    num_output: 256
    bias_term: false
    pad: 0
    kernel_size: 1
    stride: 1
    weight_filler {
      type: "msra"
    }
  }
}
layer {
  name: "conv4_1_1x1_reduce/bn"
  type: "BN"
  bottom: "conv4_1_1x1_reduce"
  top: "conv4_1_1x1_reduce"
  param {
    lr_mult: 1
    decay_mult: 0
  }
  param {
    lr_mult: 1
    decay_mult: 0
  }
  param {
    lr_mult: 0
    decay_mult: 0
  }
  param {
    lr_mult: 0
    decay_mult: 0
  }
  bn_param {
    slope_filler {
      type: "constant"
      value: 1
    }
    bias_filler {
      type: "constant"
      value: 0
    }
    momentum: 0.95
    frozen: true
  }
}
layer {
  name: "conv4_1_1x1_reduce/relu"
  type: "ReLU"
  bottom: "conv4_1_1x1_reduce"
  top: "conv4_1_1x1_reduce"
}
layer {
  name: "conv4_1_3x3"
  type: "Convolution"
  bottom: "conv4_1_1x1_reduce"
  top: "conv4_1_3x3"
  param {
    lr_mult: 1
    decay_mult: 1
  }
  convolution_param {
    num_output: 256
    bias_term: false
    pad: 2
    kernel_size: 3
    stride: 1
    weight_filler {
      type: "msra"
    }
    dilation: 2
  }
}
layer {
  name: "conv4_1_3x3/bn"
  type: "BN"
  bottom: "conv4_1_3x3"
  top: "conv4_1_3x3"
  param {
    lr_mult: 1
    decay_mult: 0
  }
  param {
    lr_mult: 1
    decay_mult: 0
  }
  param {
    lr_mult: 0
    decay_mult: 0
  }
  param {
    lr_mult: 0
    decay_mult: 0
  }
  bn_param {
    slope_filler {
      type: "constant"
      value: 1
    }
    bias_filler {
      type: "constant"
      value: 0
    }
    momentum: 0.95
    frozen: true
  }
}
layer {
  name: "conv4_1_3x3/relu"
  type: "ReLU"
  bottom: "conv4_1_3x3"
  top: "conv4_1_3x3"
}
layer {
  name: "conv4_1_1x1_increase"
  type: "Convolution"
  bottom: "conv4_1_3x3"
  top: "conv4_1_1x1_increase"
  param {
    lr_mult: 1
    decay_mult: 1
  }
  convolution_param {
    num_output: 1024
    bias_term: false
    pad: 0
    kernel_size: 1
    stride: 1
    weight_filler {
      type: "msra"
    }
  }
}
layer {
  name: "conv4_1_1x1_increase/bn"
  type: "BN"
  bottom: "conv4_1_1x1_increase"
  top: "conv4_1_1x1_increase"
  param {
    lr_mult: 1
    decay_mult: 0
  }
  param {
    lr_mult: 1
    decay_mult: 0
  }
  param {
    lr_mult: 0
    decay_mult: 0
  }
  param {
    lr_mult: 0
    decay_mult: 0
  }
  bn_param {
    slope_filler {
      type: "constant"
      value: 1
    }
    bias_filler {
      type: "constant"
      value: 0
    }
    momentum: 0.95
    frozen: true
  }
}
layer {
  name: "conv4_1_1x1_proj"
  type: "Convolution"
  bottom: "conv3_4"
  top: "conv4_1_1x1_proj"
  param {
    lr_mult: 1
    decay_mult: 1
  }
  convolution_param {
    num_output: 1024
    bias_term: false
    pad: 0
    kernel_size: 1
    stride: 1
    weight_filler {
      type: "msra"
    }
  }
}
layer {
  name: "conv4_1_1x1_proj/bn"
  type: "BN"
  bottom: "conv4_1_1x1_proj"
  top: "conv4_1_1x1_proj"
  param {
    lr_mult: 1
    decay_mult: 0
  }
  param {
    lr_mult: 1
    decay_mult: 0
  }
  param {
    lr_mult: 0
    decay_mult: 0
  }
  param {
    lr_mult: 0
    decay_mult: 0
  }
  bn_param {
    slope_filler {
      type: "constant"
      value: 1
    }
    bias_filler {
      type: "constant"
      value: 0
    }
    momentum: 0.95
    frozen: true
  }
}
layer {
  name: "conv4_1"
  type: "Eltwise"
  bottom: "conv4_1_1x1_proj"
  bottom: "conv4_1_1x1_increase"
  top: "conv4_1"
  eltwise_param {
    operation: SUM
  }
}
layer {
  name: "conv4_1/relu"
  type: "ReLU"
  bottom: "conv4_1"
  top: "conv4_1"
}
layer {
  name: "conv4_2_1x1_reduce"
  type: "Convolution"
  bottom: "conv4_1"
  top: "conv4_2_1x1_reduce"
  param {
    lr_mult: 1
    decay_mult: 1
  }
  convolution_param {
    num_output: 256
    bias_term: false
    pad: 0
    kernel_size: 1
    stride: 1
    weight_filler {
      type: "msra"
    }
  }
}
layer {
  name: "conv4_2_1x1_reduce/bn"
  type: "BN"
  bottom: "conv4_2_1x1_reduce"
  top: "conv4_2_1x1_reduce"
  param {
    lr_mult: 1
    decay_mult: 0
  }
  param {
    lr_mult: 1
    decay_mult: 0
  }
  param {
    lr_mult: 0
    decay_mult: 0
  }
  param {
    lr_mult: 0
    decay_mult: 0
  }
  bn_param {
    slope_filler {
      type: "constant"
      value: 1
    }
    bias_filler {
      type: "constant"
      value: 0
    }
    momentum: 0.95
    frozen: true
  }
}
layer {
  name: "conv4_2_1x1_reduce/relu"
  type: "ReLU"
  bottom: "conv4_2_1x1_reduce"
  top: "conv4_2_1x1_reduce"
}
layer {
  name: "conv4_2_3x3"
  type: "Convolution"
  bottom: "conv4_2_1x1_reduce"
  top: "conv4_2_3x3"
  param {
    lr_mult: 1
    decay_mult: 1
  }
  convolution_param {
    num_output: 256
    bias_term: false
    pad: 2
    kernel_size: 3
    stride: 1
    weight_filler {
      type: "msra"
    }
    dilation: 2
  }
}
layer {
  name: "conv4_2_3x3/bn"
  type: "BN"
  bottom: "conv4_2_3x3"
  top: "conv4_2_3x3"
  param {
    lr_mult: 1
    decay_mult: 0
  }
  param {
    lr_mult: 1
    decay_mult: 0
  }
  param {
    lr_mult: 0
    decay_mult: 0
  }
  param {
    lr_mult: 0
    decay_mult: 0
  }
  bn_param {
    slope_filler {
  
I0118 17:37:13.711378 20113 layer_factory.hpp:77] Creating layer data
I0118 17:37:13.711408 20113 net.cpp:106] Creating Layer data
I0118 17:37:13.711417 20113 net.cpp:411] data -> data
I0118 17:37:13.711439 20113 net.cpp:411] data -> label
I0118 17:37:13.711450 20113 net.cpp:411] data -> (automatic)
I0118 17:37:13.711767 20113 image_seg_data_layer.cpp:46] Opening file /home/cvipbs/data/cityscapes/list/cityscapes_train.txt
I0118 17:37:13.715006 20113 image_seg_data_layer.cpp:63] Shuffling data
I0118 17:37:13.715606 20113 image_seg_data_layer.cpp:68] A total of 2975 images.
I0118 17:37:13.786694 20113 image_seg_data_layer.cpp:137] output data size: 1,3,473,473
I0118 17:37:13.786710 20113 image_seg_data_layer.cpp:141] output label size: 1,1,473,473
I0118 17:37:13.786715 20113 image_seg_data_layer.cpp:145] output data_dim size: 1,1,1,2
I0118 17:37:13.795821 20113 net.cpp:150] Setting up data
I0118 17:37:13.795842 20113 net.cpp:157] Top shape: 1 3 473 473 (671187)
I0118 17:37:13.795846 20113 net.cpp:157] Top shape: 1 1 473 473 (223729)
I0118 17:37:13.795850 20113 net.cpp:157] Top shape: 1 1 1 2 (2)
I0118 17:37:13.795851 20113 net.cpp:165] Memory required for data: 3579672
I0118 17:37:13.795857 20113 layer_factory.hpp:77] Creating layer label_data_1_split
I0118 17:37:13.795866 20113 net.cpp:106] Creating Layer label_data_1_split
I0118 17:37:13.795871 20113 net.cpp:454] label_data_1_split <- label
I0118 17:37:13.795879 20113 net.cpp:411] label_data_1_split -> label_data_1_split_0
I0118 17:37:13.795886 20113 net.cpp:411] label_data_1_split -> label_data_1_split_1
I0118 17:37:13.795936 20113 net.cpp:150] Setting up label_data_1_split
I0118 17:37:13.795941 20113 net.cpp:157] Top shape: 1 1 473 473 (223729)
I0118 17:37:13.795944 20113 net.cpp:157] Top shape: 1 1 473 473 (223729)
I0118 17:37:13.795946 20113 net.cpp:165] Memory required for data: 5369504
I0118 17:37:13.795948 20113 layer_factory.hpp:77] Creating layer conv1_1_3x3_s2
I0118 17:37:13.795960 20113 net.cpp:106] Creating Layer conv1_1_3x3_s2
I0118 17:37:13.795964 20113 net.cpp:454] conv1_1_3x3_s2 <- data
I0118 17:37:13.795969 20113 net.cpp:411] conv1_1_3x3_s2 -> conv1_1_3x3_s2
I0118 17:37:14.013309 20113 net.cpp:150] Setting up conv1_1_3x3_s2
I0118 17:37:14.013332 20113 net.cpp:157] Top shape: 1 64 237 237 (3594816)
I0118 17:37:14.013336 20113 net.cpp:165] Memory required for data: 19748768
I0118 17:37:14.013355 20113 layer_factory.hpp:77] Creating layer conv1_1_3x3_s2/bn
I0118 17:37:14.013367 20113 net.cpp:106] Creating Layer conv1_1_3x3_s2/bn
I0118 17:37:14.013372 20113 net.cpp:454] conv1_1_3x3_s2/bn <- conv1_1_3x3_s2
I0118 17:37:14.013381 20113 net.cpp:397] conv1_1_3x3_s2/bn -> conv1_1_3x3_s2 (in-place)
I0118 17:37:14.013885 20113 net.cpp:150] Setting up conv1_1_3x3_s2/bn
I0118 17:37:14.013895 20113 net.cpp:157] Top shape: 1 64 237 237 (3594816)
I0118 17:37:14.013900 20113 net.cpp:165] Memory required for data: 34128032
I0118 17:37:14.013912 20113 layer_factory.hpp:77] Creating layer conv1_1_3x3_s2/relu
I0118 17:37:14.013921 20113 net.cpp:106] Creating Layer conv1_1_3x3_s2/relu
I0118 17:37:14.013926 20113 net.cpp:454] conv1_1_3x3_s2/relu <- conv1_1_3x3_s2
I0118 17:37:14.013931 20113 net.cpp:397] conv1_1_3x3_s2/relu -> conv1_1_3x3_s2 (in-place)
I0118 17:37:14.014062 20113 net.cpp:150] Setting up conv1_1_3x3_s2/relu
I0118 17:37:14.014070 20113 net.cpp:157] Top shape: 1 64 237 237 (3594816)
I0118 17:37:14.014073 20113 net.cpp:165] Memory required for data: 48507296
I0118 17:37:14.014077 20113 layer_factory.hpp:77] Creating layer conv1_2_3x3
I0118 17:37:14.014087 20113 net.cpp:106] Creating Layer conv1_2_3x3
I0118 17:37:14.014091 20113 net.cpp:454] conv1_2_3x3 <- conv1_1_3x3_s2
I0118 17:37:14.014096 20113 net.cpp:411] conv1_2_3x3 -> conv1_2_3x3
I0118 17:37:14.015194 20113 net.cpp:150] Setting up conv1_2_3x3
I0118 17:37:14.015205 20113 net.cpp:157] Top shape: 1 64 237 237 (3594816)
I0118 17:37:14.015209 20113 net.cpp:165] Memory required for data: 62886560
I0118 17:37:14.015215 20113 layer_factory.hpp:77] Creating layer conv1_2_3x3/bn
I0118 17:37:14.015223 20113 net.cpp:106] Creating Layer conv1_2_3x3/bn
I0118 17:37:14.015228 20113 net.cpp:454] conv1_2_3x3/bn <- conv1_2_3x3
I0118 17:37:14.015236 20113 net.cpp:397] conv1_2_3x3/bn -> conv1_2_3x3 (in-place)
I0118 17:37:14.015424 20113 net.cpp:150] Setting up conv1_2_3x3/bn
I0118 17:37:14.015430 20113 net.cpp:157] Top shape: 1 64 237 237 (3594816)
I0118 17:37:14.015434 20113 net.cpp:165] Memory required for data: 77265824
I0118 17:37:14.015444 20113 layer_factory.hpp:77] Creating layer conv1_2_3x3/relu
I0118 17:37:14.015451 20113 net.cpp:106] Creating Layer conv1_2_3x3/relu
I0118 17:37:14.015455 20113 net.cpp:454] conv1_2_3x3/relu <- conv1_2_3x3
I0118 17:37:14.015461 20113 net.cpp:397] conv1_2_3x3/relu -> conv1_2_3x3 (in-place)
I0118 17:37:14.015707 20113 net.cpp:150] Setting up conv1_2_3x3/relu
I0118 17:37:14.015717 20113 net.cpp:157] Top shape: 1 64 237 237 (3594816)
I0118 17:37:14.015719 20113 net.cpp:165] Memory required for data: 91645088
I0118 17:37:14.015724 20113 layer_factory.hpp:77] Creating layer conv1_3_3x3
I0118 17:37:14.015735 20113 net.cpp:106] Creating Layer conv1_3_3x3
I0118 17:37:14.015739 20113 net.cpp:454] conv1_3_3x3 <- conv1_2_3x3
I0118 17:37:14.015746 20113 net.cpp:411] conv1_3_3x3 -> conv1_3_3x3
I0118 17:37:14.017282 20113 net.cpp:150] Setting up conv1_3_3x3
I0118 17:37:14.017292 20113 net.cpp:157] Top shape: 1 128 237 237 (7189632)
I0118 17:37:14.017297 20113 net.cpp:165] Memory required for data: 120403616
I0118 17:37:14.017302 20113 layer_factory.hpp:77] Creating layer conv1_3_3x3/bn
I0118 17:37:14.017310 20113 net.cpp:106] Creating Layer conv1_3_3x3/bn
I0118 17:37:14.017324 20113 net.cpp:454] conv1_3_3x3/bn <- conv1_3_3x3
I0118 17:37:14.017333 20113 net.cpp:397] conv1_3_3x3/bn -> conv1_3_3x3 (in-place)
I0118 17:37:14.017524 20113 net.cpp:150] Setting up conv1_3_3x3/bn
I0118 17:37:14.017531 20113 net.cpp:157] Top shape: 1 128 237 237 (7189632)
I0118 17:37:14.017535 20113 net.cpp:165] Memory required for data: 149162144
I0118 17:37:14.017544 20113 layer_factory.hpp:77] Creating layer conv1_3_3x3/relu
I0118 17:37:14.017549 20113 net.cpp:106] Creating Layer conv1_3_3x3/relu
I0118 17:37:14.017554 20113 net.cpp:454] conv1_3_3x3/relu <- conv1_3_3x3
I0118 17:37:14.017560 20113 net.cpp:397] conv1_3_3x3/relu -> conv1_3_3x3 (in-place)
I0118 17:37:14.017796 20113 net.cpp:150] Setting up conv1_3_3x3/relu
I0118 17:37:14.017804 20113 net.cpp:157] Top shape: 1 128 237 237 (7189632)
I0118 17:37:14.017808 20113 net.cpp:165] Memory required for data: 177920672
I0118 17:37:14.017812 20113 layer_factory.hpp:77] Creating layer pool1_3x3_s2
I0118 17:37:14.017822 20113 net.cpp:106] Creating Layer pool1_3x3_s2
I0118 17:37:14.017825 20113 net.cpp:454] pool1_3x3_s2 <- conv1_3_3x3
I0118 17:37:14.017832 20113 net.cpp:411] pool1_3x3_s2 -> pool1_3x3_s2
I0118 17:37:14.017877 20113 net.cpp:150] Setting up pool1_3x3_s2
I0118 17:37:14.017884 20113 net.cpp:157] Top shape: 1 128 119 119 (1812608)
I0118 17:37:14.017887 20113 net.cpp:165] Memory required for data: 185171104
I0118 17:37:14.017891 20113 layer_factory.hpp:77] Creating layer pool1_3x3_s2_pool1_3x3_s2_0_split
I0118 17:37:14.017899 20113 net.cpp:106] Creating Layer pool1_3x3_s2_pool1_3x3_s2_0_split
I0118 17:37:14.017902 20113 net.cpp:454] pool1_3x3_s2_pool1_3x3_s2_0_split <- pool1_3x3_s2
I0118 17:37:14.017907 20113 net.cpp:411] pool1_3x3_s2_pool1_3x3_s2_0_split -> pool1_3x3_s2_pool1_3x3_s2_0_split_0
I0118 17:37:14.017916 20113 net.cpp:411] pool1_3x3_s2_pool1_3x3_s2_0_split -> pool1_3x3_s2_pool1_3x3_s2_0_split_1
I0118 17:37:14.017949 20113 net.cpp:150] Setting up pool1_3x3_s2_pool1_3x3_s2_0_split
I0118 17:37:14.017956 20113 net.cpp:157] Top shape: 1 128 119 119 (1812608)
I0118 17:37:14.017959 20113 net.cpp:157] Top shape: 1 128 119 119 (1812608)
I0118 17:37:14.017963 20113 net.cpp:165] Memory required for data: 199671968
I0118 17:37:14.017967 20113 layer_factory.hpp:77] Creating layer conv2_1_1x1_reduce
I0118 17:37:14.017977 20113 net.cpp:106] Creating Layer conv2_1_1x1_reduce
I0118 17:37:14.017982 20113 net.cpp:454] conv2_1_1x1_reduce <- pool1_3x3_s2_pool1_3x3_s2_0_split_0
I0118 17:37:14.017988 20113 net.cpp:411] conv2_1_1x1_reduce -> conv2_1_1x1_reduce
I0118 17:37:14.019177 20113 net.cpp:150] Setting up conv2_1_1x1_reduce
I0118 17:37:14.019189 20113 net.cpp:157] Top shape: 1 64 119 119 (906304)
I0118 17:37:14.019193 20113 net.cpp:165] Memory required for data: 203297184
I0118 17:37:14.019199 20113 layer_factory.hpp:77] Creating layer conv2_1_1x1_reduce/bn
I0118 17:37:14.019208 20113 net.cpp:106] Creating Layer conv2_1_1x1_reduce/bn
I0118 17:37:14.019212 20113 net.cpp:454] conv2_1_1x1_reduce/bn <- conv2_1_1x1_reduce
I0118 17:37:14.019219 20113 net.cpp:397] conv2_1_1x1_reduce/bn -> conv2_1_1x1_reduce (in-place)
I0118 17:37:14.019390 20113 net.cpp:150] Setting up conv2_1_1x1_reduce/bn
I0118 17:37:14.019397 20113 net.cpp:157] Top shape: 1 64 119 119 (906304)
I0118 17:37:14.019399 20113 net.cpp:165] Memory required for data: 206922400
I0118 17:37:14.019412 20113 layer_factory.hpp:77] Creating layer conv2_1_1x1_reduce/relu
I0118 17:37:14.019418 20113 net.cpp:106] Creating Layer conv2_1_1x1_reduce/relu
I0118 17:37:14.019423 20113 net.cpp:454] conv2_1_1x1_reduce/relu <- conv2_1_1x1_reduce
I0118 17:37:14.019428 20113 net.cpp:397] conv2_1_1x1_reduce/relu -> conv2_1_1x1_reduce (in-place)
I0118 17:37:14.019568 20113 net.cpp:150] Setting up conv2_1_1x1_reduce/relu
I0118 17:37:14.019575 20113 net.cpp:157] Top shape: 1 64 119 119 (906304)
I0118 17:37:14.019579 20113 net.cpp:165] Memory required for data: 210547616
I0118 17:37:14.019582 20113 layer_factory.hpp:77] Creating layer conv2_1_3x3
I0118 17:37:14.019596 20113 net.cpp:106] Creating Layer conv2_1_3x3
I0118 17:37:14.019611 20113 net.cpp:454] conv2_1_3x3 <- conv2_1_1x1_reduce
I0118 17:37:14.019620 20113 net.cpp:411] conv2_1_3x3 -> conv2_1_3x3
I0118 17:37:14.020740 20113 net.cpp:150] Setting up conv2_1_3x3
I0118 17:37:14.020750 20113 net.cpp:157] Top shape: 1 64 119 119 (906304)
I0118 17:37:14.020754 20113 net.cpp:165] Memory required for data: 214172832
I0118 17:37:14.020759 20113 layer_factory.hpp:77] Creating layer conv2_1_3x3/bn
I0118 17:37:14.020768 20113 net.cpp:106] Creating Layer conv2_1_3x3/bn
I0118 17:37:14.020773 20113 net.cpp:454] conv2_1_3x3/bn <- conv2_1_3x3
I0118 17:37:14.020781 20113 net.cpp:397] conv2_1_3x3/bn -> conv2_1_3x3 (in-place)
I0118 17:37:14.020957 20113 net.cpp:150] Setting up conv2_1_3x3/bn
I0118 17:37:14.020963 20113 net.cpp:157] Top shape: 1 64 119 119 (906304)
I0118 17:37:14.020967 20113 net.cpp:165] Memory required for data: 217798048
I0118 17:37:14.020975 20113 layer_factory.hpp:77] Creating layer conv2_1_3x3/relu
I0118 17:37:14.020982 20113 net.cpp:106] Creating Layer conv2_1_3x3/relu
I0118 17:37:14.020984 20113 net.cpp:454] conv2_1_3x3/relu <- conv2_1_3x3
I0118 17:37:14.020992 20113 net.cpp:397] conv2_1_3x3/relu -> conv2_1_3x3 (in-place)
I0118 17:37:14.021242 20113 net.cpp:150] Setting up conv2_1_3x3/relu
I0118 17:37:14.021251 20113 net.cpp:157] Top shape: 1 64 119 119 (906304)
I0118 17:37:14.021255 20113 net.cpp:165] Memory required for data: 221423264
I0118 17:37:14.021258 20113 layer_factory.hpp:77] Creating layer conv2_1_1x1_increase
I0118 17:37:14.021270 20113 net.cpp:106] Creating Layer conv2_1_1x1_increase
I0118 17:37:14.021275 20113 net.cpp:454] conv2_1_1x1_increase <- conv2_1_3x3
I0118 17:37:14.021281 20113 net.cpp:411] conv2_1_1x1_increase -> conv2_1_1x1_increase
I0118 17:37:14.022043 20113 net.cpp:150] Setting up conv2_1_1x1_increase
I0118 17:37:14.022053 20113 net.cpp:157] Top shape: 1 256 119 119 (3625216)
I0118 17:37:14.022058 20113 net.cpp:165] Memory required for data: 235924128
I0118 17:37:14.022063 20113 layer_factory.hpp:77] Creating layer conv2_1_1x1_increase/bn
I0118 17:37:14.022071 20113 net.cpp:106] Creating Layer conv2_1_1x1_increase/bn
I0118 17:37:14.022076 20113 net.cpp:454] conv2_1_1x1_increase/bn <- conv2_1_1x1_increase
I0118 17:37:14.022083 20113 net.cpp:397] conv2_1_1x1_increase/bn -> conv2_1_1x1_increase (in-place)
I0118 17:37:14.022248 20113 net.cpp:150] Setting up conv2_1_1x1_increase/bn
I0118 17:37:14.022254 20113 net.cpp:157] Top shape: 1 256 119 119 (3625216)
I0118 17:37:14.022259 20113 net.cpp:165] Memory required for data: 250424992
I0118 17:37:14.022266 20113 layer_factory.hpp:77] Creating layer conv2_1_1x1_proj
I0118 17:37:14.022274 20113 net.cpp:106] Creating Layer conv2_1_1x1_proj
I0118 17:37:14.022279 20113 net.cpp:454] conv2_1_1x1_proj <- pool1_3x3_s2_pool1_3x3_s2_0_split_1
I0118 17:37:14.022287 20113 net.cpp:411] conv2_1_1x1_proj -> conv2_1_1x1_proj
I0118 17:37:14.023555 20113 net.cpp:150] Setting up conv2_1_1x1_proj
I0118 17:37:14.023566 20113 net.cpp:157] Top shape: 1 256 119 119 (3625216)
I0118 17:37:14.023569 20113 net.cpp:165] Memory required for data: 264925856
I0118 17:37:14.023576 20113 layer_factory.hpp:77] Creating layer conv2_1_1x1_proj/bn
I0118 17:37:14.023586 20113 net.cpp:106] Creating Layer conv2_1_1x1_proj/bn
I0118 17:37:14.023589 20113 net.cpp:454] conv2_1_1x1_proj/bn <- conv2_1_1x1_proj
I0118 17:37:14.023596 20113 net.cpp:397] conv2_1_1x1_proj/bn -> conv2_1_1x1_proj (in-place)
I0118 17:37:14.023766 20113 net.cpp:150] Setting up conv2_1_1x1_proj/bn
I0118 17:37:14.023773 20113 net.cpp:157] Top shape: 1 256 119 119 (3625216)
I0118 17:37:14.023777 20113 net.cpp:165] Memory required for data: 279426720
I0118 17:37:14.023789 20113 layer_factory.hpp:77] Creating layer conv2_1
I0118 17:37:14.023798 20113 net.cpp:106] Creating Layer conv2_1
I0118 17:37:14.023802 20113 net.cpp:454] conv2_1 <- conv2_1_1x1_proj
I0118 17:37:14.023808 20113 net.cpp:454] conv2_1 <- conv2_1_1x1_increase
I0118 17:37:14.023813 20113 net.cpp:411] conv2_1 -> conv2_1
I0118 17:37:14.023841 20113 net.cpp:150] Setting up conv2_1
I0118 17:37:14.023847 20113 net.cpp:157] Top shape: 1 256 119 119 (3625216)
I0118 17:37:14.023859 20113 net.cpp:165] Memory required for data: 293927584
I0118 17:37:14.023864 20113 layer_factory.hpp:77] Creating layer conv2_1/relu
I0118 17:37:14.023870 20113 net.cpp:106] Creating Layer conv2_1/relu
I0118 17:37:14.023875 20113 net.cpp:454] conv2_1/relu <- conv2_1
I0118 17:37:14.023881 20113 net.cpp:397] conv2_1/relu -> conv2_1 (in-place)
I0118 17:37:14.024130 20113 net.cpp:150] Setting up conv2_1/relu
I0118 17:37:14.024140 20113 net.cpp:157] Top shape: 1 256 119 119 (3625216)
I0118 17:37:14.024143 20113 net.cpp:165] Memory required for data: 308428448
I0118 17:37:14.024147 20113 layer_factory.hpp:77] Creating layer conv2_1_conv2_1/relu_0_split
I0118 17:37:14.024153 20113 net.cpp:106] Creating Layer conv2_1_conv2_1/relu_0_split
I0118 17:37:14.024158 20113 net.cpp:454] conv2_1_conv2_1/relu_0_split <- conv2_1
I0118 17:37:14.024165 20113 net.cpp:411] conv2_1_conv2_1/relu_0_split -> conv2_1_conv2_1/relu_0_split_0
I0118 17:37:14.024176 20113 net.cpp:411] conv2_1_conv2_1/relu_0_split -> conv2_1_conv2_1/relu_0_split_1
I0118 17:37:14.024222 20113 net.cpp:150] Setting up conv2_1_conv2_1/relu_0_split
I0118 17:37:14.024230 20113 net.cpp:157] Top shape: 1 256 119 119 (3625216)
I0118 17:37:14.024235 20113 net.cpp:157] Top shape: 1 256 119 119 (3625216)
I0118 17:37:14.024237 20113 net.cpp:165] Memory required for data: 337430176
I0118 17:37:14.024241 20113 layer_factory.hpp:77] Creating layer conv2_2_1x1_reduce
I0118 17:37:14.024251 20113 net.cpp:106] Creating Layer conv2_2_1x1_reduce
I0118 17:37:14.024256 20113 net.cpp:454] conv2_2_1x1_reduce <- conv2_1_conv2_1/relu_0_split_0
I0118 17:37:14.024263 20113 net.cpp:411] conv2_2_1x1_reduce -> conv2_2_1x1_reduce
I0118 17:37:14.025291 20113 net.cpp:150] Setting up conv2_2_1x1_reduce
I0118 17:37:14.025301 20113 net.cpp:157] Top shape: 1 64 119 119 (906304)
I0118 17:37:14.025305 20113 net.cpp:165] Memory required for data: 341055392
I0118 17:37:14.025310 20113 layer_factory.hpp:77] Creating layer conv2_2_1x1_reduce/bn
I0118 17:37:14.025321 20113 net.cpp:106] Creating Layer conv2_2_1x1_reduce/bn
I0118 17:37:14.025326 20113 net.cpp:454] conv2_2_1x1_reduce/bn <- conv2_2_1x1_reduce
I0118 17:37:14.025331 20113 net.cpp:397] conv2_2_1x1_reduce/bn -> conv2_2_1x1_reduce (in-place)
I0118 17:37:14.025570 20113 net.cpp:150] Setting up conv2_2_1x1_reduce/bn
I0118 17:37:14.025576 20113 net.cpp:157] Top shape: 1 64 119 119 (906304)
I0118 17:37:14.025581 20113 net.cpp:165] Memory required for data: 344680608
I0118 17:37:14.025588 20113 layer_factory.hpp:77] Creating layer conv2_2_1x1_reduce/relu
I0118 17:37:14.025594 20113 net.cpp:106] Creating Layer conv2_2_1x1_reduce/relu
I0118 17:37:14.025598 20113 net.cpp:454] conv2_2_1x1_reduce/relu <- conv2_2_1x1_reduce
I0118 17:37:14.025604 20113 net.cpp:397] conv2_2_1x1_reduce/relu -> conv2_2_1x1_reduce (in-place)
I0118 17:37:14.025918 20113 net.cpp:150] Setting up conv2_2_1x1_reduce/relu
I0118 17:37:14.025926 20113 net.cpp:157] Top shape: 1 64 119 119 (906304)
I0118 17:37:14.025930 20113 net.cpp:165] Memory required for data: 348305824
I0118 17:37:14.025934 20113 layer_factory.hpp:77] Creating layer conv2_2_3x3
I0118 17:37:14.025943 20113 net.cpp:106] Creating Layer conv2_2_3x3
I0118 17:37:14.025948 20113 net.cpp:454] conv2_2_3x3 <- conv2_2_1x1_reduce
I0118 17:37:14.025954 20113 net.cpp:411] conv2_2_3x3 -> conv2_2_3x3
I0118 17:37:14.027545 20113 net.cpp:150] Setting up conv2_2_3x3
I0118 17:37:14.027556 20113 net.cpp:157] Top shape: 1 64 119 119 (906304)
I0118 17:37:14.027560 20113 net.cpp:165] Memory required for data: 351931040
I0118 17:37:14.027565 20113 layer_factory.hpp:77] Creating layer conv2_2_3x3/bn
I0118 17:37:14.027576 20113 net.cpp:106] Creating Layer conv2_2_3x3/bn
I0118 17:37:14.027582 20113 net.cpp:454] conv2_2_3x3/bn <- conv2_2_3x3
I0118 17:37:14.027631 20113 net.cpp:397] conv2_2_3x3/bn -> conv2_2_3x3 (in-place)
I0118 17:37:14.028023 20113 net.cpp:150] Setting up conv2_2_3x3/bn
I0118 17:37:14.028033 20113 net.cpp:157] Top shape: 1 64 119 119 (906304)
I0118 17:37:14.028036 20113 net.cpp:165] Memory required for data: 355556256
I0118 17:37:14.028054 20113 layer_factory.hpp:77] Creating layer conv2_2_3x3/relu
I0118 17:37:14.028064 20113 net.cpp:106] Creating Layer conv2_2_3x3/relu
I0118 17:37:14.028069 20113 net.cpp:454] conv2_2_3x3/relu <- conv2_2_3x3
I0118 17:37:14.028074 20113 net.cpp:397] conv2_2_3x3/relu -> conv2_2_3x3 (in-place)
I0118 17:37:14.028216 20113 net.cpp:150] Setting up conv2_2_3x3/relu
I0118 17:37:14.028223 20113 net.cpp:157] Top shape: 1 64 119 119 (906304)
I0118 17:37:14.028228 20113 net.cpp:165] Memory required for data: 359181472
I0118 17:37:14.028231 20113 layer_factory.hpp:77] Creating layer conv2_2_1x1_increase
I0118 17:37:14.028249 20113 net.cpp:106] Creating Layer conv2_2_1x1_increase
I0118 17:37:14.028252 20113 net.cpp:454] conv2_2_1x1_increase <- conv2_2_3x3
I0118 17:37:14.028260 20113 net.cpp:411] conv2_2_1x1_increase -> conv2_2_1x1_increase
I0118 17:37:14.031144 20113 net.cpp:150] Setting up conv2_2_1x1_increase
I0118 17:37:14.031157 20113 net.cpp:157] Top shape: 1 256 119 119 (3625216)
I0118 17:37:14.031162 20113 net.cpp:165] Memory required for data: 373682336
I0118 17:37:14.031168 20113 layer_factory.hpp:77] Creating layer conv2_2_1x1_increase/bn
I0118 17:37:14.031175 20113 net.cpp:106] Creating Layer conv2_2_1x1_increase/bn
I0118 17:37:14.031179 20113 net.cpp:454] conv2_2_1x1_increase/bn <- conv2_2_1x1_increase
I0118 17:37:14.031188 20113 net.cpp:397] conv2_2_1x1_increase/bn -> conv2_2_1x1_increase (in-place)
I0118 17:37:14.031364 20113 net.cpp:150] Setting up conv2_2_1x1_increase/bn
I0118 17:37:14.031371 20113 net.cpp:157] Top shape: 1 256 119 119 (3625216)
I0118 17:37:14.031374 20113 net.cpp:165] Memory required for data: 388183200
I0118 17:37:14.031383 20113 layer_factory.hpp:77] Creating layer conv2_2
I0118 17:37:14.031391 20113 net.cpp:106] Creating Layer conv2_2
I0118 17:37:14.031396 20113 net.cpp:454] conv2_2 <- conv2_1_conv2_1/relu_0_split_1
I0118 17:37:14.031401 20113 net.cpp:454] conv2_2 <- conv2_2_1x1_increase
I0118 17:37:14.031407 20113 net.cpp:411] conv2_2 -> conv2_2
I0118 17:37:14.031430 20113 net.cpp:150] Setting up conv2_2
I0118 17:37:14.031436 20113 net.cpp:157] Top shape: 1 256 119 119 (3625216)
I0118 17:37:14.031440 20113 net.cpp:165] Memory required for data: 402684064
I0118 17:37:14.031443 20113 layer_factory.hpp:77] Creating layer conv2_2/relu
I0118 17:37:14.031450 20113 net.cpp:106] Creating Layer conv2_2/relu
I0118 17:37:14.031455 20113 net.cpp:454] conv2_2/relu <- conv2_2
I0118 17:37:14.031460 20113 net.cpp:397] conv2_2/relu -> conv2_2 (in-place)
I0118 17:37:14.031713 20113 net.cpp:150] Setting up conv2_2/relu
I0118 17:37:14.031723 20113 net.cpp:157] Top shape: 1 256 119 119 (3625216)
I0118 17:37:14.031726 20113 net.cpp:165] Memory required for data: 417184928
I0118 17:37:14.031729 20113 layer_factory.hpp:77] Creating layer conv2_2_conv2_2/relu_0_split
I0118 17:37:14.031736 20113 net.cpp:106] Creating Layer conv2_2_conv2_2/relu_0_split
I0118 17:37:14.031740 20113 net.cpp:454] conv2_2_conv2_2/relu_0_split <- conv2_2
I0118 17:37:14.031747 20113 net.cpp:411] conv2_2_conv2_2/relu_0_split -> conv2_2_conv2_2/relu_0_split_0
I0118 17:37:14.031755 20113 net.cpp:411] conv2_2_conv2_2/relu_0_split -> conv2_2_conv2_2/relu_0_split_1
I0118 17:37:14.031800 20113 net.cpp:150] Setting up conv2_2_conv2_2/relu_0_split
I0118 17:37:14.031805 20113 net.cpp:157] Top shape: 1 256 119 119 (3625216)
I0118 17:37:14.031810 20113 net.cpp:157] Top shape: 1 256 119 119 (3625216)
I0118 17:37:14.031812 20113 net.cpp:165] Memory required for data: 446186656
I0118 17:37:14.031816 20113 layer_factory.hpp:77] Creating layer conv2_3_1x1_reduce
I0118 17:37:14.031824 20113 net.cpp:106] Creating Layer conv2_3_1x1_reduce
I0118 17:37:14.031828 20113 net.cpp:454] conv2_3_1x1_reduce <- conv2_2_conv2_2/relu_0_split_0
I0118 17:37:14.031834 20113 net.cpp:411] conv2_3_1x1_reduce -> conv2_3_1x1_reduce
I0118 17:37:14.032932 20113 net.cpp:150] Setting up conv2_3_1x1_reduce
I0118 17:37:14.032943 20113 net.cpp:157] Top shape: 1 64 119 119 (906304)
I0118 17:37:14.032948 20113 net.cpp:165] Memory required for data: 449811872
I0118 17:37:14.032961 20113 layer_factory.hpp:77] Creating layer conv2_3_1x1_reduce/bn
I0118 17:37:14.032971 20113 net.cpp:106] Creating Layer conv2_3_1x1_reduce/bn
I0118 17:37:14.032975 20113 net.cpp:454] conv2_3_1x1_reduce/bn <- conv2_3_1x1_reduce
I0118 17:37:14.032984 20113 net.cpp:397] conv2_3_1x1_reduce/bn -> conv2_3_1x1_reduce (in-place)
I0118 17:37:14.033172 20113 net.cpp:150] Setting up conv2_3_1x1_reduce/bn
I0118 17:37:14.033179 20113 net.cpp:157] Top shape: 1 64 119 119 (906304)
I0118 17:37:14.033183 20113 net.cpp:165] Memory required for data: 453437088
I0118 17:37:14.033191 20113 layer_factory.hpp:77] Creating layer conv2_3_1x1_reduce/relu
I0118 17:37:14.033198 20113 net.cpp:106] Creating Layer conv2_3_1x1_reduce/relu
I0118 17:37:14.033202 20113 net.cpp:454] conv2_3_1x1_reduce/relu <- conv2_3_1x1_reduce
I0118 17:37:14.033208 20113 net.cpp:397] conv2_3_1x1_reduce/relu -> conv2_3_1x1_reduce (in-place)
I0118 17:37:14.033351 20113 net.cpp:150] Setting up conv2_3_1x1_reduce/relu
I0118 17:37:14.033360 20113 net.cpp:157] Top shape: 1 64 119 119 (906304)
I0118 17:37:14.033362 20113 net.cpp:165] Memory required for data: 457062304
I0118 17:37:14.033366 20113 layer_factory.hpp:77] Creating layer conv2_3_3x3
I0118 17:37:14.033377 20113 net.cpp:106] Creating Layer conv2_3_3x3
I0118 17:37:14.033381 20113 net.cpp:454] conv2_3_3x3 <- conv2_3_1x1_reduce
I0118 17:37:14.033390 20113 net.cpp:411] conv2_3_3x3 -> conv2_3_3x3
I0118 17:37:14.034525 20113 net.cpp:150] Setting up conv2_3_3x3
I0118 17:37:14.034535 20113 net.cpp:157] Top shape: 1 64 119 119 (906304)
I0118 17:37:14.034539 20113 net.cpp:165] Memory required for data: 460687520
I0118 17:37:14.034545 20113 layer_factory.hpp:77] Creating layer conv2_3_3x3/bn
I0118 17:37:14.034554 20113 net.cpp:106] Creating Layer conv2_3_3x3/bn
I0118 17:37:14.034559 20113 net.cpp:454] conv2_3_3x3/bn <- conv2_3_3x3
I0118 17:37:14.034565 20113 net.cpp:397] conv2_3_3x3/bn -> conv2_3_3x3 (in-place)
I0118 17:37:14.034762 20113 net.cpp:150] Setting up conv2_3_3x3/bn
I0118 17:37:14.034770 20113 net.cpp:157] Top shape: 1 64 119 119 (906304)
I0118 17:37:14.034773 20113 net.cpp:165] Memory required for data: 464312736
I0118 17:37:14.034781 20113 layer_factory.hpp:77] Creating layer conv2_3_3x3/relu
I0118 17:37:14.034788 20113 net.cpp:106] Creating Layer conv2_3_3x3/relu
I0118 17:37:14.034792 20113 net.cpp:454] conv2_3_3x3/relu <- conv2_3_3x3
I0118 17:37:14.034798 20113 net.cpp:397] conv2_3_3x3/relu -> conv2_3_3x3 (in-place)
I0118 17:37:14.034963 20113 net.cpp:150] Setting up conv2_3_3x3/relu
I0118 17:37:14.034971 20113 net.cpp:157] Top shape: 1 64 119 119 (906304)
I0118 17:37:14.034976 20113 net.cpp:165] Memory required for data: 467937952
I0118 17:37:14.034979 20113 layer_factory.hpp:77] Creating layer conv2_3_1x1_increase
I0118 17:37:14.034989 20113 net.cpp:106] Creating Layer conv2_3_1x1_increase
I0118 17:37:14.034994 20113 net.cpp:454] conv2_3_1x1_increase <- conv2_3_3x3
I0118 17:37:14.035001 20113 net.cpp:411] conv2_3_1x1_increase -> conv2_3_1x1_increase
I0118 17:37:14.035902 20113 net.cpp:150] Setting up conv2_3_1x1_increase
I0118 17:37:14.035910 20113 net.cpp:157] Top shape: 1 256 119 119 (3625216)
I0118 17:37:14.035914 20113 net.cpp:165] Memory required for data: 482438816
I0118 17:37:14.035919 20113 layer_factory.hpp:77] Creating layer conv2_3_1x1_increase/bn
I0118 17:37:14.035928 20113 net.cpp:106] Creating Layer conv2_3_1x1_increase/bn
I0118 17:37:14.035933 20113 net.cpp:454] conv2_3_1x1_increase/bn <- conv2_3_1x1_increase
I0118 17:37:14.035940 20113 net.cpp:397] conv2_3_1x1_increase/bn -> conv2_3_1x1_increase (in-place)
I0118 17:37:14.036119 20113 net.cpp:150] Setting up conv2_3_1x1_increase/bn
I0118 17:37:14.036128 20113 net.cpp:157] Top shape: 1 256 119 119 (3625216)
I0118 17:37:14.036130 20113 net.cpp:165] Memory required for data: 496939680
I0118 17:37:14.036146 20113 layer_factory.hpp:77] Creating layer conv2_3
I0118 17:37:14.036155 20113 net.cpp:106] Creating Layer conv2_3
I0118 17:37:14.036160 20113 net.cpp:454] conv2_3 <- conv2_2_conv2_2/relu_0_split_1
I0118 17:37:14.036172 20113 net.cpp:454] conv2_3 <- conv2_3_1x1_increase
I0118 17:37:14.036180 20113 net.cpp:411] conv2_3 -> conv2_3
I0118 17:37:14.036203 20113 net.cpp:150] Setting up conv2_3
I0118 17:37:14.036211 20113 net.cpp:157] Top shape: 1 256 119 119 (3625216)
I0118 17:37:14.036213 20113 net.cpp:165] Memory required for data: 511440544
I0118 17:37:14.036217 20113 layer_factory.hpp:77] Creating layer conv2_3/relu
I0118 17:37:14.036224 20113 net.cpp:106] Creating Layer conv2_3/relu
I0118 17:37:14.036228 20113 net.cpp:454] conv2_3/relu <- conv2_3
I0118 17:37:14.036233 20113 net.cpp:397] conv2_3/relu -> conv2_3 (in-place)
I0118 17:37:14.036484 20113 net.cpp:150] Setting up conv2_3/relu
I0118 17:37:14.036494 20113 net.cpp:157] Top shape: 1 256 119 119 (3625216)
I0118 17:37:14.036497 20113 net.cpp:165] Memory required for data: 525941408
I0118 17:37:14.036501 20113 layer_factory.hpp:77] Creating layer conv2_3_conv2_3/relu_0_split
I0118 17:37:14.036510 20113 net.cpp:106] Creating Layer conv2_3_conv2_3/relu_0_split
I0118 17:37:14.036514 20113 net.cpp:454] conv2_3_conv2_3/relu_0_split <- conv2_3
I0118 17:37:14.036521 20113 net.cpp:411] conv2_3_conv2_3/relu_0_split -> conv2_3_conv2_3/relu_0_split_0
I0118 17:37:14.036528 20113 net.cpp:411] conv2_3_conv2_3/relu_0_split -> conv2_3_conv2_3/relu_0_split_1
I0118 17:37:14.036569 20113 net.cpp:150] Setting up conv2_3_conv2_3/relu_0_split
I0118 17:37:14.036576 20113 net.cpp:157] Top shape: 1 256 119 119 (3625216)
I0118 17:37:14.036581 20113 net.cpp:157] Top shape: 1 256 119 119 (3625216)
I0118 17:37:14.036584 20113 net.cpp:165] Memory required for data: 554943136
I0118 17:37:14.036587 20113 layer_factory.hpp:77] Creating layer conv3_1_1x1_reduce
I0118 17:37:14.036597 20113 net.cpp:106] Creating Layer conv3_1_1x1_reduce
I0118 17:37:14.036602 20113 net.cpp:454] conv3_1_1x1_reduce <- conv2_3_conv2_3/relu_0_split_0
I0118 17:37:14.036609 20113 net.cpp:411] conv3_1_1x1_reduce -> conv3_1_1x1_reduce
I0118 17:37:14.037619 20113 net.cpp:150] Setting up conv3_1_1x1_reduce
I0118 17:37:14.037628 20113 net.cpp:157] Top shape: 1 128 119 119 (1812608)
I0118 17:37:14.037633 20113 net.cpp:165] Memory required for data: 562193568
I0118 17:37:14.037638 20113 layer_factory.hpp:77] Creating layer conv3_1_1x1_reduce/bn
I0118 17:37:14.037647 20113 net.cpp:106] Creating Layer conv3_1_1x1_reduce/bn
I0118 17:37:14.037652 20113 net.cpp:454] conv3_1_1x1_reduce/bn <- conv3_1_1x1_reduce
I0118 17:37:14.037659 20113 net.cpp:397] conv3_1_1x1_reduce/bn -> conv3_1_1x1_reduce (in-place)
I0118 17:37:14.037840 20113 net.cpp:150] Setting up conv3_1_1x1_reduce/bn
I0118 17:37:14.037847 20113 net.cpp:157] Top shape: 1 128 119 119 (1812608)
I0118 17:37:14.037850 20113 net.cpp:165] Memory required for data: 569444000
I0118 17:37:14.037858 20113 layer_factory.hpp:77] Creating layer conv3_1_1x1_reduce/relu
I0118 17:37:14.037864 20113 net.cpp:106] Creating Layer conv3_1_1x1_reduce/relu
I0118 17:37:14.037868 20113 net.cpp:454] conv3_1_1x1_reduce/relu <- conv3_1_1x1_reduce
I0118 17:37:14.037875 20113 net.cpp:397] conv3_1_1x1_reduce/relu -> conv3_1_1x1_reduce (in-place)
I0118 17:37:14.038012 20113 net.cpp:150] Setting up conv3_1_1x1_reduce/relu
I0118 17:37:14.038020 20113 net.cpp:157] Top shape: 1 128 119 119 (1812608)
I0118 17:37:14.038023 20113 net.cpp:165] Memory required for data: 576694432
I0118 17:37:14.038027 20113 layer_factory.hpp:77] Creating layer conv3_1_3x3
I0118 17:37:14.038036 20113 net.cpp:106] Creating Layer conv3_1_3x3
I0118 17:37:14.038040 20113 net.cpp:454] conv3_1_3x3 <- conv3_1_1x1_reduce
I0118 17:37:14.038048 20113 net.cpp:411] conv3_1_3x3 -> conv3_1_3x3
I0118 17:37:14.039863 20113 net.cpp:150] Setting up conv3_1_3x3
I0118 17:37:14.039873 20113 net.cpp:157] Top shape: 1 128 60 60 (460800)
I0118 17:37:14.039877 20113 net.cpp:165] Memory required for data: 578537632
I0118 17:37:14.039883 20113 layer_factory.hpp:77] Creating layer conv3_1_3x3/bn
I0118 17:37:14.039892 20113 net.cpp:106] Creating Layer conv3_1_3x3/bn
I0118 17:37:14.039897 20113 net.cpp:454] conv3_1_3x3/bn <- conv3_1_3x3
I0118 17:37:14.039902 20113 net.cpp:397] conv3_1_3x3/bn -> conv3_1_3x3 (in-place)
I0118 17:37:14.040091 20113 net.cpp:150] Setting up conv3_1_3x3/bn
I0118 17:37:14.040098 20113 net.cpp:157] Top shape: 1 128 60 60 (460800)
I0118 17:37:14.040103 20113 net.cpp:165] Memory required for data: 580380832
I0118 17:37:14.040110 20113 layer_factory.hpp:77] Creating layer conv3_1_3x3/relu
I0118 17:37:14.040117 20113 net.cpp:106] Creating Layer conv3_1_3x3/relu
I0118 17:37:14.040120 20113 net.cpp:454] conv3_1_3x3/relu <- conv3_1_3x3
I0118 17:37:14.040127 20113 net.cpp:397] conv3_1_3x3/relu -> conv3_1_3x3 (in-place)
I0118 17:37:14.040268 20113 net.cpp:150] Setting up conv3_1_3x3/relu
I0118 17:37:14.040276 20113 net.cpp:157] Top shape: 1 128 60 60 (460800)
I0118 17:37:14.040279 20113 net.cpp:165] Memory required for data: 582224032
I0118 17:37:14.040283 20113 layer_factory.hpp:77] Creating layer conv3_1_1x1_increase
I0118 17:37:14.040292 20113 net.cpp:106] Creating Layer conv3_1_1x1_increase
I0118 17:37:14.040297 20113 net.cpp:454] conv3_1_1x1_increase <- conv3_1_3x3
I0118 17:37:14.040303 20113 net.cpp:411] conv3_1_1x1_increase -> conv3_1_1x1_increase
I0118 17:37:14.041760 20113 net.cpp:150] Setting up conv3_1_1x1_increase
I0118 17:37:14.041770 20113 net.cpp:157] Top shape: 1 512 60 60 (1843200)
I0118 17:37:14.041774 20113 net.cpp:165] Memory required for data: 589596832
I0118 17:37:14.041779 20113 layer_factory.hpp:77] Creating layer conv3_1_1x1_increase/bn
I0118 17:37:14.041790 20113 net.cpp:106] Creating Layer conv3_1_1x1_increase/bn
I0118 17:37:14.041795 20113 net.cpp:454] conv3_1_1x1_increase/bn <- conv3_1_1x1_increase
I0118 17:37:14.041802 20113 net.cpp:397] conv3_1_1x1_increase/bn -> conv3_1_1x1_increase (in-place)
I0118 17:37:14.042302 20113 net.cpp:150] Setting up conv3_1_1x1_increase/bn
I0118 17:37:14.042312 20113 net.cpp:157] Top shape: 1 512 60 60 (1843200)
I0118 17:37:14.042315 20113 net.cpp:165] Memory required for data: 596969632
I0118 17:37:14.042325 20113 layer_factory.hpp:77] Creating layer conv3_1_1x1_proj
I0118 17:37:14.042335 20113 net.cpp:106] Creating Layer conv3_1_1x1_proj
I0118 17:37:14.042340 20113 net.cpp:454] conv3_1_1x1_proj <- conv2_3_conv2_3/relu_0_split_1
I0118 17:37:14.042348 20113 net.cpp:411] conv3_1_1x1_proj -> conv3_1_1x1_proj
I0118 17:37:14.044348 20113 net.cpp:150] Setting up conv3_1_1x1_proj
I0118 17:37:14.044359 20113 net.cpp:157] Top shape: 1 512 60 60 (1843200)
I0118 17:37:14.044363 20113 net.cpp:165] Memory required for data: 604342432
I0118 17:37:14.044369 20113 layer_factory.hpp:77] Creating layer conv3_1_1x1_proj/bn
I0118 17:37:14.044376 20113 net.cpp:106] Creating Layer conv3_1_1x1_proj/bn
I0118 17:37:14.044381 20113 net.cpp:454] conv3_1_1x1_proj/bn <- conv3_1_1x1_proj
I0118 17:37:14.044389 20113 net.cpp:397] conv3_1_1x1_proj/bn -> conv3_1_1x1_proj (in-place)
I0118 17:37:14.044577 20113 net.cpp:150] Setting up conv3_1_1x1_proj/bn
I0118 17:37:14.044585 20113 net.cpp:157] Top shape: 1 512 60 60 (1843200)
I0118 17:37:14.044589 20113 net.cpp:165] Memory required for data: 611715232
I0118 17:37:14.044597 20113 layer_factory.hpp:77] Creating layer conv3_1
I0118 17:37:14.044605 20113 net.cpp:106] Creating Layer conv3_1
I0118 17:37:14.044608 20113 net.cpp:454] conv3_1 <- conv3_1_1x1_proj
I0118 17:37:14.044613 20113 net.cpp:454] conv3_1 <- conv3_1_1x1_increase
I0118 17:37:14.044620 20113 net.cpp:411] conv3_1 -> conv3_1
I0118 17:37:14.044647 20113 net.cpp:150] Setting up conv3_1
I0118 17:37:14.044653 20113 net.cpp:157] Top shape: 1 512 60 60 (1843200)
I0118 17:37:14.044656 20113 net.cpp:165] Memory required for data: 619088032
I0118 17:37:14.044661 20113 layer_factory.hpp:77] Creating layer conv3_1/relu
I0118 17:37:14.044667 20113 net.cpp:106] Creating Layer conv3_1/relu
I0118 17:37:14.044670 20113 net.cpp:454] conv3_1/relu <- conv3_1
I0118 17:37:14.044677 20113 net.cpp:397] conv3_1/relu -> conv3_1 (in-place)
I0118 17:37:14.044935 20113 net.cpp:150] Setting up conv3_1/relu
I0118 17:37:14.044944 20113 net.cpp:157] Top shape: 1 512 60 60 (1843200)
I0118 17:37:14.044947 20113 net.cpp:165] Memory required for data: 626460832
I0118 17:37:14.044960 20113 layer_factory.hpp:77] Creating layer conv3_1_conv3_1/relu_0_split
I0118 17:37:14.044967 20113 net.cpp:106] Creating Layer conv3_1_conv3_1/relu_0_split
I0118 17:37:14.044972 20113 net.cpp:454] conv3_1_conv3_1/relu_0_split <- conv3_1
I0118 17:37:14.044978 20113 net.cpp:411] conv3_1_conv3_1/relu_0_split -> conv3_1_conv3_1/relu_0_split_0
I0118 17:37:14.044986 20113 net.cpp:411] conv3_1_conv3_1/relu_0_split -> conv3_1_conv3_1/relu_0_split_1
I0118 17:37:14.045027 20113 net.cpp:150] Setting up conv3_1_conv3_1/relu_0_split
I0118 17:37:14.045033 20113 net.cpp:157] Top shape: 1 512 60 60 (1843200)
I0118 17:37:14.045038 20113 net.cpp:157] Top shape: 1 512 60 60 (1843200)
I0118 17:37:14.045042 20113 net.cpp:165] Memory required for data: 641206432
I0118 17:37:14.045045 20113 layer_factory.hpp:77] Creating layer conv3_2_1x1_reduce
I0118 17:37:14.045054 20113 net.cpp:106] Creating Layer conv3_2_1x1_reduce
I0118 17:37:14.045059 20113 net.cpp:454] conv3_2_1x1_reduce <- conv3_1_conv3_1/relu_0_split_0
I0118 17:37:14.045066 20113 net.cpp:411] conv3_2_1x1_reduce -> conv3_2_1x1_reduce
I0118 17:37:14.046494 20113 net.cpp:150] Setting up conv3_2_1x1_reduce
I0118 17:37:14.046502 20113 net.cpp:157] Top shape: 1 128 60 60 (460800)
I0118 17:37:14.046506 20113 net.cpp:165] Memory required for data: 643049632
I0118 17:37:14.046512 20113 layer_factory.hpp:77] Creating layer conv3_2_1x1_reduce/bn
I0118 17:37:14.046521 20113 net.cpp:106] Creating Layer conv3_2_1x1_reduce/bn
I0118 17:37:14.046526 20113 net.cpp:454] conv3_2_1x1_reduce/bn <- conv3_2_1x1_reduce
I0118 17:37:14.046533 20113 net.cpp:397] conv3_2_1x1_reduce/bn -> conv3_2_1x1_reduce (in-place)
I0118 17:37:14.046722 20113 net.cpp:150] Setting up conv3_2_1x1_reduce/bn
I0118 17:37:14.046730 20113 net.cpp:157] Top shape: 1 128 60 60 (460800)
I0118 17:37:14.046733 20113 net.cpp:165] Memory required for data: 644892832
I0118 17:37:14.046741 20113 layer_factory.hpp:77] Creating layer conv3_2_1x1_reduce/relu
I0118 17:37:14.046747 20113 net.cpp:106] Creating Layer conv3_2_1x1_reduce/relu
I0118 17:37:14.046751 20113 net.cpp:454] conv3_2_1x1_reduce/relu <- conv3_2_1x1_reduce
I0118 17:37:14.046758 20113 net.cpp:397] conv3_2_1x1_reduce/relu -> conv3_2_1x1_reduce (in-place)
I0118 17:37:14.047025 20113 net.cpp:150] Setting up conv3_2_1x1_reduce/relu
I0118 17:37:14.047034 20113 net.cpp:157] Top shape: 1 128 60 60 (460800)
I0118 17:37:14.047039 20113 net.cpp:165] Memory required for data: 646736032
I0118 17:37:14.047042 20113 layer_factory.hpp:77] Creating layer conv3_2_3x3
I0118 17:37:14.047063 20113 net.cpp:106] Creating Layer conv3_2_3x3
I0118 17:37:14.047067 20113 net.cpp:454] conv3_2_3x3 <- conv3_2_1x1_reduce
I0118 17:37:14.047075 20113 net.cpp:411] conv3_2_3x3 -> conv3_2_3x3
I0118 17:37:14.049268 20113 net.cpp:150] Setting up conv3_2_3x3
I0118 17:37:14.049278 20113 net.cpp:157] Top shape: 1 128 60 60 (460800)
I0118 17:37:14.049283 20113 net.cpp:165] Memory required for data: 648579232
I0118 17:37:14.049290 20113 layer_factory.hpp:77] Creating layer conv3_2_3x3/bn
I0118 17:37:14.049298 20113 net.cpp:106] Creating Layer conv3_2_3x3/bn
I0118 17:37:14.049301 20113 net.cpp:454] conv3_2_3x3/bn <- conv3_2_3x3
I0118 17:37:14.049309 20113 net.cpp:397] conv3_2_3x3/bn -> conv3_2_3x3 (in-place)
I0118 17:37:14.049504 20113 net.cpp:150] Setting up conv3_2_3x3/bn
I0118 17:37:14.049511 20113 net.cpp:157] Top shape: 1 128 60 60 (460800)
I0118 17:37:14.049515 20113 net.cpp:165] Memory required for data: 650422432
I0118 17:37:14.049522 20113 layer_factory.hpp:77] Creating layer conv3_2_3x3/relu
I0118 17:37:14.049530 20113 net.cpp:106] Creating Layer conv3_2_3x3/relu
I0118 17:37:14.049532 20113 net.cpp:454] conv3_2_3x3/relu <- conv3_2_3x3
I0118 17:37:14.049537 20113 net.cpp:397] conv3_2_3x3/relu -> conv3_2_3x3 (in-place)
I0118 17:37:14.049688 20113 net.cpp:150] Setting up conv3_2_3x3/relu
I0118 17:37:14.049696 20113 net.cpp:157] Top shape: 1 128 60 60 (460800)
I0118 17:37:14.049700 20113 net.cpp:165] Memory required for data: 652265632
I0118 17:37:14.049703 20113 layer_factory.hpp:77] Creating layer conv3_2_1x1_increase
I0118 17:37:14.049721 20113 net.cpp:106] Creating Layer conv3_2_1x1_increase
I0118 17:37:14.049727 20113 net.cpp:454] conv3_2_1x1_increase <- conv3_2_3x3
I0118 17:37:14.049736 20113 net.cpp:411] conv3_2_1x1_increase -> conv3_2_1x1_increase
I0118 17:37:14.050997 20113 net.cpp:150] Setting up conv3_2_1x1_increase
I0118 17:37:14.051007 20113 net.cpp:157] Top shape: 1 512 60 60 (1843200)
I0118 17:37:14.051012 20113 net.cpp:165] Memory required for data: 659638432
I0118 17:37:14.051017 20113 layer_factory.hpp:77] Creating layer conv3_2_1x1_increase/bn
I0118 17:37:14.051026 20113 net.cpp:106] Creating Layer conv3_2_1x1_increase/bn
I0118 17:37:14.051030 20113 net.cpp:454] conv3_2_1x1_increase/bn <- conv3_2_1x1_increase
I0118 17:37:14.051039 20113 net.cpp:397] conv3_2_1x1_increase/bn -> conv3_2_1x1_increase (in-place)
I0118 17:37:14.051225 20113 net.cpp:150] Setting up conv3_2_1x1_increase/bn
I0118 17:37:14.051231 20113 net.cpp:157] Top shape: 1 512 60 60 (1843200)
I0118 17:37:14.051235 20113 net.cpp:165] Memory required for data: 667011232
I0118 17:37:14.051244 20113 layer_factory.hpp:77] Creating layer conv3_2
I0118 17:37:14.051250 20113 net.cpp:106] Creating Layer conv3_2
I0118 17:37:14.051254 20113 net.cpp:454] conv3_2 <- conv3_1_conv3_1/relu_0_split_1
I0118 17:37:14.051259 20113 net.cpp:454] conv3_2 <- conv3_2_1x1_increase
I0118 17:37:14.051265 20113 net.cpp:411] conv3_2 -> conv3_2
I0118 17:37:14.051291 20113 net.cpp:150] Setting up conv3_2
I0118 17:37:14.051297 20113 net.cpp:157] Top shape: 1 512 60 60 (1843200)
I0118 17:37:14.051301 20113 net.cpp:165] Memory required for data: 674384032
I0118 17:37:14.051306 20113 layer_factory.hpp:77] Creating layer conv3_2/relu
I0118 17:37:14.051311 20113 net.cpp:106] Creating Layer conv3_2/relu
I0118 17:37:14.051314 20113 net.cpp:454] conv3_2/relu <- conv3_2
I0118 17:37:14.051321 20113 net.cpp:397] conv3_2/relu -> conv3_2 (in-place)
I0118 17:37:14.051579 20113 net.cpp:150] Setting up conv3_2/relu
I0118 17:37:14.051587 20113 net.cpp:157] Top shape: 1 512 60 60 (1843200)
I0118 17:37:14.051591 20113 net.cpp:165] Memory required for data: 681756832
I0118 17:37:14.051594 20113 layer_factory.hpp:77] Creating layer conv3_2_conv3_2/relu_0_split
I0118 17:37:14.051602 20113 net.cpp:106] Creating Layer conv3_2_conv3_2/relu_0_split
I0118 17:37:14.051607 20113 net.cpp:454] conv3_2_conv3_2/relu_0_split <- conv3_2
I0118 17:37:14.051615 20113 net.cpp:411] conv3_2_conv3_2/relu_0_split -> conv3_2_conv3_2/relu_0_split_0
I0118 17:37:14.051623 20113 net.cpp:411] conv3_2_conv3_2/relu_0_split -> conv3_2_conv3_2/relu_0_split_1
I0118 17:37:14.051666 20113 net.cpp:150] Setting up conv3_2_conv3_2/relu_0_split
I0118 17:37:14.051671 20113 net.cpp:157] Top shape: 1 512 60 60 (1843200)
I0118 17:37:14.051676 20113 net.cpp:157] Top shape: 1 512 60 60 (1843200)
I0118 17:37:14.051678 20113 net.cpp:165] Memory required for data: 696502432
I0118 17:37:14.051682 20113 layer_factory.hpp:77] Creating layer conv3_3_1x1_reduce
I0118 17:37:14.051692 20113 net.cpp:106] Creating Layer conv3_3_1x1_reduce
I0118 17:37:14.051697 20113 net.cpp:454] conv3_3_1x1_reduce <- conv3_2_conv3_2/relu_0_split_0
I0118 17:37:14.051704 20113 net.cpp:411] conv3_3_1x1_reduce -> conv3_3_1x1_reduce
I0118 17:37:14.052845 20113 net.cpp:150] Setting up conv3_3_1x1_reduce
I0118 17:37:14.052853 20113 net.cpp:157] Top shape: 1 128 60 60 (460800)
I0118 17:37:14.052857 20113 net.cpp:165] Memory required for data: 698345632
I0118 17:37:14.052863 20113 layer_factory.hpp:77] Creating layer conv3_3_1x1_reduce/bn
I0118 17:37:14.052873 20113 net.cpp:106] Creating Layer conv3_3_1x1_reduce/bn
I0118 17:37:14.052877 20113 net.cpp:454] conv3_3_1x1_reduce/bn <- conv3_3_1x1_reduce
I0118 17:37:14.052886 20113 net.cpp:397] conv3_3_1x1_reduce/bn -> conv3_3_1x1_reduce (in-place)
I0118 17:37:14.053072 20113 net.cpp:150] Setting up conv3_3_1x1_reduce/bn
I0118 17:37:14.053081 20113 net.cpp:157] Top shape: 1 128 60 60 (460800)
I0118 17:37:14.053083 20113 net.cpp:165] Memory required for data: 700188832
I0118 17:37:14.053092 20113 layer_factory.hpp:77] Creating layer conv3_3_1x1_reduce/relu
I0118 17:37:14.053107 20113 net.cpp:106] Creating Layer conv3_3_1x1_reduce/relu
I0118 17:37:14.053112 20113 net.cpp:454] conv3_3_1x1_reduce/relu <- conv3_3_1x1_reduce
I0118 17:37:14.053117 20113 net.cpp:397] conv3_3_1x1_reduce/relu -> conv3_3_1x1_reduce (in-place)
I0118 17:37:14.053375 20113 net.cpp:150] Setting up conv3_3_1x1_reduce/relu
I0118 17:37:14.053382 20113 net.cpp:157] Top shape: 1 128 60 60 (460800)
I0118 17:37:14.053386 20113 net.cpp:165] Memory required for data: 702032032
I0118 17:37:14.053390 20113 layer_factory.hpp:77] Creating layer conv3_3_3x3
I0118 17:37:14.053401 20113 net.cpp:106] Creating Layer conv3_3_3x3
I0118 17:37:14.053406 20113 net.cpp:454] conv3_3_3x3 <- conv3_3_1x1_reduce
I0118 17:37:14.053413 20113 net.cpp:411] conv3_3_3x3 -> conv3_3_3x3
I0118 17:37:14.055644 20113 net.cpp:150] Setting up conv3_3_3x3
I0118 17:37:14.055654 20113 net.cpp:157] Top shape: 1 128 60 60 (460800)
I0118 17:37:14.055657 20113 net.cpp:165] Memory required for data: 703875232
I0118 17:37:14.055665 20113 layer_factory.hpp:77] Creating layer conv3_3_3x3/bn
I0118 17:37:14.055673 20113 net.cpp:106] Creating Layer conv3_3_3x3/bn
I0118 17:37:14.055678 20113 net.cpp:454] conv3_3_3x3/bn <- conv3_3_3x3
I0118 17:37:14.055685 20113 net.cpp:397] conv3_3_3x3/bn -> conv3_3_3x3 (in-place)
I0118 17:37:14.055883 20113 net.cpp:150] Setting up conv3_3_3x3/bn
I0118 17:37:14.055889 20113 net.cpp:157] Top shape: 1 128 60 60 (460800)
I0118 17:37:14.055892 20113 net.cpp:165] Memory required for data: 705718432
I0118 17:37:14.055901 20113 layer_factory.hpp:77] Creating layer conv3_3_3x3/relu
I0118 17:37:14.055907 20113 net.cpp:106] Creating Layer conv3_3_3x3/relu
I0118 17:37:14.055912 20113 net.cpp:454] conv3_3_3x3/relu <- conv3_3_3x3
I0118 17:37:14.055919 20113 net.cpp:397] conv3_3_3x3/relu -> conv3_3_3x3 (in-place)
I0118 17:37:14.056066 20113 net.cpp:150] Setting up conv3_3_3x3/relu
I0118 17:37:14.056073 20113 net.cpp:157] Top shape: 1 128 60 60 (460800)
I0118 17:37:14.056077 20113 net.cpp:165] Memory required for data: 707561632
I0118 17:37:14.056080 20113 layer_factory.hpp:77] Creating layer conv3_3_1x1_increase
I0118 17:37:14.056089 20113 net.cpp:106] Creating Layer conv3_3_1x1_increase
I0118 17:37:14.056094 20113 net.cpp:454] conv3_3_1x1_increase <- conv3_3_3x3
I0118 17:37:14.056102 20113 net.cpp:411] conv3_3_1x1_increase -> conv3_3_1x1_increase
I0118 17:37:14.057489 20113 net.cpp:150] Setting up conv3_3_1x1_increase
I0118 17:37:14.057502 20113 net.cpp:157] Top shape: 1 512 60 60 (1843200)
I0118 17:37:14.057507 20113 net.cpp:165] Memory required for data: 714934432
I0118 17:37:14.057512 20113 layer_factory.hpp:77] Creating layer conv3_3_1x1_increase/bn
I0118 17:37:14.057519 20113 net.cpp:106] Creating Layer conv3_3_1x1_increase/bn
I0118 17:37:14.057523 20113 net.cpp:454] conv3_3_1x1_increase/bn <- conv3_3_1x1_increase
I0118 17:37:14.057531 20113 net.cpp:397] conv3_3_1x1_increase/bn -> conv3_3_1x1_increase (in-place)
I0118 17:37:14.057833 20113 net.cpp:150] Setting up conv3_3_1x1_increase/bn
I0118 17:37:14.057842 20113 net.cpp:157] Top shape: 1 512 60 60 (1843200)
I0118 17:37:14.057847 20113 net.cpp:165] Memory required for data: 722307232
I0118 17:37:14.057854 20113 layer_factory.hpp:77] Creating layer conv3_3
I0118 17:37:14.057862 20113 net.cpp:106] Creating Layer conv3_3
I0118 17:37:14.057867 20113 net.cpp:454] conv3_3 <- conv3_2_conv3_2/relu_0_split_1
I0118 17:37:14.057871 20113 net.cpp:454] conv3_3 <- conv3_3_1x1_increase
I0118 17:37:14.057878 20113 net.cpp:411] conv3_3 -> conv3_3
I0118 17:37:14.057906 20113 net.cpp:150] Setting up conv3_3
I0118 17:37:14.057912 20113 net.cpp:157] Top shape: 1 512 60 60 (1843200)
I0118 17:37:14.057916 20113 net.cpp:165] Memory required for data: 729680032
I0118 17:37:14.057919 20113 layer_factory.hpp:77] Creating layer conv3_3/relu
I0118 17:37:14.057925 20113 net.cpp:106] Creating Layer conv3_3/relu
I0118 17:37:14.057929 20113 net.cpp:454] conv3_3/relu <- conv3_3
I0118 17:37:14.057934 20113 net.cpp:397] conv3_3/relu -> conv3_3 (in-place)
I0118 17:37:14.058329 20113 net.cpp:150] Setting up conv3_3/relu
I0118 17:37:14.058353 20113 net.cpp:157] Top shape: 1 512 60 60 (1843200)
I0118 17:37:14.058357 20113 net.cpp:165] Memory required for data: 737052832
I0118 17:37:14.058360 20113 layer_factory.hpp:77] Creating layer conv3_3_conv3_3/relu_0_split
I0118 17:37:14.058369 20113 net.cpp:106] Creating Layer conv3_3_conv3_3/relu_0_split
I0118 17:37:14.058373 20113 net.cpp:454] conv3_3_conv3_3/relu_0_split <- conv3_3
I0118 17:37:14.058380 20113 net.cpp:411] conv3_3_conv3_3/relu_0_split -> conv3_3_conv3_3/relu_0_split_0
I0118 17:37:14.058388 20113 net.cpp:411] conv3_3_conv3_3/relu_0_split -> conv3_3_conv3_3/relu_0_split_1
I0118 17:37:14.058439 20113 net.cpp:150] Setting up conv3_3_conv3_3/relu_0_split
I0118 17:37:14.058444 20113 net.cpp:157] Top shape: 1 512 60 60 (1843200)
I0118 17:37:14.058449 20113 net.cpp:157] Top shape: 1 512 60 60 (1843200)
I0118 17:37:14.058452 20113 net.cpp:165] Memory required for data: 751798432
I0118 17:37:14.058455 20113 layer_factory.hpp:77] Creating layer conv3_4_1x1_reduce
I0118 17:37:14.058465 20113 net.cpp:106] Creating Layer conv3_4_1x1_reduce
I0118 17:37:14.058470 20113 net.cpp:454] conv3_4_1x1_reduce <- conv3_3_conv3_3/relu_0_split_0
I0118 17:37:14.058475 20113 net.cpp:411] conv3_4_1x1_reduce -> conv3_4_1x1_reduce
I0118 17:37:14.060720 20113 net.cpp:150] Setting up conv3_4_1x1_reduce
I0118 17:37:14.060739 20113 net.cpp:157] Top shape: 1 128 60 60 (460800)
I0118 17:37:14.060744 20113 net.cpp:165] Memory required for data: 753641632
I0118 17:37:14.060750 20113 layer_factory.hpp:77] Creating layer conv3_4_1x1_reduce/bn
I0118 17:37:14.060762 20113 net.cpp:106] Creating Layer conv3_4_1x1_reduce/bn
I0118 17:37:14.060767 20113 net.cpp:454] conv3_4_1x1_reduce/bn <- conv3_4_1x1_reduce
I0118 17:37:14.060776 20113 net.cpp:397] conv3_4_1x1_reduce/bn -> conv3_4_1x1_reduce (in-place)
I0118 17:37:14.061077 20113 net.cpp:150] Setting up conv3_4_1x1_reduce/bn
I0118 17:37:14.061084 20113 net.cpp:157] Top shape: 1 128 60 60 (460800)
I0118 17:37:14.061087 20113 net.cpp:165] Memory required for data: 755484832
I0118 17:37:14.061095 20113 layer_factory.hpp:77] Creating layer conv3_4_1x1_reduce/relu
I0118 17:37:14.061101 20113 net.cpp:106] Creating Layer conv3_4_1x1_reduce/relu
I0118 17:37:14.061105 20113 net.cpp:454] conv3_4_1x1_reduce/relu <- conv3_4_1x1_reduce
I0118 17:37:14.061110 20113 net.cpp:397] conv3_4_1x1_reduce/relu -> conv3_4_1x1_reduce (in-place)
I0118 17:37:14.061455 20113 net.cpp:150] Setting up conv3_4_1x1_reduce/relu
I0118 17:37:14.061465 20113 net.cpp:157] Top shape: 1 128 60 60 (460800)
I0118 17:37:14.061468 20113 net.cpp:165] Memory required for data: 757328032
I0118 17:37:14.061471 20113 layer_factory.hpp:77] Creating layer conv3_4_3x3
I0118 17:37:14.061481 20113 net.cpp:106] Creating Layer conv3_4_3x3
I0118 17:37:14.061486 20113 net.cpp:454] conv3_4_3x3 <- conv3_4_1x1_reduce
I0118 17:37:14.061494 20113 net.cpp:411] conv3_4_3x3 -> conv3_4_3x3
I0118 17:37:14.065049 20113 net.cpp:150] Setting up conv3_4_3x3
I0118 17:37:14.065075 20113 net.cpp:157] Top shape: 1 128 60 60 (460800)
I0118 17:37:14.065079 20113 net.cpp:165] Memory required for data: 759171232
I0118 17:37:14.065089 20113 layer_factory.hpp:77] Creating layer conv3_4_3x3/bn
I0118 17:37:14.065104 20113 net.cpp:106] Creating Layer conv3_4_3x3/bn
I0118 17:37:14.065109 20113 net.cpp:454] conv3_4_3x3/bn <- conv3_4_3x3
I0118 17:37:14.065119 20113 net.cpp:397] conv3_4_3x3/bn -> conv3_4_3x3 (in-place)
I0118 17:37:14.065464 20113 net.cpp:150] Setting up conv3_4_3x3/bn
I0118 17:37:14.065474 20113 net.cpp:157] Top shape: 1 128 60 60 (460800)
I0118 17:37:14.065476 20113 net.cpp:165] Memory required for data: 761014432
I0118 17:37:14.065485 20113 layer_factory.hpp:77] Creating layer conv3_4_3x3/relu
I0118 17:37:14.065492 20113 net.cpp:106] Creating Layer conv3_4_3x3/relu
I0118 17:37:14.065498 20113 net.cpp:454] conv3_4_3x3/relu <- conv3_4_3x3
I0118 17:37:14.065505 20113 net.cpp:397] conv3_4_3x3/relu -> conv3_4_3x3 (in-place)
I0118 17:37:14.065719 20113 net.cpp:150] Setting up conv3_4_3x3/relu
I0118 17:37:14.065732 20113 net.cpp:157] Top shape: 1 128 60 60 (460800)
I0118 17:37:14.065745 20113 net.cpp:165] Memory required for data: 762857632
I0118 17:37:14.065750 20113 layer_factory.hpp:77] Creating layer conv3_4_1x1_increase
I0118 17:37:14.065762 20113 net.cpp:106] Creating Layer conv3_4_1x1_increase
I0118 17:37:14.065768 20113 net.cpp:454] conv3_4_1x1_increase <- conv3_4_3x3
I0118 17:37:14.065775 20113 net.cpp:411] conv3_4_1x1_increase -> conv3_4_1x1_increase
I0118 17:37:14.067818 20113 net.cpp:150] Setting up conv3_4_1x1_increase
I0118 17:37:14.067852 20113 net.cpp:157] Top shape: 1 512 60 60 (1843200)
I0118 17:37:14.067868 20113 net.cpp:165] Memory required for data: 770230432
I0118 17:37:14.067884 20113 layer_factory.hpp:77] Creating layer conv3_4_1x1_increase/bn
I0118 17:37:14.067905 20113 net.cpp:106] Creating Layer conv3_4_1x1_increase/bn
I0118 17:37:14.067921 20113 net.cpp:454] conv3_4_1x1_increase/bn <- conv3_4_1x1_increase
I0118 17:37:14.067942 20113 net.cpp:397] conv3_4_1x1_increase/bn -> conv3_4_1x1_increase (in-place)
I0118 17:37:14.068361 20113 net.cpp:150] Setting up conv3_4_1x1_increase/bn
I0118 17:37:14.068379 20113 net.cpp:157] Top shape: 1 512 60 60 (1843200)
I0118 17:37:14.068393 20113 net.cpp:165] Memory required for data: 777603232
I0118 17:37:14.068426 20113 layer_factory.hpp:77] Creating layer conv3_4
I0118 17:37:14.068461 20113 net.cpp:106] Creating Layer conv3_4
I0118 17:37:14.068476 20113 net.cpp:454] conv3_4 <- conv3_3_conv3_3/relu_0_split_1
I0118 17:37:14.068492 20113 net.cpp:454] conv3_4 <- conv3_4_1x1_increase
I0118 17:37:14.068511 20113 net.cpp:411] conv3_4 -> conv3_4
I0118 17:37:14.068557 20113 net.cpp:150] Setting up conv3_4
I0118 17:37:14.068574 20113 net.cpp:157] Top shape: 1 512 60 60 (1843200)
I0118 17:37:14.068588 20113 net.cpp:165] Memory required for data: 784976032
I0118 17:37:14.068603 20113 layer_factory.hpp:77] Creating layer conv3_4/relu
I0118 17:37:14.068619 20113 net.cpp:106] Creating Layer conv3_4/relu
I0118 17:37:14.068634 20113 net.cpp:454] conv3_4/relu <- conv3_4
I0118 17:37:14.068651 20113 net.cpp:397] conv3_4/relu -> conv3_4 (in-place)
I0118 17:37:14.069033 20113 net.cpp:150] Setting up conv3_4/relu
I0118 17:37:14.069057 20113 net.cpp:157] Top shape: 1 512 60 60 (1843200)
I0118 17:37:14.069072 20113 net.cpp:165] Memory required for data: 792348832
I0118 17:37:14.069085 20113 layer_factory.hpp:77] Creating layer conv3_4_conv3_4/relu_0_split
I0118 17:37:14.069103 20113 net.cpp:106] Creating Layer conv3_4_conv3_4/relu_0_split
I0118 17:37:14.069118 20113 net.cpp:454] conv3_4_conv3_4/relu_0_split <- conv3_4
I0118 17:37:14.069135 20113 net.cpp:411] conv3_4_conv3_4/relu_0_split -> conv3_4_conv3_4/relu_0_split_0
I0118 17:37:14.069154 20113 net.cpp:411] conv3_4_conv3_4/relu_0_split -> conv3_4_conv3_4/relu_0_split_1
I0118 17:37:14.069222 20113 net.cpp:150] Setting up conv3_4_conv3_4/relu_0_split
I0118 17:37:14.069231 20113 net.cpp:157] Top shape: 1 512 60 60 (1843200)
I0118 17:37:14.069236 20113 net.cpp:157] Top shape: 1 512 60 60 (1843200)
I0118 17:37:14.069238 20113 net.cpp:165] Memory required for data: 807094432
I0118 17:37:14.069242 20113 layer_factory.hpp:77] Creating layer conv4_1_1x1_reduce
I0118 17:37:14.069255 20113 net.cpp:106] Creating Layer conv4_1_1x1_reduce
I0118 17:37:14.069260 20113 net.cpp:454] conv4_1_1x1_reduce <- conv3_4_conv3_4/relu_0_split_0
I0118 17:37:14.069267 20113 net.cpp:411] conv4_1_1x1_reduce -> conv4_1_1x1_reduce
I0118 17:37:14.072047 20113 net.cpp:150] Setting up conv4_1_1x1_reduce
I0118 17:37:14.072072 20113 net.cpp:157] Top shape: 1 256 60 60 (921600)
I0118 17:37:14.072074 20113 net.cpp:165] Memory required for data: 810780832
I0118 17:37:14.072082 20113 layer_factory.hpp:77] Creating layer conv4_1_1x1_reduce/bn
I0118 17:37:14.072099 20113 net.cpp:106] Creating Layer conv4_1_1x1_reduce/bn
I0118 17:37:14.072105 20113 net.cpp:454] conv4_1_1x1_reduce/bn <- conv4_1_1x1_reduce
I0118 17:37:14.072113 20113 net.cpp:397] conv4_1_1x1_reduce/bn -> conv4_1_1x1_reduce (in-place)
I0118 17:37:14.072348 20113 net.cpp:150] Setting up conv4_1_1x1_reduce/bn
I0118 17:37:14.072357 20113 net.cpp:157] Top shape: 1 256 60 60 (921600)
I0118 17:37:14.072372 20113 net.cpp:165] Memory required for data: 814467232
I0118 17:37:14.072381 20113 layer_factory.hpp:77] Creating layer conv4_1_1x1_reduce/relu
I0118 17:37:14.072386 20113 net.cpp:106] Creating Layer conv4_1_1x1_reduce/relu
I0118 17:37:14.072392 20113 net.cpp:454] conv4_1_1x1_reduce/relu <- conv4_1_1x1_reduce
I0118 17:37:14.072398 20113 net.cpp:397] conv4_1_1x1_reduce/relu -> conv4_1_1x1_reduce (in-place)
I0118 17:37:14.072767 20113 net.cpp:150] Setting up conv4_1_1x1_reduce/relu
I0118 17:37:14.072777 20113 net.cpp:157] Top shape: 1 256 60 60 (921600)
I0118 17:37:14.072782 20113 net.cpp:165] Memory required for data: 818153632
I0118 17:37:14.072784 20113 layer_factory.hpp:77] Creating layer conv4_1_3x3
I0118 17:37:14.072798 20113 net.cpp:106] Creating Layer conv4_1_3x3
I0118 17:37:14.072801 20113 net.cpp:454] conv4_1_3x3 <- conv4_1_1x1_reduce
I0118 17:37:14.072806 20113 net.cpp:411] conv4_1_3x3 -> conv4_1_3x3
I0118 17:37:14.077986 20113 net.cpp:150] Setting up conv4_1_3x3
I0118 17:37:14.078016 20113 net.cpp:157] Top shape: 1 256 60 60 (921600)
I0118 17:37:14.078019 20113 net.cpp:165] Memory required for data: 821840032
I0118 17:37:14.078027 20113 layer_factory.hpp:77] Creating layer conv4_1_3x3/bn
I0118 17:37:14.078038 20113 net.cpp:106] Creating Layer conv4_1_3x3/bn
I0118 17:37:14.078043 20113 net.cpp:454] conv4_1_3x3/bn <- conv4_1_3x3
I0118 17:37:14.078049 20113 net.cpp:397] conv4_1_3x3/bn -> conv4_1_3x3 (in-place)
I0118 17:37:14.078299 20113 net.cpp:150] Setting up conv4_1_3x3/bn
I0118 17:37:14.078306 20113 net.cpp:157] Top shape: 1 256 60 60 (921600)
I0118 17:37:14.078308 20113 net.cpp:165] Memory required for data: 825526432
I0118 17:37:14.078315 20113 layer_factory.hpp:77] Creating layer conv4_1_3x3/relu
I0118 17:37:14.078322 20113 net.cpp:106] Creating Layer conv4_1_3x3/relu
I0118 17:37:14.078326 20113 net.cpp:454] conv4_1_3x3/relu <- conv4_1_3x3
I0118 17:37:14.078330 20113 net.cpp:397] conv4_1_3x3/relu -> conv4_1_3x3 (in-place)
I0118 17:37:14.078559 20113 net.cpp:150] Setting up conv4_1_3x3/relu
I0118 17:37:14.078567 20113 net.cpp:157] Top shape: 1 256 60 60 (921600)
I0118 17:37:14.078569 20113 net.cpp:165] Memory required for data: 829212832
I0118 17:37:14.078572 20113 layer_factory.hpp:77] Creating layer conv4_1_1x1_increase
I0118 17:37:14.078583 20113 net.cpp:106] Creating Layer conv4_1_1x1_increase
I0118 17:37:14.078588 20113 net.cpp:454] conv4_1_1x1_increase <- conv4_1_3x3
I0118 17:37:14.078593 20113 net.cpp:411] conv4_1_1x1_increase -> conv4_1_1x1_increase
I0118 17:37:14.082137 20113 net.cpp:150] Setting up conv4_1_1x1_increase
I0118 17:37:14.082180 20113 net.cpp:157] Top shape: 1 1024 60 60 (3686400)
I0118 17:37:14.082185 20113 net.cpp:165] Memory required for data: 843958432
I0118 17:37:14.082195 20113 layer_factory.hpp:77] Creating layer conv4_1_1x1_increase/bn
I0118 17:37:14.082209 20113 net.cpp:106] Creating Layer conv4_1_1x1_increase/bn
I0118 17:37:14.082216 20113 net.cpp:454] conv4_1_1x1_increase/bn <- conv4_1_1x1_increase
I0118 17:37:14.082226 20113 net.cpp:397] conv4_1_1x1_increase/bn -> conv4_1_1x1_increase (in-place)
I0118 17:37:14.082451 20113 net.cpp:150] Setting up conv4_1_1x1_increase/bn
I0118 17:37:14.082458 20113 net.cpp:157] Top shape: 1 1024 60 60 (3686400)
I0118 17:37:14.082460 20113 net.cpp:165] Memory required for data: 858704032
I0118 17:37:14.082468 20113 layer_factory.hpp:77] Creating layer conv4_1_1x1_proj
I0118 17:37:14.082476 20113 net.cpp:106] Creating Layer conv4_1_1x1_proj
I0118 17:37:14.082480 20113 net.cpp:454] conv4_1_1x1_proj <- conv3_4_conv3_4/relu_0_split_1
I0118 17:37:14.082486 20113 net.cpp:411] conv4_1_1x1_proj -> conv4_1_1x1_proj
I0118 17:37:14.088629 20113 net.cpp:150] Setting up conv4_1_1x1_proj
I0118 17:37:14.088649 20113 net.cpp:157] Top shape: 1 1024 60 60 (3686400)
I0118 17:37:14.088651 20113 net.cpp:165] Memory required for data: 873449632
I0118 17:37:14.088657 20113 layer_factory.hpp:77] Creating layer conv4_1_1x1_proj/bn
I0118 17:37:14.088670 20113 net.cpp:106] Creating Layer conv4_1_1x1_proj/bn
I0118 17:37:14.088702 20113 net.cpp:454] conv4_1_1x1_proj/bn <- conv4_1_1x1_proj
I0118 17:37:14.088711 20113 net.cpp:397] conv4_1_1x1_proj/bn -> conv4_1_1x1_proj (in-place)
I0118 17:37:14.088929 20113 net.cpp:150] Setting up conv4_1_1x1_proj/bn
I0118 17:37:14.088935 20113 net.cpp:157] Top shape: 1 1024 60 60 (3686400)
I0118 17:37:14.088937 20113 net.cpp:165] Memory required for data: 888195232
I0118 17:37:14.088943 20113 layer_factory.hpp:77] Creating layer conv4_1
I0118 17:37:14.088948 20113 net.cpp:106] Creating Layer conv4_1
I0118 17:37:14.088950 20113 net.cpp:454] conv4_1 <- conv4_1_1x1_proj
I0118 17:37:14.088953 20113 net.cpp:454] conv4_1 <- conv4_1_1x1_increase
I0118 17:37:14.088958 20113 net.cpp:411] conv4_1 -> conv4_1
I0118 17:37:14.088979 20113 net.cpp:150] Setting up conv4_1
I0118 17:37:14.088984 20113 net.cpp:157] Top shape: 1 1024 60 60 (3686400)
I0118 17:37:14.088985 20113 net.cpp:165] Memory required for data: 902940832
I0118 17:37:14.088987 20113 layer_factory.hpp:77] Creating layer conv4_1/relu
I0118 17:37:14.088992 20113 net.cpp:106] Creating Layer conv4_1/relu
I0118 17:37:14.088995 20113 net.cpp:454] conv4_1/relu <- conv4_1
I0118 17:37:14.088999 20113 net.cpp:397] conv4_1/relu -> conv4_1 (in-place)
I0118 17:37:14.089268 20113 net.cpp:150] Setting up conv4_1/relu
I0118 17:37:14.089277 20113 net.cpp:157] Top shape: 1 1024 60 60 (3686400)
I0118 17:37:14.089280 20113 net.cpp:165] Memory required for data: 917686432
I0118 17:37:14.089284 20113 layer_factory.hpp:77] Creating layer conv4_1_conv4_1/relu_0_split
I0118 17:37:14.089290 20113 net.cpp:106] Creating Layer conv4_1_conv4_1/relu_0_split
I0118 17:37:14.089296 20113 net.cpp:454] conv4_1_conv4_1/relu_0_split <- conv4_1
I0118 17:37:14.089303 20113 net.cpp:411] conv4_1_conv4_1/relu_0_split -> conv4_1_conv4_1/relu_0_split_0
I0118 17:37:14.089309 20113 net.cpp:411] conv4_1_conv4_1/relu_0_split -> conv4_1_conv4_1/relu_0_split_1
I0118 17:37:14.089350 20113 net.cpp:150] Setting up conv4_1_conv4_1/relu_0_split
I0118 17:37:14.089355 20113 net.cpp:157] Top shape: 1 1024 60 60 (3686400)
I0118 17:37:14.089359 20113 net.cpp:157] Top shape: 1 1024 60 60 (3686400)
I0118 17:37:14.089362 20113 net.cpp:165] Memory required for data: 947177632
I0118 17:37:14.089365 20113 layer_factory.hpp:77] Creating layer conv4_2_1x1_reduce
I0118 17:37:14.089375 20113 net.cpp:106] Creating Layer conv4_2_1x1_reduce
I0118 17:37:14.089380 20113 net.cpp:454] conv4_2_1x1_reduce <- conv4_1_conv4_1/relu_0_split_0
I0118 17:37:14.089385 20113 net.cpp:411] conv4_2_1x1_reduce -> conv4_2_1x1_reduce
I0118 17:37:14.092355 20113 net.cpp:150] Setting up conv4_2_1x1_reduce
I0118 17:37:14.092365 20113 net.cpp:157] Top shape: 1 256 60 60 (921600)
I0118 17:37:14.092368 20113 net.cpp:165] Memory required for data: 950864032
I0118 17:37:14.092372 20113 layer_factory.hpp:77] Creating layer conv4_2_1x1_reduce/bn
I0118 17:37:14.092378 20113 net.cpp:106] Creating Layer conv4_2_1x1_reduce/bn
I0118 17:37:14.092381 20113 net.cpp:454] conv4_2_1x1_reduce/bn <- conv4_2_1x1_reduce
I0118 17:37:14.092386 20113 net.cpp:397] conv4_2_1x1_reduce/bn -> conv4_2_1x1_reduce (in-place)
I0118 17:37:14.092589 20113 net.cpp:150] Setting up conv4_2_1x1_reduce/bn
I0118 17:37:14.092594 20113 net.cpp:157] Top shape: 1 256 60 60 (921600)
I0118 17:37:14.092597 20113 net.cpp:165] Memory required for data: 954550432
I0118 17:37:14.092602 20113 layer_factory.hpp:77] Creating layer conv4_2_1x1_reduce/relu
I0118 17:37:14.092614 20113 net.cpp:106] Creating Layer conv4_2_1x1_reduce/relu
I0118 17:37:14.092618 20113 net.cpp:454] conv4_2_1x1_reduce/relu <- conv4_2_1x1_reduce
I0118 17:37:14.092622 20113 net.cpp:397] conv4_2_1x1_reduce/relu -> conv4_2_1x1_reduce (in-place)
I0118 17:37:14.092878 20113 net.cpp:150] Setting up conv4_2_1x1_reduce/relu
I0118 17:37:14.092886 20113 net.cpp:157] Top shape: 1 256 60 60 (921600)
I0118 17:37:14.092888 20113 net.cpp:165] Memory required for data: 958236832
I0118 17:37:14.092891 20113 layer_factory.hpp:77] Creating layer conv4_2_3x3
I0118 17:37:14.092898 20113 net.cpp:106] Creating Layer conv4_2_3x3
I0118 17:37:14.092902 20113 net.cpp:454] conv4_2_3x3 <- conv4_2_1x1_reduce
I0118 17:37:14.092916 20113 net.cpp:411] conv4_2_3x3 -> conv4_2_3x3
I0118 17:37:14.097625 20113 net.cpp:150] Setting up conv4_2_3x3
I0118 17:37:14.097635 20113 net.cpp:157] Top shape: 1 256 60 60 (921600)
I0118 17:37:14.097638 20113 net.cpp:165] Memory required for data: 961923232
I0118 17:37:14.097641 20113 layer_factory.hpp:77] Creating layer conv4_2_3x3/bn
I0118 17:37:14.097648 20113 net.cpp:106] Creating Layer conv4_2_3x3/bn
I0118 17:37:14.097658 20113 net.cpp:454] conv4_2_3x3/bn <- conv4_2_3x3
I0118 17:37:14.097662 20113 net.cpp:397] conv4_2_3x3/bn -> conv4_2_3x3 (in-place)
I0118 17:37:14.097864 20113 net.cpp:150] Setting up conv4_2_3x3/bn
I0118 17:37:14.097869 20113 net.cpp:157] Top shape: 1 256 60 60 (921600)
I0118 17:37:14.097872 20113 net.cpp:165] Memory required for data: 965609632
I0118 17:37:14.097877 20113 layer_factory.hpp:77] Creating layer conv4_2_3x3/relu
I0118 17:37:14.097879 20113 net.cpp:106] Creating Layer conv4_2_3x3/relu
I0118 17:37:14.097882 20113 net.cpp:454] conv4_2_3x3/relu <- conv4_2_3x3
I0118 17:37:14.097887 20113 net.cpp:397] conv4_2_3x3/relu -> conv4_2_3x3 (in-place)
I0118 17:37:14.098038 20113 net.cpp:150] Setting up conv4_2_3x3/relu
I0118 17:37:14.098044 20113 net.cpp:157] Top shape: 1 256 60 60 (921600)
I0118 17:37:14.098047 20113 net.cpp:165] Memory required for data: 969296032
I0118 17:37:14.098049 20113 layer_factory.hpp:77] Creating layer conv4_2_1x1_increase
I0118 17:37:14.098055 20113 net.cpp:106] Creating Layer conv4_2_1x1_increase
I0118 17:37:14.098058 20113 net.cpp:454] conv4_2_1x1_increase <- conv4_2_3x3
I0118 17:37:14.098062 20113 net.cpp:411] conv4_2_1x1_increase -> conv4_2_1x1_increase
I0118 17:37:14.102414 20113 net.cpp:150] Setting up conv4_2_1x1_increase
I0118 17:37:14.102429 20113 net.cpp:157] Top shape: 1 1024 60 60 (3686400)
I0118 17:37:14.102432 20113 net.cpp:165] Memory required for data: 984041632
I0118 17:37:14.102438 20113 layer_factory.hpp:77] Creating layer conv4_2_1x1_increase/bn
I0118 17:37:14.102445 20113 net.cpp:106] Creating Layer conv4_2_1x1_increase/bn
I0118 17:37:14.102448 20113 net.cpp:454] conv4_2_1x1_increase/bn <- conv4_2_1x1_increase
I0118 17:37:14.102453 20113 net.cpp:397] conv4_2_1x1_increase/bn -> conv4_2_1x1_increase (in-place)
I0118 17:37:14.102661 20113 net.cpp:150] Setting up conv4_2_1x1_increase/bn
I0118 17:37:14.102666 20113 net.cpp:157] Top shape: 1 1024 60 60 (3686400)
I0118 17:37:14.102669 20113 net.cpp:165] Memory required for data: 998787232
I0118 17:37:14.102672 20113 layer_factory.hpp:77] Creating layer conv4_2
I0118 17:37:14.102677 20113 net.cpp:106] Creating Layer conv4_2
I0118 17:37:14.102680 20113 net.cpp:454] conv4_2 <- conv4_1_conv4_1/relu_0_split_1
I0118 17:37:14.102684 20113 net.cpp:454] conv4_2 <- conv4_2_1x1_increase
I0118 17:37:14.102686 20113 net.cpp:411] conv4_2 -> conv4_2
I0118 17:37:14.102706 20113 net.cpp:150] Setting up conv4_2
I0118 17:37:14.102710 20113 net.cpp:157] Top shape: 1 1024 60 60 (3686400)
I0118 17:37:14.102712 20113 net.cpp:165] Memory required for data: 1013532832
I0118 17:37:14.102715 20113 layer_factory.hpp:77] Creating layer conv4_2/relu
I0118 17:37:14.102720 20113 net.cpp:106] Creating Layer conv4_2/relu
I0118 17:37:14.102722 20113 net.cpp:454] conv4_2/relu <- conv4_2
I0118 17:37:14.102725 20113 net.cpp:397] conv4_2/relu -> conv4_2 (in-place)
I0118 17:37:14.104635 20113 net.cpp:150] Setting up conv4_2/relu
I0118 17:37:14.104646 20113 net.cpp:157] Top shape: 1 1024 60 60 (3686400)
I0118 17:37:14.104655 20113 net.cpp:165] Memory required for data: 1028278432
I0118 17:37:14.104660 20113 layer_factory.hpp:77] Creating layer conv4_2_conv4_2/relu_0_split
I0118 17:37:14.104673 20113 net.cpp:106] Creating Layer conv4_2_conv4_2/relu_0_split
I0118 17:37:14.104678 20113 net.cpp:454] conv4_2_conv4_2/relu_0_split <- conv4_2
I0118 17:37:14.104689 20113 net.cpp:411] conv4_2_conv4_2/relu_0_split -> conv4_2_conv4_2/relu_0_split_0
I0118 17:37:14.104701 20113 net.cpp:411] conv4_2_conv4_2/relu_0_split -> conv4_2_conv4_2/relu_0_split_1
I0118 17:37:14.104750 20113 net.cpp:150] Setting up conv4_2_conv4_2/relu_0_split
I0118 17:37:14.104770 20113 net.cpp:157] Top shape: 1 1024 60 60 (3686400)
I0118 17:37:14.104776 20113 net.cpp:157] Top shape: 1 1024 60 60 (3686400)
I0118 17:37:14.104782 20113 net.cpp:165] Memory required for data: 1057769632
I0118 17:37:14.104789 20113 layer_factory.hpp:77] Creating layer conv4_3_1x1_reduce
I0118 17:37:14.104801 20113 net.cpp:106] Creating Layer conv4_3_1x1_reduce
I0118 17:37:14.104806 20113 net.cpp:454] conv4_3_1x1_reduce <- conv4_2_conv4_2/relu_0_split_0
I0118 17:37:14.104826 20113 net.cpp:411] conv4_3_1x1_reduce -> conv4_3_1x1_reduce
I0118 17:37:14.108923 20113 net.cpp:150] Setting up conv4_3_1x1_reduce
I0118 17:37:14.108935 20113 net.cpp:157] Top shape: 1 256 60 60 (921600)
I0118 17:37:14.108939 20113 net.cpp:165] Memory required for data: 1061456032
I0118 17:37:14.108947 20113 layer_factory.hpp:77] Creating layer conv4_3_1x1_reduce/bn
I0118 17:37:14.108956 20113 net.cpp:106] Creating Layer conv4_3_1x1_reduce/bn
I0118 17:37:14.108963 20113 net.cpp:454] conv4_3_1x1_reduce/bn <- conv4_3_1x1_reduce
I0118 17:37:14.108969 20113 net.cpp:397] conv4_3_1x1_reduce/bn -> conv4_3_1x1_reduce (in-place)
I0118 17:37:14.109184 20113 net.cpp:150] Setting up conv4_3_1x1_reduce/bn
I0118 17:37:14.109189 20113 net.cpp:157] Top shape: 1 256 60 60 (921600)
I0118 17:37:14.109194 20113 net.cpp:165] Memory required for data: 1065142432
I0118 17:37:14.109200 20113 layer_factory.hpp:77] Creating layer conv4_3_1x1_reduce/relu
I0118 17:37:14.109207 20113 net.cpp:106] Creating Layer conv4_3_1x1_reduce/relu
I0118 17:37:14.109212 20113 net.cpp:454] conv4_3_1x1_reduce/relu <- conv4_3_1x1_reduce
I0118 17:37:14.109220 20113 net.cpp:397] conv4_3_1x1_reduce/relu -> conv4_3_1x1_reduce (in-place)
I0118 17:37:14.109361 20113 net.cpp:150] Setting up conv4_3_1x1_reduce/relu
I0118 17:37:14.109369 20113 net.cpp:157] Top shape: 1 256 60 60 (921600)
I0118 17:37:14.109372 20113 net.cpp:165] Memory required for data: 1068828832
I0118 17:37:14.109376 20113 layer_factory.hpp:77] Creating layer conv4_3_3x3
I0118 17:37:14.109385 20113 net.cpp:106] Creating Layer conv4_3_3x3
I0118 17:37:14.109390 20113 net.cpp:454] conv4_3_3x3 <- conv4_3_1x1_reduce
I0118 17:37:14.109397 20113 net.cpp:411] conv4_3_3x3 -> conv4_3_3x3
I0118 17:37:14.114140 20113 net.cpp:150] Setting up conv4_3_3x3
I0118 17:37:14.114150 20113 net.cpp:157] Top shape: 1 256 60 60 (921600)
I0118 17:37:14.114153 20113 net.cpp:165] Memory required for data: 1072515232
I0118 17:37:14.114182 20113 layer_factory.hpp:77] Creating layer conv4_3_3x3/bn
I0118 17:37:14.114195 20113 net.cpp:106] Creating Layer conv4_3_3x3/bn
I0118 17:37:14.114202 20113 net.cpp:454] conv4_3_3x3/bn <- conv4_3_3x3
I0118 17:37:14.114210 20113 net.cpp:397] conv4_3_3x3/bn -> conv4_3_3x3 (in-place)
I0118 17:37:14.114429 20113 net.cpp:150] Setting up conv4_3_3x3/bn
I0118 17:37:14.114436 20113 net.cpp:157] Top shape: 1 256 60 60 (921600)
I0118 17:37:14.114439 20113 net.cpp:165] Memory required for data: 1076201632
I0118 17:37:14.114447 20113 layer_factory.hpp:77] Creating layer conv4_3_3x3/relu
I0118 17:37:14.114455 20113 net.cpp:106] Creating Layer conv4_3_3x3/relu
I0118 17:37:14.114460 20113 net.cpp:454] conv4_3_3x3/relu <- conv4_3_3x3
I0118 17:37:14.114465 20113 net.cpp:397] conv4_3_3x3/relu -> conv4_3_3x3 (in-place)
I0118 17:37:14.114751 20113 net.cpp:150] Setting up conv4_3_3x3/relu
I0118 17:37:14.114760 20113 net.cpp:157] Top shape: 1 256 60 60 (921600)
I0118 17:37:14.114763 20113 net.cpp:165] Memory required for data: 1079888032
I0118 17:37:14.114768 20113 layer_factory.hpp:77] Creating layer conv4_3_1x1_increase
I0118 17:37:14.114778 20113 net.cpp:106] Creating Layer conv4_3_1x1_increase
I0118 17:37:14.114783 20113 net.cpp:454] conv4_3_1x1_increase <- conv4_3_3x3
I0118 17:37:14.114791 20113 net.cpp:411] conv4_3_1x1_increase -> conv4_3_1x1_increase
I0118 17:37:14.117640 20113 net.cpp:150] Setting up conv4_3_1x1_increase
I0118 17:37:14.117650 20113 net.cpp:157] Top shape: 1 1024 60 60 (3686400)
I0118 17:37:14.117655 20113 net.cpp:165] Memory required for data: 1094633632
I0118 17:37:14.117668 20113 layer_factory.hpp:77] Creating layer conv4_3_1x1_increase/bn
I0118 17:37:14.117678 20113 net.cpp:106] Creating Layer conv4_3_1x1_increase/bn
I0118 17:37:14.117684 20113 net.cpp:454] conv4_3_1x1_increase/bn <- conv4_3_1x1_increase
I0118 17:37:14.117692 20113 net.cpp:397] conv4_3_1x1_increase/bn -> conv4_3_1x1_increase (in-place)
I0118 17:37:14.117909 20113 net.cpp:150] Setting up conv4_3_1x1_increase/bn
I0118 17:37:14.117916 20113 net.cpp:157] Top shape: 1 1024 60 60 (3686400)
I0118 17:37:14.117920 20113 net.cpp:165] Memory required for data: 1109379232
I0118 17:37:14.117928 20113 layer_factory.hpp:77] Creating layer conv4_3
I0118 17:37:14.117936 20113 net.cpp:106] Creating Layer conv4_3
I0118 17:37:14.117941 20113 net.cpp:454] conv4_3 <- conv4_2_conv4_2/relu_0_split_1
I0118 17:37:14.117946 20113 net.cpp:454] conv4_3 <- conv4_3_1x1_increase
I0118 17:37:14.117954 20113 net.cpp:411] conv4_3 -> conv4_3
I0118 17:37:14.117981 20113 net.cpp:150] Setting up conv4_3
I0118 17:37:14.117988 20113 net.cpp:157] Top shape: 1 1024 60 60 (3686400)
I0118 17:37:14.117991 20113 net.cpp:165] Memory required for data: 1124124832
I0118 17:37:14.117996 20113 layer_factory.hpp:77] Creating layer conv4_3/relu
I0118 17:37:14.118001 20113 net.cpp:106] Creating Layer conv4_3/relu
I0118 17:37:14.118005 20113 net.cpp:454] conv4_3/relu <- conv4_3
I0118 17:37:14.118010 20113 net.cpp:397] conv4_3/relu -> conv4_3 (in-place)
I0118 17:37:14.118273 20113 net.cpp:150] Setting up conv4_3/relu
I0118 17:37:14.118280 20113 net.cpp:157] Top shape: 1 1024 60 60 (3686400)
I0118 17:37:14.118284 20113 net.cpp:165] Memory required for data: 1138870432
I0118 17:37:14.118288 20113 layer_factory.hpp:77] Creating layer conv4_3_conv4_3/relu_0_split
I0118 17:37:14.118312 20113 net.cpp:106] Creating Layer conv4_3_conv4_3/relu_0_split
I0118 17:37:14.118316 20113 net.cpp:454] conv4_3_conv4_3/relu_0_split <- conv4_3
I0118 17:37:14.118324 20113 net.cpp:411] conv4_3_conv4_3/relu_0_split -> conv4_3_conv4_3/relu_0_split_0
I0118 17:37:14.118330 20113 net.cpp:411] conv4_3_conv4_3/relu_0_split -> conv4_3_conv4_3/relu_0_split_1
I0118 17:37:14.118374 20113 net.cpp:150] Setting up conv4_3_conv4_3/relu_0_split
I0118 17:37:14.118381 20113 net.cpp:157] Top shape: 1 1024 60 60 (3686400)
I0118 17:37:14.118384 20113 net.cpp:157] Top shape: 1 1024 60 60 (3686400)
I0118 17:37:14.118387 20113 net.cpp:165] Memory required for data: 1168361632
I0118 17:37:14.118391 20113 layer_factory.hpp:77] Creating layer conv4_4_1x1_reduce
I0118 17:37:14.118401 20113 net.cpp:106] Creating Layer conv4_4_1x1_reduce
I0118 17:37:14.118405 20113 net.cpp:454] conv4_4_1x1_reduce <- conv4_3_conv4_3/relu_0_split_0
I0118 17:37:14.118412 20113 net.cpp:411] conv4_4_1x1_reduce -> conv4_4_1x1_reduce
I0118 17:37:14.121356 20113 net.cpp:150] Setting up conv4_4_1x1_reduce
I0118 17:37:14.121366 20113 net.cpp:157] Top shape: 1 256 60 60 (921600)
I0118 17:37:14.121369 20113 net.cpp:165] Memory required for data: 1172048032
I0118 17:37:14.121376 20113 layer_factory.hpp:77] Creating layer conv4_4_1x1_reduce/bn
I0118 17:37:14.121387 20113 net.cpp:106] Creating Layer conv4_4_1x1_reduce/bn
I0118 17:37:14.121392 20113 net.cpp:454] conv4_4_1x1_reduce/bn <- conv4_4_1x1_reduce
I0118 17:37:14.121399 20113 net.cpp:397] conv4_4_1x1_reduce/bn -> conv4_4_1x1_reduce (in-place)
I0118 17:37:14.121621 20113 net.cpp:150] Setting up conv4_4_1x1_reduce/bn
I0118 17:37:14.121629 20113 net.cpp:157] Top shape: 1 256 60 60 (921600)
I0118 17:37:14.121632 20113 net.cpp:165] Memory required for data: 1175734432
I0118 17:37:14.121640 20113 layer_factory.hpp:77] Creating layer conv4_4_1x1_reduce/relu
I0118 17:37:14.121647 20113 net.cpp:106] Creating Layer conv4_4_1x1_reduce/relu
I0118 17:37:14.121651 20113 net.cpp:454] conv4_4_1x1_reduce/relu <- conv4_4_1x1_reduce
I0118 17:37:14.121657 20113 net.cpp:397] conv4_4_1x1_reduce/relu -> conv4_4_1x1_reduce (in-place)
I0118 17:37:14.121804 20113 net.cpp:150] Setting up conv4_4_1x1_reduce/relu
I0118 17:37:14.121812 20113 net.cpp:157] Top shape: 1 256 60 60 (921600)
I0118 17:37:14.121816 20113 net.cpp:165] Memory required for data: 1179420832
I0118 17:37:14.121829 20113 layer_factory.hpp:77] Creating layer conv4_4_3x3
I0118 17:37:14.121840 20113 net.cpp:106] Creating Layer conv4_4_3x3
I0118 17:37:14.121843 20113 net.cpp:454] conv4_4_3x3 <- conv4_4_1x1_reduce
I0118 17:37:14.121850 20113 net.cpp:411] conv4_4_3x3 -> conv4_4_3x3
I0118 17:37:14.126596 20113 net.cpp:150] Setting up conv4_4_3x3
I0118 17:37:14.126607 20113 net.cpp:157] Top shape: 1 256 60 60 (921600)
I0118 17:37:14.126611 20113 net.cpp:165] Memory required for data: 1183107232
I0118 17:37:14.126617 20113 layer_factory.hpp:77] Creating layer conv4_4_3x3/bn
I0118 17:37:14.126627 20113 net.cpp:106] Creating Layer conv4_4_3x3/bn
I0118 17:37:14.126636 20113 net.cpp:454] conv4_4_3x3/bn <- conv4_4_3x3
I0118 17:37:14.126642 20113 net.cpp:397] conv4_4_3x3/bn -> conv4_4_3x3 (in-place)
I0118 17:37:14.126860 20113 net.cpp:150] Setting up conv4_4_3x3/bn
I0118 17:37:14.126868 20113 net.cpp:157] Top shape: 1 256 60 60 (921600)
I0118 17:37:14.126871 20113 net.cpp:165] Memory required for data: 1186793632
I0118 17:37:14.126878 20113 layer_factory.hpp:77] Creating layer conv4_4_3x3/relu
I0118 17:37:14.126885 20113 net.cpp:106] Creating Layer conv4_4_3x3/relu
I0118 17:37:14.126889 20113 net.cpp:454] conv4_4_3x3/relu <- conv4_4_3x3
I0118 17:37:14.126896 20113 net.cpp:397] conv4_4_3x3/relu -> conv4_4_3x3 (in-place)
I0118 17:37:14.127192 20113 net.cpp:150] Setting up conv4_4_3x3/relu
I0118 17:37:14.127200 20113 net.cpp:157] Top shape: 1 256 60 60 (921600)
I0118 17:37:14.127204 20113 net.cpp:165] Memory required for data: 1190480032
I0118 17:37:14.127208 20113 layer_factory.hpp:77] Creating layer conv4_4_1x1_increase
I0118 17:37:14.127218 20113 net.cpp:106] Creating Layer conv4_4_1x1_increase
I0118 17:37:14.127223 20113 net.cpp:454] conv4_4_1x1_increase <- conv4_4_3x3
I0118 17:37:14.127231 20113 net.cpp:411] conv4_4_1x1_increase -> conv4_4_1x1_increase
I0118 17:37:14.130201 20113 net.cpp:150] Setting up conv4_4_1x1_increase
I0118 17:37:14.130211 20113 net.cpp:157] Top shape: 1 1024 60 60 (3686400)
I0118 17:37:14.130216 20113 net.cpp:165] Memory required for data: 1205225632
I0118 17:37:14.130221 20113 layer_factory.hpp:77] Creating layer conv4_4_1x1_increase/bn
I0118 17:37:14.130233 20113 net.cpp:106] Creating Layer conv4_4_1x1_increase/bn
I0118 17:37:14.130237 20113 net.cpp:454] conv4_4_1x1_increase/bn <- conv4_4_1x1_increase
I0118 17:37:14.130246 20113 net.cpp:397] conv4_4_1x1_increase/bn -> conv4_4_1x1_increase (in-place)
I0118 17:37:14.130468 20113 net.cpp:150] Setting up conv4_4_1x1_increase/bn
I0118 17:37:14.130475 20113 net.cpp:157] Top shape: 1 1024 60 60 (3686400)
I0118 17:37:14.130478 20113 net.cpp:165] Memory required for data: 1219971232
I0118 17:37:14.130486 20113 layer_factory.hpp:77] Creating layer conv4_4
I0118 17:37:14.130496 20113 net.cpp:106] Creating Layer conv4_4
I0118 17:37:14.130501 20113 net.cpp:454] conv4_4 <- conv4_3_conv4_3/relu_0_split_1
I0118 17:37:14.130506 20113 net.cpp:454] conv4_4 <- conv4_4_1x1_increase
I0118 17:37:14.130511 20113 net.cpp:411] conv4_4 -> conv4_4
I0118 17:37:14.130538 20113 net.cpp:150] Setting up conv4_4
I0118 17:37:14.130544 20113 net.cpp:157] Top shape: 1 1024 60 60 (3686400)
I0118 17:37:14.130548 20113 net.cpp:165] Memory required for data: 1234716832
I0118 17:37:14.130551 20113 layer_factory.hpp:77] Creating layer conv4_4/relu
I0118 17:37:14.130556 20113 net.cpp:106] Creating Layer conv4_4/relu
I0118 17:37:14.130559 20113 net.cpp:454] conv4_4/relu <- conv4_4
I0118 17:37:14.130565 20113 net.cpp:397] conv4_4/relu -> conv4_4 (in-place)
I0118 17:37:14.130712 20113 net.cpp:150] Setting up conv4_4/relu
I0118 17:37:14.130718 20113 net.cpp:157] Top shape: 1 1024 60 60 (3686400)
I0118 17:37:14.130722 20113 net.cpp:165] Memory required for data: 1249462432
I0118 17:37:14.130725 20113 layer_factory.hpp:77] Creating layer conv4_4_conv4_4/relu_0_split
I0118 17:37:14.130731 20113 net.cpp:106] Creating Layer conv4_4_conv4_4/relu_0_split
I0118 17:37:14.130735 20113 net.cpp:454] conv4_4_conv4_4/relu_0_split <- conv4_4
I0118 17:37:14.130751 20113 net.cpp:411] conv4_4_conv4_4/relu_0_split -> conv4_4_conv4_4/relu_0_split_0
I0118 17:37:14.130759 20113 net.cpp:411] conv4_4_conv4_4/relu_0_split -> conv4_4_conv4_4/relu_0_split_1
I0118 17:37:14.130810 20113 net.cpp:150] Setting up conv4_4_conv4_4/relu_0_split
I0118 17:37:14.130816 20113 net.cpp:157] Top shape: 1 1024 60 60 (3686400)
I0118 17:37:14.130821 20113 net.cpp:157] Top shape: 1 1024 60 60 (3686400)
I0118 17:37:14.130825 20113 net.cpp:165] Memory required for data: 1278953632
I0118 17:37:14.130828 20113 layer_factory.hpp:77] Creating layer conv4_5_1x1_reduce
I0118 17:37:14.130837 20113 net.cpp:106] Creating Layer conv4_5_1x1_reduce
I0118 17:37:14.130841 20113 net.cpp:454] conv4_5_1x1_reduce <- conv4_4_conv4_4/relu_0_split_0
I0118 17:37:14.130849 20113 net.cpp:411] conv4_5_1x1_reduce -> conv4_5_1x1_reduce
I0118 17:37:14.133839 20113 net.cpp:150] Setting up conv4_5_1x1_reduce
I0118 17:37:14.133850 20113 net.cpp:157] Top shape: 1 256 60 60 (921600)
I0118 17:37:14.133853 20113 net.cpp:165] Memory required for data: 1282640032
I0118 17:37:14.133859 20113 layer_factory.hpp:77] Creating layer conv4_5_1x1_reduce/bn
I0118 17:37:14.133872 20113 net.cpp:106] Creating Layer conv4_5_1x1_reduce/bn
I0118 17:37:14.133875 20113 net.cpp:454] conv4_5_1x1_reduce/bn <- conv4_5_1x1_reduce
I0118 17:37:14.133883 20113 net.cpp:397] conv4_5_1x1_reduce/bn -> conv4_5_1x1_reduce (in-place)
I0118 17:37:14.134106 20113 net.cpp:150] Setting up conv4_5_1x1_reduce/bn
I0118 17:37:14.134114 20113 net.cpp:157] Top shape: 1 256 60 60 (921600)
I0118 17:37:14.134117 20113 net.cpp:165] Memory required for data: 1286326432
I0118 17:37:14.134125 20113 layer_factory.hpp:77] Creating layer conv4_5_1x1_reduce/relu
I0118 17:37:14.134133 20113 net.cpp:106] Creating Layer conv4_5_1x1_reduce/relu
I0118 17:37:14.134138 20113 net.cpp:454] conv4_5_1x1_reduce/relu <- conv4_5_1x1_reduce
I0118 17:37:14.134143 20113 net.cpp:397] conv4_5_1x1_reduce/relu -> conv4_5_1x1_reduce (in-place)
I0118 17:37:14.134416 20113 net.cpp:150] Setting up conv4_5_1x1_reduce/relu
I0118 17:37:14.134425 20113 net.cpp:157] Top shape: 1 256 60 60 (921600)
I0118 17:37:14.134429 20113 net.cpp:165] Memory required for data: 1290012832
I0118 17:37:14.134433 20113 layer_factory.hpp:77] Creating layer conv4_5_3x3
I0118 17:37:14.134443 20113 net.cpp:106] Creating Layer conv4_5_3x3
I0118 17:37:14.134449 20113 net.cpp:454] conv4_5_3x3 <- conv4_5_1x1_reduce
I0118 17:37:14.134457 20113 net.cpp:411] conv4_5_3x3 -> conv4_5_3x3
I0118 17:37:14.139557 20113 net.cpp:150] Setting up conv4_5_3x3
I0118 17:37:14.139580 20113 net.cpp:157] Top shape: 1 256 60 60 (921600)
I0118 17:37:14.139583 20113 net.cpp:165] Memory required for data: 1293699232
I0118 17:37:14.139591 20113 layer_factory.hpp:77] Creating layer conv4_5_3x3/bn
I0118 17:37:14.139605 20113 net.cpp:106] Creating Layer conv4_5_3x3/bn
I0118 17:37:14.139609 20113 net.cpp:454] conv4_5_3x3/bn <- conv4_5_3x3
I0118 17:37:14.139617 20113 net.cpp:397] conv4_5_3x3/bn -> conv4_5_3x3 (in-place)
I0118 17:37:14.139909 20113 net.cpp:150] Setting up conv4_5_3x3/bn
I0118 17:37:14.139919 20113 net.cpp:157] Top shape: 1 256 60 60 (921600)
I0118 17:37:14.139922 20113 net.cpp:165] Memory required for data: 1297385632
I0118 17:37:14.139930 20113 layer_factory.hpp:77] Creating layer conv4_5_3x3/relu
I0118 17:37:14.139940 20113 net.cpp:106] Creating Layer conv4_5_3x3/relu
I0118 17:37:14.139945 20113 net.cpp:454] conv4_5_3x3/relu <- conv4_5_3x3
I0118 17:37:14.139950 20113 net.cpp:397] conv4_5_3x3/relu -> conv4_5_3x3 (in-place)
I0118 17:37:14.140138 20113 net.cpp:150] Setting up conv4_5_3x3/relu
I0118 17:37:14.140146 20113 net.cpp:157] Top shape: 1 256 60 60 (921600)
I0118 17:37:14.140151 20113 net.cpp:165] Memory required for data: 1301072032
I0118 17:37:14.140153 20113 layer_factory.hpp:77] Creating layer conv4_5_1x1_increase
I0118 17:37:14.140166 20113 net.cpp:106] Creating Layer conv4_5_1x1_increase
I0118 17:37:14.140170 20113 net.cpp:454] conv4_5_1x1_increase <- conv4_5_3x3
I0118 17:37:14.140177 20113 net.cpp:411] conv4_5_1x1_increase -> conv4_5_1x1_increase
I0118 17:37:14.143420 20113 net.cpp:150] Setting up conv4_5_1x1_increase
I0118 17:37:14.143432 20113 net.cpp:157] Top shape: 1 1024 60 60 (3686400)
I0118 17:37:14.143437 20113 net.cpp:165] Memory required for data: 1315817632
I0118 17:37:14.143443 20113 layer_factory.hpp:77] Creating layer conv4_5_1x1_increase/bn
I0118 17:37:14.143453 20113 net.cpp:106] Creating Layer conv4_5_1x1_increase/bn
I0118 17:37:14.143461 20113 net.cpp:454] conv4_5_1x1_increase/bn <- conv4_5_1x1_increase
I0118 17:37:14.143471 20113 net.cpp:397] conv4_5_1x1_increase/bn -> conv4_5_1x1_increase (in-place)
I0118 17:37:14.143700 20113 net.cpp:150] Setting up conv4_5_1x1_increase/bn
I0118 17:37:14.143707 20113 net.cpp:157] Top shape: 1 1024 60 60 (3686400)
I0118 17:37:14.143710 20113 net.cpp:165] Memory required for data: 1330563232
I0118 17:37:14.143718 20113 layer_factory.hpp:77] Creating layer conv4_5
I0118 17:37:14.143726 20113 net.cpp:106] Creating Layer conv4_5
I0118 17:37:14.143731 20113 net.cpp:454] conv4_5 <- conv4_4_conv4_4/relu_0_split_1
I0118 17:37:14.143736 20113 net.cpp:454] conv4_5 <- conv4_5_1x1_increase
I0118 17:37:14.143743 20113 net.cpp:411] conv4_5 -> conv4_5
I0118 17:37:14.143774 20113 net.cpp:150] Setting up conv4_5
I0118 17:37:14.143779 20113 net.cpp:157] Top shape: 1 1024 60 60 (3686400)
I0118 17:37:14.143782 20113 net.cpp:165] Memory required for data: 1345308832
I0118 17:37:14.143786 20113 layer_factory.hpp:77] Creating layer conv4_5/relu
I0118 17:37:14.143791 20113 net.cpp:106] Creating Layer conv4_5/relu
I0118 17:37:14.143795 20113 net.cpp:454] conv4_5/relu <- conv4_5
I0118 17:37:14.143800 20113 net.cpp:397] conv4_5/relu -> conv4_5 (in-place)
I0118 17:37:14.143954 20113 net.cpp:150] Setting up conv4_5/relu
I0118 17:37:14.143961 20113 net.cpp:157] Top shape: 1 1024 60 60 (3686400)
I0118 17:37:14.143965 20113 net.cpp:165] Memory required for data: 1360054432
I0118 17:37:14.143968 20113 layer_factory.hpp:77] Creating layer conv4_5_conv4_5/relu_0_split
I0118 17:37:14.143976 20113 net.cpp:106] Creating Layer conv4_5_conv4_5/relu_0_split
I0118 17:37:14.143980 20113 net.cpp:454] conv4_5_conv4_5/relu_0_split <- conv4_5
I0118 17:37:14.143987 20113 net.cpp:411] conv4_5_conv4_5/relu_0_split -> conv4_5_conv4_5/relu_0_split_0
I0118 17:37:14.143996 20113 net.cpp:411] conv4_5_conv4_5/relu_0_split -> conv4_5_conv4_5/relu_0_split_1
I0118 17:37:14.144042 20113 net.cpp:150] Setting up conv4_5_conv4_5/relu_0_split
I0118 17:37:14.144048 20113 net.cpp:157] Top shape: 1 1024 60 60 (3686400)
I0118 17:37:14.144054 20113 net.cpp:157] Top shape: 1 1024 60 60 (3686400)
I0118 17:37:14.144057 20113 net.cpp:165] Memory required for data: 1389545632
I0118 17:37:14.144062 20113 layer_factory.hpp:77] Creating layer conv4_6_1x1_reduce
I0118 17:37:14.144071 20113 net.cpp:106] Creating Layer conv4_6_1x1_reduce
I0118 17:37:14.144075 20113 net.cpp:454] conv4_6_1x1_reduce <- conv4_5_conv4_5/relu_0_split_0
I0118 17:37:14.144081 20113 net.cpp:411] conv4_6_1x1_reduce -> conv4_6_1x1_reduce
I0118 17:37:14.147109 20113 net.cpp:150] Setting up conv4_6_1x1_reduce
I0118 17:37:14.147119 20113 net.cpp:157] Top shape: 1 256 60 60 (921600)
I0118 17:37:14.147123 20113 net.cpp:165] Memory required for data: 1393232032
I0118 17:37:14.147130 20113 layer_factory.hpp:77] Creating layer conv4_6_1x1_reduce/bn
I0118 17:37:14.147141 20113 net.cpp:106] Creating Layer conv4_6_1x1_reduce/bn
I0118 17:37:14.147146 20113 net.cpp:454] conv4_6_1x1_reduce/bn <- conv4_6_1x1_reduce
I0118 17:37:14.147152 20113 net.cpp:397] conv4_6_1x1_reduce/bn -> conv4_6_1x1_reduce (in-place)
I0118 17:37:14.147382 20113 net.cpp:150] Setting up conv4_6_1x1_reduce/bn
I0118 17:37:14.147388 20113 net.cpp:157] Top shape: 1 256 60 60 (921600)
I0118 17:37:14.147392 20113 net.cpp:165] Memory required for data: 1396918432
I0118 17:37:14.147399 20113 layer_factory.hpp:77] Creating layer conv4_6_1x1_reduce/relu
I0118 17:37:14.147406 20113 net.cpp:106] Creating Layer conv4_6_1x1_reduce/relu
I0118 17:37:14.147411 20113 net.cpp:454] conv4_6_1x1_reduce/relu <- conv4_6_1x1_reduce
I0118 17:37:14.147418 20113 net.cpp:397] conv4_6_1x1_reduce/relu -> conv4_6_1x1_reduce (in-place)
I0118 17:37:14.147692 20113 net.cpp:150] Setting up conv4_6_1x1_reduce/relu
I0118 17:37:14.147701 20113 net.cpp:157] Top shape: 1 256 60 60 (921600)
I0118 17:37:14.147704 20113 net.cpp:165] Memory required for data: 1400604832
I0118 17:37:14.147708 20113 layer_factory.hpp:77] Creating layer conv4_6_3x3
I0118 17:37:14.147718 20113 net.cpp:106] Creating Layer conv4_6_3x3
I0118 17:37:14.147723 20113 net.cpp:454] conv4_6_3x3 <- conv4_6_1x1_reduce
I0118 17:37:14.147730 20113 net.cpp:411] conv4_6_3x3 -> conv4_6_3x3
I0118 17:37:14.152495 20113 net.cpp:150] Setting up conv4_6_3x3
I0118 17:37:14.152506 20113 net.cpp:157] Top shape: 1 256 60 60 (921600)
I0118 17:37:14.152509 20113 net.cpp:165] Memory required for data: 1404291232
I0118 17:37:14.152516 20113 layer_factory.hpp:77] Creating layer conv4_6_3x3/bn
I0118 17:37:14.152526 20113 net.cpp:106] Creating Layer conv4_6_3x3/bn
I0118 17:37:14.152534 20113 net.cpp:454] conv4_6_3x3/bn <- conv4_6_3x3
I0118 17:37:14.152541 20113 net.cpp:397] conv4_6_3x3/bn -> conv4_6_3x3 (in-place)
I0118 17:37:14.152773 20113 net.cpp:150] Setting up conv4_6_3x3/bn
I0118 17:37:14.152781 20113 net.cpp:157] Top shape: 1 256 60 60 (921600)
I0118 17:37:14.152783 20113 net.cpp:165] Memory required for data: 1407977632
I0118 17:37:14.152791 20113 layer_factory.hpp:77] Creating layer conv4_6_3x3/relu
I0118 17:37:14.152798 20113 net.cpp:106] Creating Layer conv4_6_3x3/relu
I0118 17:37:14.152803 20113 net.cpp:454] conv4_6_3x3/relu <- conv4_6_3x3
I0118 17:37:14.152808 20113 net.cpp:397] conv4_6_3x3/relu -> conv4_6_3x3 (in-place)
I0118 17:37:14.152973 20113 net.cpp:150] Setting up conv4_6_3x3/relu
I0118 17:37:14.152981 20113 net.cpp:157] Top shape: 1 256 60 60 (921600)
I0118 17:37:14.152984 20113 net.cpp:165] Memory required for data: 1411664032
I0118 17:37:14.152988 20113 layer_factory.hpp:77] Creating layer conv4_6_1x1_increase
I0118 17:37:14.152997 20113 net.cpp:106] Creating Layer conv4_6_1x1_increase
I0118 17:37:14.153002 20113 net.cpp:454] conv4_6_1x1_increase <- conv4_6_3x3
I0118 17:37:14.153010 20113 net.cpp:411] conv4_6_1x1_increase -> conv4_6_1x1_increase
I0118 17:37:14.157519 20113 net.cpp:150] Setting up conv4_6_1x1_increase
I0118 17:37:14.157567 20113 net.cpp:157] Top shape: 1 1024 60 60 (3686400)
I0118 17:37:14.157582 20113 net.cpp:165] Memory required for data: 1426409632
I0118 17:37:14.157598 20113 layer_factory.hpp:77] Creating layer conv4_6_1x1_increase/bn
I0118 17:37:14.157616 20113 net.cpp:106] Creating Layer conv4_6_1x1_increase/bn
I0118 17:37:14.157629 20113 net.cpp:454] conv4_6_1x1_increase/bn <- conv4_6_1x1_increase
I0118 17:37:14.157646 20113 net.cpp:397] conv4_6_1x1_increase/bn -> conv4_6_1x1_increase (in-place)
I0118 17:37:14.157923 20113 net.cpp:150] Setting up conv4_6_1x1_increase/bn
I0118 17:37:14.157932 20113 net.cpp:157] Top shape: 1 1024 60 60 (3686400)
I0118 17:37:14.157935 20113 net.cpp:165] Memory required for data: 1441155232
I0118 17:37:14.157943 20113 layer_factory.hpp:77] Creating layer conv4_6
I0118 17:37:14.157953 20113 net.cpp:106] Creating Layer conv4_6
I0118 17:37:14.157959 20113 net.cpp:454] conv4_6 <- conv4_5_conv4_5/relu_0_split_1
I0118 17:37:14.157963 20113 net.cpp:454] conv4_6 <- conv4_6_1x1_increase
I0118 17:37:14.157969 20113 net.cpp:411] conv4_6 -> conv4_6
I0118 17:37:14.157997 20113 net.cpp:150] Setting up conv4_6
I0118 17:37:14.158004 20113 net.cpp:157] Top shape: 1 1024 60 60 (3686400)
I0118 17:37:14.158006 20113 net.cpp:165] Memory required for data: 1455900832
I0118 17:37:14.158010 20113 layer_factory.hpp:77] Creating layer conv4_6/relu
I0118 17:37:14.158017 20113 net.cpp:106] Creating Layer conv4_6/relu
I0118 17:37:14.158022 20113 net.cpp:454] conv4_6/relu <- conv4_6
I0118 17:37:14.158027 20113 net.cpp:397] conv4_6/relu -> conv4_6 (in-place)
I0118 17:37:14.158330 20113 net.cpp:150] Setting up conv4_6/relu
I0118 17:37:14.158339 20113 net.cpp:157] Top shape: 1 1024 60 60 (3686400)
I0118 17:37:14.158342 20113 net.cpp:165] Memory required for data: 1470646432
I0118 17:37:14.158346 20113 layer_factory.hpp:77] Creating layer conv4_6_conv4_6/relu_0_split
I0118 17:37:14.158365 20113 net.cpp:106] Creating Layer conv4_6_conv4_6/relu_0_split
I0118 17:37:14.158370 20113 net.cpp:454] conv4_6_conv4_6/relu_0_split <- conv4_6
I0118 17:37:14.158377 20113 net.cpp:411] conv4_6_conv4_6/relu_0_split -> conv4_6_conv4_6/relu_0_split_0
I0118 17:37:14.158386 20113 net.cpp:411] conv4_6_conv4_6/relu_0_split -> conv4_6_conv4_6/relu_0_split_1
I0118 17:37:14.158437 20113 net.cpp:150] Setting up conv4_6_conv4_6/relu_0_split
I0118 17:37:14.158442 20113 net.cpp:157] Top shape: 1 1024 60 60 (3686400)
I0118 17:37:14.158447 20113 net.cpp:157] Top shape: 1 1024 60 60 (3686400)
I0118 17:37:14.158450 20113 net.cpp:165] Memory required for data: 1500137632
I0118 17:37:14.158454 20113 layer_factory.hpp:77] Creating layer conv4_7_1x1_reduce
I0118 17:37:14.158465 20113 net.cpp:106] Creating Layer conv4_7_1x1_reduce
I0118 17:37:14.158469 20113 net.cpp:454] conv4_7_1x1_reduce <- conv4_6_conv4_6/relu_0_split_0
I0118 17:37:14.158476 20113 net.cpp:411] conv4_7_1x1_reduce -> conv4_7_1x1_reduce
I0118 17:37:14.161806 20113 net.cpp:150] Setting up conv4_7_1x1_reduce
I0118 17:37:14.161834 20113 net.cpp:157] Top shape: 1 256 60 60 (921600)
I0118 17:37:14.161839 20113 net.cpp:165] Memory required for data: 1503824032
I0118 17:37:14.161845 20113 layer_factory.hpp:77] Creating layer conv4_7_1x1_reduce/bn
I0118 17:37:14.161860 20113 net.cpp:106] Creating Layer conv4_7_1x1_reduce/bn
I0118 17:37:14.161869 20113 net.cpp:454] conv4_7_1x1_reduce/bn <- conv4_7_1x1_reduce
I0118 17:37:14.161880 20113 net.cpp:397] conv4_7_1x1_reduce/bn -> conv4_7_1x1_reduce (in-place)
I0118 17:37:14.162169 20113 net.cpp:150] Setting up conv4_7_1x1_reduce/bn
I0118 17:37:14.162178 20113 net.cpp:157] Top shape: 1 256 60 60 (921600)
I0118 17:37:14.162183 20113 net.cpp:165] Memory required for data: 1507510432
I0118 17:37:14.162190 20113 layer_factory.hpp:77] Creating layer conv4_7_1x1_reduce/relu
I0118 17:37:14.162197 20113 net.cpp:106] Creating Layer conv4_7_1x1_reduce/relu
I0118 17:37:14.162202 20113 net.cpp:454] conv4_7_1x1_reduce/relu <- conv4_7_1x1_reduce
I0118 17:37:14.162207 20113 net.cpp:397] conv4_7_1x1_reduce/relu -> conv4_7_1x1_reduce (in-place)
I0118 17:37:14.162853 20113 net.cpp:150] Setting up conv4_7_1x1_reduce/relu
I0118 17:37:14.162863 20113 net.cpp:157] Top shape: 1 256 60 60 (921600)
I0118 17:37:14.162866 20113 net.cpp:165] Memory required for data: 1511196832
I0118 17:37:14.162870 20113 layer_factory.hpp:77] Creating layer conv4_7_3x3
I0118 17:37:14.162883 20113 net.cpp:106] Creating Layer conv4_7_3x3
I0118 17:37:14.162886 20113 net.cpp:454] conv4_7_3x3 <- conv4_7_1x1_reduce
I0118 17:37:14.162894 20113 net.cpp:411] conv4_7_3x3 -> conv4_7_3x3
I0118 17:37:14.167681 20113 net.cpp:150] Setting up conv4_7_3x3
I0118 17:37:14.167692 20113 net.cpp:157] Top shape: 1 256 60 60 (921600)
I0118 17:37:14.167696 20113 net.cpp:165] Memory required for data: 1514883232
I0118 17:37:14.167702 20113 layer_factory.hpp:77] Creating layer conv4_7_3x3/bn
I0118 17:37:14.167717 20113 net.cpp:106] Creating Layer conv4_7_3x3/bn
I0118 17:37:14.167723 20113 net.cpp:454] conv4_7_3x3/bn <- conv4_7_3x3
I0118 17:37:14.167731 20113 net.cpp:397] conv4_7_3x3/bn -> conv4_7_3x3 (in-place)
I0118 17:37:14.167965 20113 net.cpp:150] Setting up conv4_7_3x3/bn
I0118 17:37:14.167973 20113 net.cpp:157] Top shape: 1 256 60 60 (921600)
I0118 17:37:14.167975 20113 net.cpp:165] Memory required for data: 1518569632
I0118 17:37:14.167984 20113 layer_factory.hpp:77] Creating layer conv4_7_3x3/relu
I0118 17:37:14.167990 20113 net.cpp:106] Creating Layer conv4_7_3x3/relu
I0118 17:37:14.167994 20113 net.cpp:454] conv4_7_3x3/relu <- conv4_7_3x3
I0118 17:37:14.168000 20113 net.cpp:397] conv4_7_3x3/relu -> conv4_7_3x3 (in-place)
I0118 17:37:14.168157 20113 net.cpp:150] Setting up conv4_7_3x3/relu
I0118 17:37:14.168165 20113 net.cpp:157] Top shape: 1 256 60 60 (921600)
I0118 17:37:14.168169 20113 net.cpp:165] Memory required for data: 1522256032
I0118 17:37:14.168172 20113 layer_factory.hpp:77] Creating layer conv4_7_1x1_increase
I0118 17:37:14.168181 20113 net.cpp:106] Creating Layer conv4_7_1x1_increase
I0118 17:37:14.168195 20113 net.cpp:454] conv4_7_1x1_increase <- conv4_7_3x3
I0118 17:37:14.168203 20113 net.cpp:411] conv4_7_1x1_increase -> conv4_7_1x1_increase
I0118 17:37:14.171329 20113 net.cpp:150] Setting up conv4_7_1x1_increase
I0118 17:37:14.171344 20113 net.cpp:157] Top shape: 1 1024 60 60 (3686400)
I0118 17:37:14.171349 20113 net.cpp:165] Memory required for data: 1537001632
I0118 17:37:14.171355 20113 layer_factory.hpp:77] Creating layer conv4_7_1x1_increase/bn
I0118 17:37:14.171365 20113 net.cpp:106] Creating Layer conv4_7_1x1_increase/bn
I0118 17:37:14.171370 20113 net.cpp:454] conv4_7_1x1_increase/bn <- conv4_7_1x1_increase
I0118 17:37:14.171377 20113 net.cpp:397] conv4_7_1x1_increase/bn -> conv4_7_1x1_increase (in-place)
I0118 17:37:14.171670 20113 net.cpp:150] Setting up conv4_7_1x1_increase/bn
I0118 17:37:14.171696 20113 net.cpp:157] Top shape: 1 1024 60 60 (3686400)
I0118 17:37:14.171711 20113 net.cpp:165] Memory required for data: 1551747232
I0118 17:37:14.171731 20113 layer_factory.hpp:77] Creating layer conv4_7
I0118 17:37:14.171751 20113 net.cpp:106] Creating Layer conv4_7
I0118 17:37:14.171766 20113 net.cpp:454] conv4_7 <- conv4_6_conv4_6/relu_0_split_1
I0118 17:37:14.171774 20113 net.cpp:454] conv4_7 <- conv4_7_1x1_increase
I0118 17:37:14.171782 20113 net.cpp:411] conv4_7 -> conv4_7
I0118 17:37:14.171818 20113 net.cpp:150] Setting up conv4_7
I0118 17:37:14.171825 20113 net.cpp:157] Top shape: 1 1024 60 60 (3686400)
I0118 17:37:14.171828 20113 net.cpp:165] Memory required for data: 1566492832
I0118 17:37:14.171833 20113 layer_factory.hpp:77] Creating layer conv4_7/relu
I0118 17:37:14.171838 20113 net.cpp:106] Creating Layer conv4_7/relu
I0118 17:37:14.171844 20113 net.cpp:454] conv4_7/relu <- conv4_7
I0118 17:37:14.171849 20113 net.cpp:397] conv4_7/relu -> conv4_7 (in-place)
I0118 17:37:14.172140 20113 net.cpp:150] Setting up conv4_7/relu
I0118 17:37:14.172149 20113 net.cpp:157] Top shape: 1 1024 60 60 (3686400)
I0118 17:37:14.172153 20113 net.cpp:165] Memory required for data: 1581238432
I0118 17:37:14.172158 20113 layer_factory.hpp:77] Creating layer conv4_7_conv4_7/relu_0_split
I0118 17:37:14.172165 20113 net.cpp:106] Creating Layer conv4_7_conv4_7/relu_0_split
I0118 17:37:14.172170 20113 net.cpp:454] conv4_7_conv4_7/relu_0_split <- conv4_7
I0118 17:37:14.172178 20113 net.cpp:411] conv4_7_conv4_7/relu_0_split -> conv4_7_conv4_7/relu_0_split_0
I0118 17:37:14.172185 20113 net.cpp:411] conv4_7_conv4_7/relu_0_split -> conv4_7_conv4_7/relu_0_split_1
I0118 17:37:14.172231 20113 net.cpp:150] Setting up conv4_7_conv4_7/relu_0_split
I0118 17:37:14.172237 20113 net.cpp:157] Top shape: 1 1024 60 60 (3686400)
I0118 17:37:14.172242 20113 net.cpp:157] Top shape: 1 1024 60 60 (3686400)
I0118 17:37:14.172246 20113 net.cpp:165] Memory required for data: 1610729632
I0118 17:37:14.172250 20113 layer_factory.hpp:77] Creating layer conv4_8_1x1_reduce
I0118 17:37:14.172262 20113 net.cpp:106] Creating Layer conv4_8_1x1_reduce
I0118 17:37:14.172267 20113 net.cpp:454] conv4_8_1x1_reduce <- conv4_7_conv4_7/relu_0_split_0
I0118 17:37:14.172273 20113 net.cpp:411] conv4_8_1x1_reduce -> conv4_8_1x1_reduce
I0118 17:37:14.175308 20113 net.cpp:150] Setting up conv4_8_1x1_reduce
I0118 17:37:14.175320 20113 net.cpp:157] Top shape: 1 256 60 60 (921600)
I0118 17:37:14.175324 20113 net.cpp:165] Memory required for data: 1614416032
I0118 17:37:14.175330 20113 layer_factory.hpp:77] Creating layer conv4_8_1x1_reduce/bn
I0118 17:37:14.175341 20113 net.cpp:106] Creating Layer conv4_8_1x1_reduce/bn
I0118 17:37:14.175346 20113 net.cpp:454] conv4_8_1x1_reduce/bn <- conv4_8_1x1_reduce
I0118 17:37:14.175354 20113 net.cpp:397] conv4_8_1x1_reduce/bn -> conv4_8_1x1_reduce (in-place)
I0118 17:37:14.175592 20113 net.cpp:150] Setting up conv4_8_1x1_reduce/bn
I0118 17:37:14.175599 20113 net.cpp:157] Top shape: 1 256 60 60 (921600)
I0118 17:37:14.175602 20113 net.cpp:165] Memory required for data: 1618102432
I0118 17:37:14.175611 20113 layer_factory.hpp:77] Creating layer conv4_8_1x1_reduce/relu
I0118 17:37:14.175624 20113 net.cpp:106] Creating Layer conv4_8_1x1_reduce/relu
I0118 17:37:14.175631 20113 net.cpp:454] conv4_8_1x1_reduce/relu <- conv4_8_1x1_reduce
I0118 17:37:14.175637 20113 net.cpp:397] conv4_8_1x1_reduce/relu -> conv4_8_1x1_reduce (in-place)
I0118 17:37:14.175787 20113 net.cpp:150] Setting up conv4_8_1x1_reduce/relu
I0118 17:37:14.175794 20113 net.cpp:157] Top shape: 1 256 60 60 (921600)
I0118 17:37:14.175798 20113 net.cpp:165] Memory required for data: 1621788832
I0118 17:37:14.175802 20113 layer_factory.hpp:77] Creating layer conv4_8_3x3
I0118 17:37:14.175812 20113 net.cpp:106] Creating Layer conv4_8_3x3
I0118 17:37:14.175817 20113 net.cpp:454] conv4_8_3x3 <- conv4_8_1x1_reduce
I0118 17:37:14.175824 20113 net.cpp:411] conv4_8_3x3 -> conv4_8_3x3
I0118 17:37:14.180577 20113 net.cpp:150] Setting up conv4_8_3x3
I0118 17:37:14.180590 20113 net.cpp:157] Top shape: 1 256 60 60 (921600)
I0118 17:37:14.180594 20113 net.cpp:165] Memory required for data: 1625475232
I0118 17:37:14.180600 20113 layer_factory.hpp:77] Creating layer conv4_8_3x3/bn
I0118 17:37:14.180611 20113 net.cpp:106] Creating Layer conv4_8_3x3/bn
I0118 17:37:14.180619 20113 net.cpp:454] conv4_8_3x3/bn <- conv4_8_3x3
I0118 17:37:14.180626 20113 net.cpp:397] conv4_8_3x3/bn -> conv4_8_3x3 (in-place)
I0118 17:37:14.180881 20113 net.cpp:150] Setting up conv4_8_3x3/bn
I0118 17:37:14.180889 20113 net.cpp:157] Top shape: 1 256 60 60 (921600)
I0118 17:37:14.180892 20113 net.cpp:165] Memory required for data: 1629161632
I0118 17:37:14.180901 20113 layer_factory.hpp:77] Creating layer conv4_8_3x3/relu
I0118 17:37:14.180907 20113 net.cpp:106] Creating Layer conv4_8_3x3/relu
I0118 17:37:14.180910 20113 net.cpp:454] conv4_8_3x3/relu <- conv4_8_3x3
I0118 17:37:14.180915 20113 net.cpp:397] conv4_8_3x3/relu -> conv4_8_3x3 (in-place)
I0118 17:37:14.181239 20113 net.cpp:150] Setting up conv4_8_3x3/relu
I0118 17:37:14.181248 20113 net.cpp:157] Top shape: 1 256 60 60 (921600)
I0118 17:37:14.181252 20113 net.cpp:165] Memory required for data: 1632848032
I0118 17:37:14.181257 20113 layer_factory.hpp:77] Creating layer conv4_8_1x1_increase
I0118 17:37:14.181267 20113 net.cpp:106] Creating Layer conv4_8_1x1_increase
I0118 17:37:14.181270 20113 net.cpp:454] conv4_8_1x1_increase <- conv4_8_3x3
I0118 17:37:14.181279 20113 net.cpp:411] conv4_8_1x1_increase -> conv4_8_1x1_increase
I0118 17:37:14.184211 20113 net.cpp:150] Setting up conv4_8_1x1_increase
I0118 17:37:14.184222 20113 net.cpp:157] Top shape: 1 1024 60 60 (3686400)
I0118 17:37:14.184226 20113 net.cpp:165] Memory required for data: 1647593632
I0118 17:37:14.184232 20113 layer_factory.hpp:77] Creating layer conv4_8_1x1_increase/bn
I0118 17:37:14.184240 20113 net.cpp:106] Creating Layer conv4_8_1x1_increase/bn
I0118 17:37:14.184245 20113 net.cpp:454] conv4_8_1x1_increase/bn <- conv4_8_1x1_increase
I0118 17:37:14.184253 20113 net.cpp:397] conv4_8_1x1_increase/bn -> conv4_8_1x1_increase (in-place)
I0118 17:37:14.184504 20113 net.cpp:150] Setting up conv4_8_1x1_increase/bn
I0118 17:37:14.184511 20113 net.cpp:157] Top shape: 1 1024 60 60 (3686400)
I0118 17:37:14.184514 20113 net.cpp:165] Memory required for data: 1662339232
I0118 17:37:14.184522 20113 layer_factory.hpp:77] Creating layer conv4_8
I0118 17:37:14.184530 20113 net.cpp:106] Creating Layer conv4_8
I0118 17:37:14.184535 20113 net.cpp:454] conv4_8 <- conv4_7_conv4_7/relu_0_split_1
I0118 17:37:14.184540 20113 net.cpp:454] conv4_8 <- conv4_8_1x1_increase
I0118 17:37:14.184545 20113 net.cpp:411] conv4_8 -> conv4_8
I0118 17:37:14.184576 20113 net.cpp:150] Setting up conv4_8
I0118 17:37:14.184583 20113 net.cpp:157] Top shape: 1 1024 60 60 (3686400)
I0118 17:37:14.184587 20113 net.cpp:165] Memory required for data: 1677084832
I0118 17:37:14.184590 20113 layer_factory.hpp:77] Creating layer conv4_8/relu
I0118 17:37:14.184595 20113 net.cpp:106] Creating Layer conv4_8/relu
I0118 17:37:14.184600 20113 net.cpp:454] conv4_8/relu <- conv4_8
I0118 17:37:14.184607 20113 net.cpp:397] conv4_8/relu -> conv4_8 (in-place)
I0118 17:37:14.184880 20113 net.cpp:150] Setting up conv4_8/relu
I0118 17:37:14.184895 20113 net.cpp:157] Top shape: 1 1024 60 60 (3686400)
I0118 17:37:14.184900 20113 net.cpp:165] Memory required for data: 1691830432
I0118 17:37:14.184904 20113 layer_factory.hpp:77] Creating layer conv4_8_conv4_8/relu_0_split
I0118 17:37:14.184912 20113 net.cpp:106] Creating Layer conv4_8_conv4_8/relu_0_split
I0118 17:37:14.184916 20113 net.cpp:454] conv4_8_conv4_8/relu_0_split <- conv4_8
I0118 17:37:14.184923 20113 net.cpp:411] conv4_8_conv4_8/relu_0_split -> conv4_8_conv4_8/relu_0_split_0
I0118 17:37:14.184932 20113 net.cpp:411] conv4_8_conv4_8/relu_0_split -> conv4_8_conv4_8/relu_0_split_1
I0118 17:37:14.184981 20113 net.cpp:150] Setting up conv4_8_conv4_8/relu_0_split
I0118 17:37:14.184988 20113 net.cpp:157] Top shape: 1 1024 60 60 (3686400)
I0118 17:37:14.184994 20113 net.cpp:157] Top shape: 1 1024 60 60 (3686400)
I0118 17:37:14.184998 20113 net.cpp:165] Memory required for data: 1721321632
I0118 17:37:14.185000 20113 layer_factory.hpp:77] Creating layer conv4_9_1x1_reduce
I0118 17:37:14.185009 20113 net.cpp:106] Creating Layer conv4_9_1x1_reduce
I0118 17:37:14.185014 20113 net.cpp:454] conv4_9_1x1_reduce <- conv4_8_conv4_8/relu_0_split_0
I0118 17:37:14.185020 20113 net.cpp:411] conv4_9_1x1_reduce -> conv4_9_1x1_reduce
I0118 17:37:14.188014 20113 net.cpp:150] Setting up conv4_9_1x1_reduce
I0118 17:37:14.188024 20113 net.cpp:157] Top shape: 1 256 60 60 (921600)
I0118 17:37:14.188028 20113 net.cpp:165] Memory required for data: 1725008032
I0118 17:37:14.188035 20113 layer_factory.hpp:77] Creating layer conv4_9_1x1_reduce/bn
I0118 17:37:14.188045 20113 net.cpp:106] Creating Layer conv4_9_1x1_reduce/bn
I0118 17:37:14.188048 20113 net.cpp:454] conv4_9_1x1_reduce/bn <- conv4_9_1x1_reduce
I0118 17:37:14.188056 20113 net.cpp:397] conv4_9_1x1_reduce/bn -> conv4_9_1x1_reduce (in-place)
I0118 17:37:14.188307 20113 net.cpp:150] Setting up conv4_9_1x1_reduce/bn
I0118 17:37:14.188313 20113 net.cpp:157] Top shape: 1 256 60 60 (921600)
I0118 17:37:14.188318 20113 net.cpp:165] Memory required for data: 1728694432
I0118 17:37:14.188345 20113 layer_factory.hpp:77] Creating layer conv4_9_1x1_reduce/relu
I0118 17:37:14.188352 20113 net.cpp:106] Creating Layer conv4_9_1x1_reduce/relu
I0118 17:37:14.188356 20113 net.cpp:454] conv4_9_1x1_reduce/relu <- conv4_9_1x1_reduce
I0118 17:37:14.188362 20113 net.cpp:397] conv4_9_1x1_reduce/relu -> conv4_9_1x1_reduce (in-place)
I0118 17:37:14.188632 20113 net.cpp:150] Setting up conv4_9_1x1_reduce/relu
I0118 17:37:14.188642 20113 net.cpp:157] Top shape: 1 256 60 60 (921600)
I0118 17:37:14.188645 20113 net.cpp:165] Memory required for data: 1732380832
I0118 17:37:14.188648 20113 layer_factory.hpp:77] Creating layer conv4_9_3x3
I0118 17:37:14.188660 20113 net.cpp:106] Creating Layer conv4_9_3x3
I0118 17:37:14.188664 20113 net.cpp:454] conv4_9_3x3 <- conv4_9_1x1_reduce
I0118 17:37:14.188671 20113 net.cpp:411] conv4_9_3x3 -> conv4_9_3x3
I0118 17:37:14.193421 20113 net.cpp:150] Setting up conv4_9_3x3
I0118 17:37:14.193433 20113 net.cpp:157] Top shape: 1 256 60 60 (921600)
I0118 17:37:14.193435 20113 net.cpp:165] Memory required for data: 1736067232
I0118 17:37:14.193441 20113 layer_factory.hpp:77] Creating layer conv4_9_3x3/bn
I0118 17:37:14.193450 20113 net.cpp:106] Creating Layer conv4_9_3x3/bn
I0118 17:37:14.193455 20113 net.cpp:454] conv4_9_3x3/bn <- conv4_9_3x3
I0118 17:37:14.193460 20113 net.cpp:397] conv4_9_3x3/bn -> conv4_9_3x3 (in-place)
I0118 17:37:14.193711 20113 net.cpp:150] Setting up conv4_9_3x3/bn
I0118 17:37:14.193717 20113 net.cpp:157] Top shape: 1 256 60 60 (921600)
I0118 17:37:14.193722 20113 net.cpp:165] Memory required for data: 1739753632
I0118 17:37:14.193729 20113 layer_factory.hpp:77] Creating layer conv4_9_3x3/relu
I0118 17:37:14.193735 20113 net.cpp:106] Creating Layer conv4_9_3x3/relu
I0118 17:37:14.193738 20113 net.cpp:454] conv4_9_3x3/relu <- conv4_9_3x3
I0118 17:37:14.193744 20113 net.cpp:397] conv4_9_3x3/relu -> conv4_9_3x3 (in-place)
I0118 17:37:14.194044 20113 net.cpp:150] Setting up conv4_9_3x3/relu
I0118 17:37:14.194053 20113 net.cpp:157] Top shape: 1 256 60 60 (921600)
I0118 17:37:14.194067 20113 net.cpp:165] Memory required for data: 1743440032
I0118 17:37:14.194072 20113 layer_factory.hpp:77] Creating layer conv4_9_1x1_increase
I0118 17:37:14.194082 20113 net.cpp:106] Creating Layer conv4_9_1x1_increase
I0118 17:37:14.194087 20113 net.cpp:454] conv4_9_1x1_increase <- conv4_9_3x3
I0118 17:37:14.194095 20113 net.cpp:411] conv4_9_1x1_increase -> conv4_9_1x1_increase
I0118 17:37:14.197134 20113 net.cpp:150] Setting up conv4_9_1x1_increase
I0118 17:37:14.197145 20113 net.cpp:157] Top shape: 1 1024 60 60 (3686400)
I0118 17:37:14.197149 20113 net.cpp:165] Memory required for data: 1758185632
I0118 17:37:14.197154 20113 layer_factory.hpp:77] Creating layer conv4_9_1x1_increase/bn
I0118 17:37:14.197165 20113 net.cpp:106] Creating Layer conv4_9_1x1_increase/bn
I0118 17:37:14.197170 20113 net.cpp:454] conv4_9_1x1_increase/bn <- conv4_9_1x1_increase
I0118 17:37:14.197178 20113 net.cpp:397] conv4_9_1x1_increase/bn -> conv4_9_1x1_increase (in-place)
I0118 17:37:14.197425 20113 net.cpp:150] Setting up conv4_9_1x1_increase/bn
I0118 17:37:14.197433 20113 net.cpp:157] Top shape: 1 1024 60 60 (3686400)
I0118 17:37:14.197437 20113 net.cpp:165] Memory required for data: 1772931232
I0118 17:37:14.197444 20113 layer_factory.hpp:77] Creating layer conv4_9
I0118 17:37:14.197456 20113 net.cpp:106] Creating Layer conv4_9
I0118 17:37:14.197461 20113 net.cpp:454] conv4_9 <- conv4_8_conv4_8/relu_0_split_1
I0118 17:37:14.197466 20113 net.cpp:454] conv4_9 <- conv4_9_1x1_increase
I0118 17:37:14.197471 20113 net.cpp:411] conv4_9 -> conv4_9
I0118 17:37:14.197501 20113 net.cpp:150] Setting up conv4_9
I0118 17:37:14.197507 20113 net.cpp:157] Top shape: 1 1024 60 60 (3686400)
I0118 17:37:14.197510 20113 net.cpp:165] Memory required for data: 1787676832
I0118 17:37:14.197513 20113 layer_factory.hpp:77] Creating layer conv4_9/relu
I0118 17:37:14.197520 20113 net.cpp:106] Creating Layer conv4_9/relu
I0118 17:37:14.197525 20113 net.cpp:454] conv4_9/relu <- conv4_9
I0118 17:37:14.197530 20113 net.cpp:397] conv4_9/relu -> conv4_9 (in-place)
I0118 17:37:14.197679 20113 net.cpp:150] Setting up conv4_9/relu
I0118 17:37:14.197686 20113 net.cpp:157] Top shape: 1 1024 60 60 (3686400)
I0118 17:37:14.197690 20113 net.cpp:165] Memory required for data: 1802422432
I0118 17:37:14.197693 20113 layer_factory.hpp:77] Creating layer conv4_9_conv4_9/relu_0_split
I0118 17:37:14.197700 20113 net.cpp:106] Creating Layer conv4_9_conv4_9/relu_0_split
I0118 17:37:14.197705 20113 net.cpp:454] conv4_9_conv4_9/relu_0_split <- conv4_9
I0118 17:37:14.197712 20113 net.cpp:411] conv4_9_conv4_9/relu_0_split -> conv4_9_conv4_9/relu_0_split_0
I0118 17:37:14.197721 20113 net.cpp:411] conv4_9_conv4_9/relu_0_split -> conv4_9_conv4_9/relu_0_split_1
I0118 17:37:14.197768 20113 net.cpp:150] Setting up conv4_9_conv4_9/relu_0_split
I0118 17:37:14.197774 20113 net.cpp:157] Top shape: 1 1024 60 60 (3686400)
I0118 17:37:14.197779 20113 net.cpp:157] Top shape: 1 1024 60 60 (3686400)
I0118 17:37:14.197783 20113 net.cpp:165] Memory required for data: 1831913632
I0118 17:37:14.197788 20113 layer_factory.hpp:77] Creating layer conv4_10_1x1_reduce
I0118 17:37:14.197798 20113 net.cpp:106] Creating Layer conv4_10_1x1_reduce
I0118 17:37:14.197803 20113 net.cpp:454] conv4_10_1x1_reduce <- conv4_9_conv4_9/relu_0_split_0
I0118 17:37:14.197809 20113 net.cpp:411] conv4_10_1x1_reduce -> conv4_10_1x1_reduce
I0118 17:37:14.200817 20113 net.cpp:150] Setting up conv4_10_1x1_reduce
I0118 17:37:14.200829 20113 net.cpp:157] Top shape: 1 256 60 60 (921600)
I0118 17:37:14.200832 20113 net.cpp:165] Memory required for data: 1835600032
I0118 17:37:14.200839 20113 layer_factory.hpp:77] Creating layer conv4_10_1x1_reduce/bn
I0118 17:37:14.200847 20113 net.cpp:106] Creating Layer conv4_10_1x1_reduce/bn
I0118 17:37:14.200852 20113 net.cpp:454] conv4_10_1x1_reduce/bn <- conv4_10_1x1_reduce
I0118 17:37:14.200861 20113 net.cpp:397] conv4_10_1x1_reduce/bn -> conv4_10_1x1_reduce (in-place)
I0118 17:37:14.201109 20113 net.cpp:150] Setting up conv4_10_1x1_reduce/bn
I0118 17:37:14.201123 20113 net.cpp:157] Top shape: 1 256 60 60 (921600)
I0118 17:37:14.201126 20113 net.cpp:165] Memory required for data: 1839286432
I0118 17:37:14.201135 20113 layer_factory.hpp:77] Creating layer conv4_10_1x1_reduce/relu
I0118 17:37:14.201143 20113 net.cpp:106] Creating Layer conv4_10_1x1_reduce/relu
I0118 17:37:14.201146 20113 net.cpp:454] conv4_10_1x1_reduce/relu <- conv4_10_1x1_reduce
I0118 17:37:14.201151 20113 net.cpp:397] conv4_10_1x1_reduce/relu -> conv4_10_1x1_reduce (in-place)
I0118 17:37:14.201424 20113 net.cpp:150] Setting up conv4_10_1x1_reduce/relu
I0118 17:37:14.201433 20113 net.cpp:157] Top shape: 1 256 60 60 (921600)
I0118 17:37:14.201437 20113 net.cpp:165] Memory required for data: 1842972832
I0118 17:37:14.201442 20113 layer_factory.hpp:77] Creating layer conv4_10_3x3
I0118 17:37:14.201452 20113 net.cpp:106] Creating Layer conv4_10_3x3
I0118 17:37:14.201457 20113 net.cpp:454] conv4_10_3x3 <- conv4_10_1x1_reduce
I0118 17:37:14.201464 20113 net.cpp:411] conv4_10_3x3 -> conv4_10_3x3
I0118 17:37:14.206235 20113 net.cpp:150] Setting up conv4_10_3x3
I0118 17:37:14.206248 20113 net.cpp:157] Top shape: 1 256 60 60 (921600)
I0118 17:37:14.206251 20113 net.cpp:165] Memory required for data: 1846659232
I0118 17:37:14.206257 20113 layer_factory.hpp:77] Creating layer conv4_10_3x3/bn
I0118 17:37:14.206265 20113 net.cpp:106] Creating Layer conv4_10_3x3/bn
I0118 17:37:14.206270 20113 net.cpp:454] conv4_10_3x3/bn <- conv4_10_3x3
I0118 17:37:14.206279 20113 net.cpp:397] conv4_10_3x3/bn -> conv4_10_3x3 (in-place)
I0118 17:37:14.206534 20113 net.cpp:150] Setting up conv4_10_3x3/bn
I0118 17:37:14.206542 20113 net.cpp:157] Top shape: 1 256 60 60 (921600)
I0118 17:37:14.206545 20113 net.cpp:165] Memory required for data: 1850345632
I0118 17:37:14.206552 20113 layer_factory.hpp:77] Creating layer conv4_10_3x3/relu
I0118 17:37:14.206558 20113 net.cpp:106] Creating Layer conv4_10_3x3/relu
I0118 17:37:14.206562 20113 net.cpp:454] conv4_10_3x3/relu <- conv4_10_3x3
I0118 17:37:14.206568 20113 net.cpp:397] conv4_10_3x3/relu -> conv4_10_3x3 (in-place)
I0118 17:37:14.206742 20113 net.cpp:150] Setting up conv4_10_3x3/relu
I0118 17:37:14.206749 20113 net.cpp:157] Top shape: 1 256 60 60 (921600)
I0118 17:37:14.206753 20113 net.cpp:165] Memory required for data: 1854032032
I0118 17:37:14.206758 20113 layer_factory.hpp:77] Creating layer conv4_10_1x1_increase
I0118 17:37:14.206765 20113 net.cpp:106] Creating Layer conv4_10_1x1_increase
I0118 17:37:14.206769 20113 net.cpp:454] conv4_10_1x1_increase <- conv4_10_3x3
I0118 17:37:14.206775 20113 net.cpp:411] conv4_10_1x1_increase -> conv4_10_1x1_increase
I0118 17:37:14.212066 20113 net.cpp:150] Setting up conv4_10_1x1_increase
I0118 17:37:14.212085 20113 net.cpp:157] Top shape: 1 1024 60 60 (3686400)
I0118 17:37:14.212090 20113 net.cpp:165] Memory required for data: 1868777632
I0118 17:37:14.212097 20113 layer_factory.hpp:77] Creating layer conv4_10_1x1_increase/bn
I0118 17:37:14.212112 20113 net.cpp:106] Creating Layer conv4_10_1x1_increase/bn
I0118 17:37:14.212118 20113 net.cpp:454] conv4_10_1x1_increase/bn <- conv4_10_1x1_increase
I0118 17:37:14.212126 20113 net.cpp:397] conv4_10_1x1_increase/bn -> conv4_10_1x1_increase (in-place)
I0118 17:37:14.212476 20113 net.cpp:150] Setting up conv4_10_1x1_increase/bn
I0118 17:37:14.212486 20113 net.cpp:157] Top shape: 1 1024 60 60 (3686400)
I0118 17:37:14.212489 20113 net.cpp:165] Memory required for data: 1883523232
I0118 17:37:14.212497 20113 layer_factory.hpp:77] Creating layer conv4_10
I0118 17:37:14.212505 20113 net.cpp:106] Creating Layer conv4_10
I0118 17:37:14.212512 20113 net.cpp:454] conv4_10 <- conv4_9_conv4_9/relu_0_split_1
I0118 17:37:14.212517 20113 net.cpp:454] conv4_10 <- conv4_10_1x1_increase
I0118 17:37:14.212522 20113 net.cpp:411] conv4_10 -> conv4_10
I0118 17:37:14.212558 20113 net.cpp:150] Setting up conv4_10
I0118 17:37:14.212566 20113 net.cpp:157] Top shape: 1 1024 60 60 (3686400)
I0118 17:37:14.212569 20113 net.cpp:165] Memory required for data: 1898268832
I0118 17:37:14.212574 20113 layer_factory.hpp:77] Creating layer conv4_10/relu
I0118 17:37:14.212591 20113 net.cpp:106] Creating Layer conv4_10/relu
I0118 17:37:14.212596 20113 net.cpp:454] conv4_10/relu <- conv4_10
I0118 17:37:14.212604 20113 net.cpp:397] conv4_10/relu -> conv4_10 (in-place)
I0118 17:37:14.213994 20113 net.cpp:150] Setting up conv4_10/relu
I0118 17:37:14.214002 20113 net.cpp:157] Top shape: 1 1024 60 60 (3686400)
I0118 17:37:14.214007 20113 net.cpp:165] Memory required for data: 1913014432
I0118 17:37:14.214010 20113 layer_factory.hpp:77] Creating layer conv4_10_conv4_10/relu_0_split
I0118 17:37:14.214016 20113 net.cpp:106] Creating Layer conv4_10_conv4_10/relu_0_split
I0118 17:37:14.214020 20113 net.cpp:454] conv4_10_conv4_10/relu_0_split <- conv4_10
I0118 17:37:14.214030 20113 net.cpp:411] conv4_10_conv4_10/relu_0_split -> conv4_10_conv4_10/relu_0_split_0
I0118 17:37:14.214036 20113 net.cpp:411] conv4_10_conv4_10/relu_0_split -> conv4_10_conv4_10/relu_0_split_1
I0118 17:37:14.214098 20113 net.cpp:150] Setting up conv4_10_conv4_10/relu_0_split
I0118 17:37:14.214105 20113 net.cpp:157] Top shape: 1 1024 60 60 (3686400)
I0118 17:37:14.214110 20113 net.cpp:157] Top shape: 1 1024 60 60 (3686400)
I0118 17:37:14.214113 20113 net.cpp:165] Memory required for data: 1942505632
I0118 17:37:14.214118 20113 layer_factory.hpp:77] Creating layer conv4_11_1x1_reduce
I0118 17:37:14.214128 20113 net.cpp:106] Creating Layer conv4_11_1x1_reduce
I0118 17:37:14.214133 20113 net.cpp:454] conv4_11_1x1_reduce <- conv4_10_conv4_10/relu_0_split_0
I0118 17:37:14.214140 20113 net.cpp:411] conv4_11_1x1_reduce -> conv4_11_1x1_reduce
I0118 17:37:14.217351 20113 net.cpp:150] Setting up conv4_11_1x1_reduce
I0118 17:37:14.217362 20113 net.cpp:157] Top shape: 1 256 60 60 (921600)
I0118 17:37:14.217366 20113 net.cpp:165] Memory required for data: 1946192032
I0118 17:37:14.217372 20113 layer_factory.hpp:77] Creating layer conv4_11_1x1_reduce/bn
I0118 17:37:14.217381 20113 net.cpp:106] Creating Layer conv4_11_1x1_reduce/bn
I0118 17:37:14.217386 20113 net.cpp:454] conv4_11_1x1_reduce/bn <- conv4_11_1x1_reduce
I0118 17:37:14.217394 20113 net.cpp:397] conv4_11_1x1_reduce/bn -> conv4_11_1x1_reduce (in-place)
I0118 17:37:14.217751 20113 net.cpp:150] Setting up conv4_11_1x1_reduce/bn
I0118 17:37:14.217758 20113 net.cpp:157] Top shape: 1 256 60 60 (921600)
I0118 17:37:14.217762 20113 net.cpp:165] Memory required for data: 1949878432
I0118 17:37:14.217770 20113 layer_factory.hpp:77] Creating layer conv4_11_1x1_reduce/relu
I0118 17:37:14.217778 20113 net.cpp:106] Creating Layer conv4_11_1x1_reduce/relu
I0118 17:37:14.217782 20113 net.cpp:454] conv4_11_1x1_reduce/relu <- conv4_11_1x1_reduce
I0118 17:37:14.217787 20113 net.cpp:397] conv4_11_1x1_reduce/relu -> conv4_11_1x1_reduce (in-place)
I0118 17:37:14.218129 20113 net.cpp:150] Setting up conv4_11_1x1_reduce/relu
I0118 17:37:14.218138 20113 net.cpp:157] Top shape: 1 256 60 60 (921600)
I0118 17:37:14.218142 20113 net.cpp:165] Memory required for data: 1953564832
I0118 17:37:14.218147 20113 layer_factory.hpp:77] Creating layer conv4_11_3x3
I0118 17:37:14.218156 20113 net.cpp:106] Creating Layer conv4_11_3x3
I0118 17:37:14.218160 20113 net.cpp:454] conv4_11_3x3 <- conv4_11_1x1_reduce
I0118 17:37:14.218168 20113 net.cpp:411] conv4_11_3x3 -> conv4_11_3x3
I0118 17:37:14.223027 20113 net.cpp:150] Setting up conv4_11_3x3
I0118 17:37:14.223038 20113 net.cpp:157] Top shape: 1 256 60 60 (921600)
I0118 17:37:14.223042 20113 net.cpp:165] Memory required for data: 1957251232
I0118 17:37:14.223048 20113 layer_factory.hpp:77] Creating layer conv4_11_3x3/bn
I0118 17:37:14.223057 20113 net.cpp:106] Creating Layer conv4_11_3x3/bn
I0118 17:37:14.223062 20113 net.cpp:454] conv4_11_3x3/bn <- conv4_11_3x3
I0118 17:37:14.223068 20113 net.cpp:397] conv4_11_3x3/bn -> conv4_11_3x3 (in-place)
I0118 17:37:14.223426 20113 net.cpp:150] Setting up conv4_11_3x3/bn
…
I0118 17:37:14.370785 20113 layer_factory.hpp:77] Creating layer conv4_22_1x1_reduce/relu
I0118 17:37:14.370791 20113 net.cpp:106] Creating Layer conv4_22_1x1_reduce/relu
I0118 17:37:14.370796 20113 net.cpp:454] conv4_22_1x1_reduce/relu <- conv4_22_1x1_reduce
I0118 17:37:14.370803 20113 net.cpp:397] conv4_22_1x1_reduce/relu -> conv4_22_1x1_reduce (in-place)
I0118 17:37:14.371098 20113 net.cpp:150] Setting up conv4_22_1x1_reduce/relu
I0118 17:37:14.371107 20113 net.cpp:157] Top shape: 1 256 60 60 (921600)
I0118 17:37:14.371111 20113 net.cpp:165] Memory required for data: 3170076832
I0118 17:37:14.371116 20113 layer_factory.hpp:77] Creating layer conv4_22_3x3
I0118 17:37:14.371124 20113 net.cpp:106] Creating Layer conv4_22_3x3
I0118 17:37:14.371129 20113 net.cpp:454] conv4_22_3x3 <- conv4_22_1x1_reduce
I0118 17:37:14.371137 20113 net.cpp:411] conv4_22_3x3 -> conv4_22_3x3
I0118 17:37:14.375772 20113 net.cpp:150] Setting up conv4_22_3x3
I0118 17:37:14.375782 20113 net.cpp:157] Top shape: 1 256 60 60 (921600)
I0118 17:37:14.375784 20113 net.cpp:165] Memory required for data: 3173763232
I0118 17:37:14.375804 20113 layer_factory.hpp:77] Creating layer conv4_22_3x3/bn
I0118 17:37:14.375813 20113 net.cpp:106] Creating Layer conv4_22_3x3/bn
I0118 17:37:14.375818 20113 net.cpp:454] conv4_22_3x3/bn <- conv4_22_3x3
I0118 17:37:14.375825 20113 net.cpp:397] conv4_22_3x3/bn -> conv4_22_3x3 (in-place)
I0118 17:37:14.376016 20113 net.cpp:150] Setting up conv4_22_3x3/bn
I0118 17:37:14.376024 20113 net.cpp:157] Top shape: 1 256 60 60 (921600)
I0118 17:37:14.376051 20113 net.cpp:165] Memory required for data: 3177449632
I0118 17:37:14.376060 20113 layer_factory.hpp:77] Creating layer conv4_22_3x3/relu
I0118 17:37:14.376066 20113 net.cpp:106] Creating Layer conv4_22_3x3/relu
I0118 17:37:14.376071 20113 net.cpp:454] conv4_22_3x3/relu <- conv4_22_3x3
I0118 17:37:14.376076 20113 net.cpp:397] conv4_22_3x3/relu -> conv4_22_3x3 (in-place)
I0118 17:37:14.376255 20113 net.cpp:150] Setting up conv4_22_3x3/relu
I0118 17:37:14.376262 20113 net.cpp:157] Top shape: 1 256 60 60 (921600)
I0118 17:37:14.376266 20113 net.cpp:165] Memory required for data: 3181136032
I0118 17:37:14.376269 20113 layer_factory.hpp:77] Creating layer conv4_22_1x1_increase
I0118 17:37:14.376279 20113 net.cpp:106] Creating Layer conv4_22_1x1_increase
I0118 17:37:14.376283 20113 net.cpp:454] conv4_22_1x1_increase <- conv4_22_3x3
I0118 17:37:14.376292 20113 net.cpp:411] conv4_22_1x1_increase -> conv4_22_1x1_increase
I0118 17:37:14.379318 20113 net.cpp:150] Setting up conv4_22_1x1_increase
I0118 17:37:14.379329 20113 net.cpp:157] Top shape: 1 1024 60 60 (3686400)
I0118 17:37:14.379333 20113 net.cpp:165] Memory required for data: 3195881632
I0118 17:37:14.379339 20113 layer_factory.hpp:77] Creating layer conv4_22_1x1_increase/bn
I0118 17:37:14.379349 20113 net.cpp:106] Creating Layer conv4_22_1x1_increase/bn
I0118 17:37:14.379354 20113 net.cpp:454] conv4_22_1x1_increase/bn <- conv4_22_1x1_increase
I0118 17:37:14.379362 20113 net.cpp:397] conv4_22_1x1_increase/bn -> conv4_22_1x1_increase (in-place)
I0118 17:37:14.379576 20113 net.cpp:150] Setting up conv4_22_1x1_increase/bn
I0118 17:37:14.379583 20113 net.cpp:157] Top shape: 1 1024 60 60 (3686400)
I0118 17:37:14.379587 20113 net.cpp:165] Memory required for data: 3210627232
I0118 17:37:14.379595 20113 layer_factory.hpp:77] Creating layer conv4_22
I0118 17:37:14.379604 20113 net.cpp:106] Creating Layer conv4_22
I0118 17:37:14.379609 20113 net.cpp:454] conv4_22 <- conv4_21_conv4_21/relu_0_split_1
I0118 17:37:14.379614 20113 net.cpp:454] conv4_22 <- conv4_22_1x1_increase
I0118 17:37:14.379621 20113 net.cpp:411] conv4_22 -> conv4_22
I0118 17:37:14.379645 20113 net.cpp:150] Setting up conv4_22
I0118 17:37:14.379652 20113 net.cpp:157] Top shape: 1 1024 60 60 (3686400)
I0118 17:37:14.379654 20113 net.cpp:165] Memory required for data: 3225372832
I0118 17:37:14.379657 20113 layer_factory.hpp:77] Creating layer conv4_22/relu
I0118 17:37:14.379663 20113 net.cpp:106] Creating Layer conv4_22/relu
I0118 17:37:14.379667 20113 net.cpp:454] conv4_22/relu <- conv4_22
I0118 17:37:14.379674 20113 net.cpp:397] conv4_22/relu -> conv4_22 (in-place)
I0118 17:37:14.379968 20113 net.cpp:150] Setting up conv4_22/relu
I0118 17:37:14.379978 20113 net.cpp:157] Top shape: 1 1024 60 60 (3686400)
I0118 17:37:14.379981 20113 net.cpp:165] Memory required for data: 3240118432
I0118 17:37:14.379986 20113 layer_factory.hpp:77] Creating layer conv4_22_conv4_22/relu_0_split
I0118 17:37:14.379992 20113 net.cpp:106] Creating Layer conv4_22_conv4_22/relu_0_split
I0118 17:37:14.379997 20113 net.cpp:454] conv4_22_conv4_22/relu_0_split <- conv4_22
I0118 17:37:14.380004 20113 net.cpp:411] conv4_22_conv4_22/relu_0_split -> conv4_22_conv4_22/relu_0_split_0
I0118 17:37:14.380012 20113 net.cpp:411] conv4_22_conv4_22/relu_0_split -> conv4_22_conv4_22/relu_0_split_1
I0118 17:37:14.380053 20113 net.cpp:150] Setting up conv4_22_conv4_22/relu_0_split
I0118 17:37:14.380059 20113 net.cpp:157] Top shape: 1 1024 60 60 (3686400)
I0118 17:37:14.380064 20113 net.cpp:157] Top shape: 1 1024 60 60 (3686400)
I0118 17:37:14.380066 20113 net.cpp:165] Memory required for data: 3269609632
I0118 17:37:14.380070 20113 layer_factory.hpp:77] Creating layer conv4_23_1x1_reduce
I0118 17:37:14.380080 20113 net.cpp:106] Creating Layer conv4_23_1x1_reduce
I0118 17:37:14.380084 20113 net.cpp:454] conv4_23_1x1_reduce <- conv4_22_conv4_22/relu_0_split_0
I0118 17:37:14.380092 20113 net.cpp:411] conv4_23_1x1_reduce -> conv4_23_1x1_reduce
I0118 17:37:14.383679 20113 net.cpp:150] Setting up conv4_23_1x1_reduce
I0118 17:37:14.383693 20113 net.cpp:157] Top shape: 1 256 60 60 (921600)
I0118 17:37:14.383710 20113 net.cpp:165] Memory required for data: 3273296032
I0118 17:37:14.383718 20113 layer_factory.hpp:77] Creating layer conv4_23_1x1_reduce/bn
I0118 17:37:14.383729 20113 net.cpp:106] Creating Layer conv4_23_1x1_reduce/bn
I0118 17:37:14.383735 20113 net.cpp:454] conv4_23_1x1_reduce/bn <- conv4_23_1x1_reduce
I0118 17:37:14.383744 20113 net.cpp:397] conv4_23_1x1_reduce/bn -> conv4_23_1x1_reduce (in-place)
I0118 17:37:14.383929 20113 net.cpp:150] Setting up conv4_23_1x1_reduce/bn
I0118 17:37:14.383935 20113 net.cpp:157] Top shape: 1 256 60 60 (921600)
I0118 17:37:14.383940 20113 net.cpp:165] Memory required for data: 3276982432
I0118 17:37:14.383947 20113 layer_factory.hpp:77] Creating layer conv4_23_1x1_reduce/relu
I0118 17:37:14.383955 20113 net.cpp:106] Creating Layer conv4_23_1x1_reduce/relu
I0118 17:37:14.383958 20113 net.cpp:454] conv4_23_1x1_reduce/relu <- conv4_23_1x1_reduce
I0118 17:37:14.383965 20113 net.cpp:397] conv4_23_1x1_reduce/relu -> conv4_23_1x1_reduce (in-place)
I0118 17:37:14.384130 20113 net.cpp:150] Setting up conv4_23_1x1_reduce/relu
I0118 17:37:14.384137 20113 net.cpp:157] Top shape: 1 256 60 60 (921600)
I0118 17:37:14.384141 20113 net.cpp:165] Memory required for data: 3280668832
I0118 17:37:14.384145 20113 layer_factory.hpp:77] Creating layer conv4_23_3x3
I0118 17:37:14.384155 20113 net.cpp:106] Creating Layer conv4_23_3x3
I0118 17:37:14.384160 20113 net.cpp:454] conv4_23_3x3 <- conv4_23_1x1_reduce
I0118 17:37:14.384167 20113 net.cpp:411] conv4_23_3x3 -> conv4_23_3x3
I0118 17:37:14.388947 20113 net.cpp:150] Setting up conv4_23_3x3
I0118 17:37:14.388960 20113 net.cpp:157] Top shape: 1 256 60 60 (921600)
I0118 17:37:14.388963 20113 net.cpp:165] Memory required for data: 3284355232
I0118 17:37:14.388969 20113 layer_factory.hpp:77] Creating layer conv4_23_3x3/bn
I0118 17:37:14.388980 20113 net.cpp:106] Creating Layer conv4_23_3x3/bn
I0118 17:37:14.388986 20113 net.cpp:454] conv4_23_3x3/bn <- conv4_23_3x3
I0118 17:37:14.388993 20113 net.cpp:397] conv4_23_3x3/bn -> conv4_23_3x3 (in-place)
I0118 17:37:14.389178 20113 net.cpp:150] Setting up conv4_23_3x3/bn
I0118 17:37:14.389184 20113 net.cpp:157] Top shape: 1 256 60 60 (921600)
I0118 17:37:14.389187 20113 net.cpp:165] Memory required for data: 3288041632
I0118 17:37:14.389195 20113 layer_factory.hpp:77] Creating layer conv4_23_3x3/relu
I0118 17:37:14.389202 20113 net.cpp:106] Creating Layer conv4_23_3x3/relu
I0118 17:37:14.389207 20113 net.cpp:454] conv4_23_3x3/relu <- conv4_23_3x3
I0118 17:37:14.389214 20113 net.cpp:397] conv4_23_3x3/relu -> conv4_23_3x3 (in-place)
I0118 17:37:14.389583 20113 net.cpp:150] Setting up conv4_23_3x3/relu
I0118 17:37:14.389592 20113 net.cpp:157] Top shape: 1 256 60 60 (921600)
I0118 17:37:14.389596 20113 net.cpp:165] Memory required for data: 3291728032
I0118 17:37:14.389600 20113 layer_factory.hpp:77] Creating layer conv4_23_1x1_increase
I0118 17:37:14.389611 20113 net.cpp:106] Creating Layer conv4_23_1x1_increase
I0118 17:37:14.389614 20113 net.cpp:454] conv4_23_1x1_increase <- conv4_23_3x3
I0118 17:37:14.389623 20113 net.cpp:411] conv4_23_1x1_increase -> conv4_23_1x1_increase
I0118 17:37:14.392673 20113 net.cpp:150] Setting up conv4_23_1x1_increase
I0118 17:37:14.392683 20113 net.cpp:157] Top shape: 1 1024 60 60 (3686400)
I0118 17:37:14.392688 20113 net.cpp:165] Memory required for data: 3306473632
I0118 17:37:14.392693 20113 layer_factory.hpp:77] Creating layer conv4_23_1x1_increase/bn
I0118 17:37:14.392702 20113 net.cpp:106] Creating Layer conv4_23_1x1_increase/bn
I0118 17:37:14.392707 20113 net.cpp:454] conv4_23_1x1_increase/bn <- conv4_23_1x1_increase
I0118 17:37:14.392715 20113 net.cpp:397] conv4_23_1x1_increase/bn -> conv4_23_1x1_increase (in-place)
I0118 17:37:14.392937 20113 net.cpp:150] Setting up conv4_23_1x1_increase/bn
I0118 17:37:14.392944 20113 net.cpp:157] Top shape: 1 1024 60 60 (3686400)
I0118 17:37:14.392948 20113 net.cpp:165] Memory required for data: 3321219232
I0118 17:37:14.392956 20113 layer_factory.hpp:77] Creating layer conv4_23
I0118 17:37:14.392971 20113 net.cpp:106] Creating Layer conv4_23
I0118 17:37:14.392977 20113 net.cpp:454] conv4_23 <- conv4_22_conv4_22/relu_0_split_1
I0118 17:37:14.392982 20113 net.cpp:454] conv4_23 <- conv4_23_1x1_increase
I0118 17:37:14.392990 20113 net.cpp:411] conv4_23 -> conv4_23
I0118 17:37:14.393015 20113 net.cpp:150] Setting up conv4_23
I0118 17:37:14.393021 20113 net.cpp:157] Top shape: 1 1024 60 60 (3686400)
I0118 17:37:14.393025 20113 net.cpp:165] Memory required for data: 3335964832
I0118 17:37:14.393028 20113 layer_factory.hpp:77] Creating layer conv4_23/relu
I0118 17:37:14.393034 20113 net.cpp:106] Creating Layer conv4_23/relu
I0118 17:37:14.393038 20113 net.cpp:454] conv4_23/relu <- conv4_23
I0118 17:37:14.393043 20113 net.cpp:397] conv4_23/relu -> conv4_23 (in-place)
I0118 17:37:14.393332 20113 net.cpp:150] Setting up conv4_23/relu
I0118 17:37:14.393342 20113 net.cpp:157] Top shape: 1 1024 60 60 (3686400)
I0118 17:37:14.393345 20113 net.cpp:165] Memory required for data: 3350710432
I0118 17:37:14.393349 20113 layer_factory.hpp:77] Creating layer conv4_23_conv4_23/relu_0_split
I0118 17:37:14.393357 20113 net.cpp:106] Creating Layer conv4_23_conv4_23/relu_0_split
I0118 17:37:14.393362 20113 net.cpp:454] conv4_23_conv4_23/relu_0_split <- conv4_23
I0118 17:37:14.393368 20113 net.cpp:411] conv4_23_conv4_23/relu_0_split -> conv4_23_conv4_23/relu_0_split_0
I0118 17:37:14.393378 20113 net.cpp:411] conv4_23_conv4_23/relu_0_split -> conv4_23_conv4_23/relu_0_split_1
I0118 17:37:14.393385 20113 net.cpp:411] conv4_23_conv4_23/relu_0_split -> conv4_23_conv4_23/relu_0_split_2
I0118 17:37:14.393436 20113 net.cpp:150] Setting up conv4_23_conv4_23/relu_0_split
I0118 17:37:14.393445 20113 net.cpp:157] Top shape: 1 1024 60 60 (3686400)
I0118 17:37:14.393450 20113 net.cpp:157] Top shape: 1 1024 60 60 (3686400)
I0118 17:37:14.393455 20113 net.cpp:157] Top shape: 1 1024 60 60 (3686400)
I0118 17:37:14.393460 20113 net.cpp:165] Memory required for data: 3394947232
I0118 17:37:14.393462 20113 layer_factory.hpp:77] Creating layer conv4_23/dropout
I0118 17:37:14.393470 20113 net.cpp:106] Creating Layer conv4_23/dropout
I0118 17:37:14.393474 20113 net.cpp:454] conv4_23/dropout <- conv4_23_conv4_23/relu_0_split_0
I0118 17:37:14.393482 20113 net.cpp:411] conv4_23/dropout -> conv4_23_dropout
I0118 17:37:14.393522 20113 net.cpp:150] Setting up conv4_23/dropout
I0118 17:37:14.393528 20113 net.cpp:157] Top shape: 1 1024 60 60 (3686400)
I0118 17:37:14.393532 20113 net.cpp:165] Memory required for data: 3409692832
I0118 17:37:14.393535 20113 layer_factory.hpp:77] Creating layer conv4_23_dropout_conv_new
I0118 17:37:14.393545 20113 net.cpp:106] Creating Layer conv4_23_dropout_conv_new
I0118 17:37:14.393550 20113 net.cpp:454] conv4_23_dropout_conv_new <- conv4_23_dropout
I0118 17:37:14.393556 20113 net.cpp:411] conv4_23_dropout_conv_new -> conv4_23_dropout_conv
I0118 17:37:14.394656 20113 net.cpp:150] Setting up conv4_23_dropout_conv_new
I0118 17:37:14.394665 20113 net.cpp:157] Top shape: 1 19 60 60 (68400)
I0118 17:37:14.394670 20113 net.cpp:165] Memory required for data: 3409966432
I0118 17:37:14.394675 20113 layer_factory.hpp:77] Creating layer conv4_23_dropout_conv_interp
I0118 17:37:14.394686 20113 net.cpp:106] Creating Layer conv4_23_dropout_conv_interp
I0118 17:37:14.394691 20113 net.cpp:454] conv4_23_dropout_conv_interp <- conv4_23_dropout_conv
I0118 17:37:14.394698 20113 net.cpp:411] conv4_23_dropout_conv_interp -> conv4_23_dropout_conv_interp
I0118 17:37:14.394726 20113 net.cpp:150] Setting up conv4_23_dropout_conv_interp
I0118 17:37:14.394733 20113 net.cpp:157] Top shape: 1 19 473 473 (4250851)
I0118 17:37:14.394737 20113 net.cpp:165] Memory required for data: 3426969836
I0118 17:37:14.394739 20113 layer_factory.hpp:77] Creating layer loss_auxiliary
I0118 17:37:14.394748 20113 net.cpp:106] Creating Layer loss_auxiliary
I0118 17:37:14.394753 20113 net.cpp:454] loss_auxiliary <- conv4_23_dropout_conv_interp
I0118 17:37:14.394757 20113 net.cpp:454] loss_auxiliary <- label_data_1_split_0
I0118 17:37:14.394765 20113 net.cpp:411] loss_auxiliary -> loss_auxiliary
I0118 17:37:14.394783 20113 layer_factory.hpp:77] Creating layer loss_auxiliary
I0118 17:37:14.399924 20113 net.cpp:150] Setting up loss_auxiliary
I0118 17:37:14.399950 20113 net.cpp:157] Top shape: (1)
I0118 17:37:14.399952 20113 net.cpp:160]     with loss weight 0.4
I0118 17:37:14.399973 20113 net.cpp:165] Memory required for data: 3426969840
I0118 17:37:14.399979 20113 layer_factory.hpp:77] Creating layer conv5_1_1x1_reduce
I0118 17:37:14.399996 20113 net.cpp:106] Creating Layer conv5_1_1x1_reduce
I0118 17:37:14.400002 20113 net.cpp:454] conv5_1_1x1_reduce <- conv4_23_conv4_23/relu_0_split_1
I0118 17:37:14.400014 20113 net.cpp:411] conv5_1_1x1_reduce -> conv5_1_1x1_reduce
I0118 17:37:14.405155 20113 net.cpp:150] Setting up conv5_1_1x1_reduce
I0118 17:37:14.405169 20113 net.cpp:157] Top shape: 1 512 60 60 (1843200)
I0118 17:37:14.405174 20113 net.cpp:165] Memory required for data: 3434342640
I0118 17:37:14.405194 20113 layer_factory.hpp:77] Creating layer conv5_1_1x1_reduce/bn
I0118 17:37:14.405217 20113 net.cpp:106] Creating Layer conv5_1_1x1_reduce/bn
I0118 17:37:14.405222 20113 net.cpp:454] conv5_1_1x1_reduce/bn <- conv5_1_1x1_reduce
I0118 17:37:14.405231 20113 net.cpp:397] conv5_1_1x1_reduce/bn -> conv5_1_1x1_reduce (in-place)
I0118 17:37:14.405462 20113 net.cpp:150] Setting up conv5_1_1x1_reduce/bn
I0118 17:37:14.405469 20113 net.cpp:157] Top shape: 1 512 60 60 (1843200)
I0118 17:37:14.405472 20113 net.cpp:165] Memory required for data: 3441715440
I0118 17:37:14.405480 20113 layer_factory.hpp:77] Creating layer conv5_1_1x1_reduce/relu
I0118 17:37:14.405488 20113 net.cpp:106] Creating Layer conv5_1_1x1_reduce/relu
I0118 17:37:14.405493 20113 net.cpp:454] conv5_1_1x1_reduce/relu <- conv5_1_1x1_reduce
I0118 17:37:14.405498 20113 net.cpp:397] conv5_1_1x1_reduce/relu -> conv5_1_1x1_reduce (in-place)
I0118 17:37:14.405809 20113 net.cpp:150] Setting up conv5_1_1x1_reduce/relu
I0118 17:37:14.405818 20113 net.cpp:157] Top shape: 1 512 60 60 (1843200)
I0118 17:37:14.405822 20113 net.cpp:165] Memory required for data: 3449088240
I0118 17:37:14.405840 20113 layer_factory.hpp:77] Creating layer conv5_1_3x3
I0118 17:37:14.405850 20113 net.cpp:106] Creating Layer conv5_1_3x3
I0118 17:37:14.405855 20113 net.cpp:454] conv5_1_3x3 <- conv5_1_1x1_reduce
I0118 17:37:14.405863 20113 net.cpp:411] conv5_1_3x3 -> conv5_1_3x3
I0118 17:37:14.425524 20113 net.cpp:150] Setting up conv5_1_3x3
I0118 17:37:14.425542 20113 net.cpp:157] Top shape: 1 512 60 60 (1843200)
I0118 17:37:14.425546 20113 net.cpp:165] Memory required for data: 3456461040
I0118 17:37:14.425554 20113 layer_factory.hpp:77] Creating layer conv5_1_3x3/bn
I0118 17:37:14.425565 20113 net.cpp:106] Creating Layer conv5_1_3x3/bn
I0118 17:37:14.425571 20113 net.cpp:454] conv5_1_3x3/bn <- conv5_1_3x3
I0118 17:37:14.425580 20113 net.cpp:397] conv5_1_3x3/bn -> conv5_1_3x3 (in-place)
I0118 17:37:14.425832 20113 net.cpp:150] Setting up conv5_1_3x3/bn
I0118 17:37:14.425839 20113 net.cpp:157] Top shape: 1 512 60 60 (1843200)
I0118 17:37:14.425843 20113 net.cpp:165] Memory required for data: 3463833840
I0118 17:37:14.425850 20113 layer_factory.hpp:77] Creating layer conv5_1_3x3/relu
I0118 17:37:14.425864 20113 net.cpp:106] Creating Layer conv5_1_3x3/relu
I0118 17:37:14.425869 20113 net.cpp:454] conv5_1_3x3/relu <- conv5_1_3x3
I0118 17:37:14.425874 20113 net.cpp:397] conv5_1_3x3/relu -> conv5_1_3x3 (in-place)
I0118 17:37:14.426097 20113 net.cpp:150] Setting up conv5_1_3x3/relu
I0118 17:37:14.426105 20113 net.cpp:157] Top shape: 1 512 60 60 (1843200)
I0118 17:37:14.426108 20113 net.cpp:165] Memory required for data: 3471206640
I0118 17:37:14.426111 20113 layer_factory.hpp:77] Creating layer conv5_1_1x1_increase
I0118 17:37:14.426123 20113 net.cpp:106] Creating Layer conv5_1_1x1_increase
I0118 17:37:14.426128 20113 net.cpp:454] conv5_1_1x1_increase <- conv5_1_3x3
I0118 17:37:14.426136 20113 net.cpp:411] conv5_1_1x1_increase -> conv5_1_1x1_increase
I0118 17:37:14.435171 20113 net.cpp:150] Setting up conv5_1_1x1_increase
I0118 17:37:14.435189 20113 net.cpp:157] Top shape: 1 2048 60 60 (7372800)
I0118 17:37:14.435207 20113 net.cpp:165] Memory required for data: 3500697840
I0118 17:37:14.435215 20113 layer_factory.hpp:77] Creating layer conv5_1_1x1_increase/bn
I0118 17:37:14.435230 20113 net.cpp:106] Creating Layer conv5_1_1x1_increase/bn
I0118 17:37:14.435235 20113 net.cpp:454] conv5_1_1x1_increase/bn <- conv5_1_1x1_increase
I0118 17:37:14.435243 20113 net.cpp:397] conv5_1_1x1_increase/bn -> conv5_1_1x1_increase (in-place)
I0118 17:37:14.435437 20113 net.cpp:150] Setting up conv5_1_1x1_increase/bn
I0118 17:37:14.435443 20113 net.cpp:157] Top shape: 1 2048 60 60 (7372800)
I0118 17:37:14.435446 20113 net.cpp:165] Memory required for data: 3530189040
I0118 17:37:14.435456 20113 layer_factory.hpp:77] Creating layer conv5_1_1x1_proj
I0118 17:37:14.435467 20113 net.cpp:106] Creating Layer conv5_1_1x1_proj
I0118 17:37:14.435472 20113 net.cpp:454] conv5_1_1x1_proj <- conv4_23_conv4_23/relu_0_split_2
I0118 17:37:14.435479 20113 net.cpp:411] conv5_1_1x1_proj -> conv5_1_1x1_proj
I0118 17:37:14.452636 20113 net.cpp:150] Setting up conv5_1_1x1_proj
I0118 17:37:14.452657 20113 net.cpp:157] Top shape: 1 2048 60 60 (7372800)
I0118 17:37:14.452661 20113 net.cpp:165] Memory required for data: 3559680240
I0118 17:37:14.452682 20113 layer_factory.hpp:77] Creating layer conv5_1_1x1_proj/bn
I0118 17:37:14.452697 20113 net.cpp:106] Creating Layer conv5_1_1x1_proj/bn
I0118 17:37:14.452704 20113 net.cpp:454] conv5_1_1x1_proj/bn <- conv5_1_1x1_proj
I0118 17:37:14.452713 20113 net.cpp:397] conv5_1_1x1_proj/bn -> conv5_1_1x1_proj (in-place)
I0118 17:37:14.452951 20113 net.cpp:150] Setting up conv5_1_1x1_proj/bn
I0118 17:37:14.452958 20113 net.cpp:157] Top shape: 1 2048 60 60 (7372800)
I0118 17:37:14.452961 20113 net.cpp:165] Memory required for data: 3589171440
I0118 17:37:14.452983 20113 layer_factory.hpp:77] Creating layer conv5_1
I0118 17:37:14.452993 20113 net.cpp:106] Creating Layer conv5_1
I0118 17:37:14.452998 20113 net.cpp:454] conv5_1 <- conv5_1_1x1_proj
I0118 17:37:14.453002 20113 net.cpp:454] conv5_1 <- conv5_1_1x1_increase
I0118 17:37:14.453008 20113 net.cpp:411] conv5_1 -> conv5_1
I0118 17:37:14.453032 20113 net.cpp:150] Setting up conv5_1
I0118 17:37:14.453038 20113 net.cpp:157] Top shape: 1 2048 60 60 (7372800)
I0118 17:37:14.453042 20113 net.cpp:165] Memory required for data: 3618662640
I0118 17:37:14.453045 20113 layer_factory.hpp:77] Creating layer conv5_1/relu
I0118 17:37:14.453050 20113 net.cpp:106] Creating Layer conv5_1/relu
I0118 17:37:14.453055 20113 net.cpp:454] conv5_1/relu <- conv5_1
I0118 17:37:14.453063 20113 net.cpp:397] conv5_1/relu -> conv5_1 (in-place)
I0118 17:37:14.453229 20113 net.cpp:150] Setting up conv5_1/relu
I0118 17:37:14.453238 20113 net.cpp:157] Top shape: 1 2048 60 60 (7372800)
I0118 17:37:14.453241 20113 net.cpp:165] Memory required for data: 3648153840
I0118 17:37:14.453245 20113 layer_factory.hpp:77] Creating layer conv5_1_conv5_1/relu_0_split
I0118 17:37:14.453251 20113 net.cpp:106] Creating Layer conv5_1_conv5_1/relu_0_split
I0118 17:37:14.453256 20113 net.cpp:454] conv5_1_conv5_1/relu_0_split <- conv5_1
I0118 17:37:14.453263 20113 net.cpp:411] conv5_1_conv5_1/relu_0_split -> conv5_1_conv5_1/relu_0_split_0
I0118 17:37:14.453271 20113 net.cpp:411] conv5_1_conv5_1/relu_0_split -> conv5_1_conv5_1/relu_0_split_1
I0118 17:37:14.453310 20113 net.cpp:150] Setting up conv5_1_conv5_1/relu_0_split
I0118 17:37:14.453317 20113 net.cpp:157] Top shape: 1 2048 60 60 (7372800)
I0118 17:37:14.453322 20113 net.cpp:157] Top shape: 1 2048 60 60 (7372800)
I0118 17:37:14.453325 20113 net.cpp:165] Memory required for data: 3707136240
I0118 17:37:14.453328 20113 layer_factory.hpp:77] Creating layer conv5_2_1x1_reduce
I0118 17:37:14.453338 20113 net.cpp:106] Creating Layer conv5_2_1x1_reduce
I0118 17:37:14.453343 20113 net.cpp:454] conv5_2_1x1_reduce <- conv5_1_conv5_1/relu_0_split_0
I0118 17:37:14.453351 20113 net.cpp:411] conv5_2_1x1_reduce -> conv5_2_1x1_reduce
I0118 17:37:14.462379 20113 net.cpp:150] Setting up conv5_2_1x1_reduce
I0118 17:37:14.462399 20113 net.cpp:157] Top shape: 1 512 60 60 (1843200)
I0118 17:37:14.462419 20113 net.cpp:165] Memory required for data: 3714509040
I0118 17:37:14.462426 20113 layer_factory.hpp:77] Creating layer conv5_2_1x1_reduce/bn
I0118 17:37:14.462438 20113 net.cpp:106] Creating Layer conv5_2_1x1_reduce/bn
I0118 17:37:14.462443 20113 net.cpp:454] conv5_2_1x1_reduce/bn <- conv5_2_1x1_reduce
I0118 17:37:14.462453 20113 net.cpp:397] conv5_2_1x1_reduce/bn -> conv5_2_1x1_reduce (in-place)
I0118 17:37:14.462689 20113 net.cpp:150] Setting up conv5_2_1x1_reduce/bn
I0118 17:37:14.462697 20113 net.cpp:157] Top shape: 1 512 60 60 (1843200)
I0118 17:37:14.462699 20113 net.cpp:165] Memory required for data: 3721881840
I0118 17:37:14.462708 20113 layer_factory.hpp:77] Creating layer conv5_2_1x1_reduce/relu
I0118 17:37:14.462716 20113 net.cpp:106] Creating Layer conv5_2_1x1_reduce/relu
I0118 17:37:14.462721 20113 net.cpp:454] conv5_2_1x1_reduce/relu <- conv5_2_1x1_reduce
I0118 17:37:14.462728 20113 net.cpp:397] conv5_2_1x1_reduce/relu -> conv5_2_1x1_reduce (in-place)
I0118 17:37:14.463047 20113 net.cpp:150] Setting up conv5_2_1x1_reduce/relu
I0118 17:37:14.463057 20113 net.cpp:157] Top shape: 1 512 60 60 (1843200)
I0118 17:37:14.463060 20113 net.cpp:165] Memory required for data: 3729254640
I0118 17:37:14.463078 20113 layer_factory.hpp:77] Creating layer conv5_2_3x3
I0118 17:37:14.463089 20113 net.cpp:106] Creating Layer conv5_2_3x3
I0118 17:37:14.463093 20113 net.cpp:454] conv5_2_3x3 <- conv5_2_1x1_reduce
I0118 17:37:14.463101 20113 net.cpp:411] conv5_2_3x3 -> conv5_2_3x3
I0118 17:37:14.481029 20113 net.cpp:150] Setting up conv5_2_3x3
I0118 17:37:14.481050 20113 net.cpp:157] Top shape: 1 512 60 60 (1843200)
I0118 17:37:14.481052 20113 net.cpp:165] Memory required for data: 3736627440
I0118 17:37:14.481075 20113 layer_factory.hpp:77] Creating layer conv5_2_3x3/bn
I0118 17:37:14.481086 20113 net.cpp:106] Creating Layer conv5_2_3x3/bn
I0118 17:37:14.481093 20113 net.cpp:454] conv5_2_3x3/bn <- conv5_2_3x3
I0118 17:37:14.481115 20113 net.cpp:397] conv5_2_3x3/bn -> conv5_2_3x3 (in-place)
I0118 17:37:14.481403 20113 net.cpp:150] Setting up conv5_2_3x3/bn
I0118 17:37:14.481410 20113 net.cpp:157] Top shape: 1 512 60 60 (1843200)
I0118 17:37:14.481415 20113 net.cpp:165] Memory required for data: 3744000240
I0118 17:37:14.481436 20113 layer_factory.hpp:77] Creating layer conv5_2_3x3/relu
I0118 17:37:14.481443 20113 net.cpp:106] Creating Layer conv5_2_3x3/relu
I0118 17:37:14.481447 20113 net.cpp:454] conv5_2_3x3/relu <- conv5_2_3x3
I0118 17:37:14.481453 20113 net.cpp:397] conv5_2_3x3/relu -> conv5_2_3x3 (in-place)
I0118 17:37:14.481721 20113 net.cpp:150] Setting up conv5_2_3x3/relu
I0118 17:37:14.481729 20113 net.cpp:157] Top shape: 1 512 60 60 (1843200)
I0118 17:37:14.481731 20113 net.cpp:165] Memory required for data: 3751373040
I0118 17:37:14.481750 20113 layer_factory.hpp:77] Creating layer conv5_2_1x1_increase
I0118 17:37:14.481762 20113 net.cpp:106] Creating Layer conv5_2_1x1_increase
I0118 17:37:14.481767 20113 net.cpp:454] conv5_2_1x1_increase <- conv5_2_3x3
I0118 17:37:14.481773 20113 net.cpp:411] conv5_2_1x1_increase -> conv5_2_1x1_increase
I0118 17:37:14.490967 20113 net.cpp:150] Setting up conv5_2_1x1_increase
I0118 17:37:14.490999 20113 net.cpp:157] Top shape: 1 2048 60 60 (7372800)
I0118 17:37:14.491004 20113 net.cpp:165] Memory required for data: 3780864240
I0118 17:37:14.491075 20113 layer_factory.hpp:77] Creating layer conv5_2_1x1_increase/bn
I0118 17:37:14.491101 20113 net.cpp:106] Creating Layer conv5_2_1x1_increase/bn
I0118 17:37:14.491108 20113 net.cpp:454] conv5_2_1x1_increase/bn <- conv5_2_1x1_increase
I0118 17:37:14.491116 20113 net.cpp:397] conv5_2_1x1_increase/bn -> conv5_2_1x1_increase (in-place)
I0118 17:37:14.491363 20113 net.cpp:150] Setting up conv5_2_1x1_increase/bn
I0118 17:37:14.491369 20113 net.cpp:157] Top shape: 1 2048 60 60 (7372800)
I0118 17:37:14.491372 20113 net.cpp:165] Memory required for data: 3810355440
I0118 17:37:14.491394 20113 layer_factory.hpp:77] Creating layer conv5_2
I0118 17:37:14.491403 20113 net.cpp:106] Creating Layer conv5_2
I0118 17:37:14.491415 20113 net.cpp:454] conv5_2 <- conv5_1_conv5_1/relu_0_split_1
I0118 17:37:14.491433 20113 net.cpp:454] conv5_2 <- conv5_2_1x1_increase
I0118 17:37:14.491438 20113 net.cpp:411] conv5_2 -> conv5_2
I0118 17:37:14.491482 20113 net.cpp:150] Setting up conv5_2
I0118 17:37:14.491488 20113 net.cpp:157] Top shape: 1 2048 60 60 (7372800)
I0118 17:37:14.491492 20113 net.cpp:165] Memory required for data: 3839846640
I0118 17:37:14.491495 20113 layer_factory.hpp:77] Creating layer conv5_2/relu
I0118 17:37:14.491502 20113 net.cpp:106] Creating Layer conv5_2/relu
I0118 17:37:14.491508 20113 net.cpp:454] conv5_2/relu <- conv5_2
I0118 17:37:14.491513 20113 net.cpp:397] conv5_2/relu -> conv5_2 (in-place)
I0118 17:37:14.491816 20113 net.cpp:150] Setting up conv5_2/relu
I0118 17:37:14.491824 20113 net.cpp:157] Top shape: 1 2048 60 60 (7372800)
I0118 17:37:14.491829 20113 net.cpp:165] Memory required for data: 3869337840
I0118 17:37:14.491832 20113 layer_factory.hpp:77] Creating layer conv5_2_conv5_2/relu_0_split
I0118 17:37:14.491840 20113 net.cpp:106] Creating Layer conv5_2_conv5_2/relu_0_split
I0118 17:37:14.491845 20113 net.cpp:454] conv5_2_conv5_2/relu_0_split <- conv5_2
I0118 17:37:14.491853 20113 net.cpp:411] conv5_2_conv5_2/relu_0_split -> conv5_2_conv5_2/relu_0_split_0
I0118 17:37:14.491861 20113 net.cpp:411] conv5_2_conv5_2/relu_0_split -> conv5_2_conv5_2/relu_0_split_1
I0118 17:37:14.491901 20113 net.cpp:150] Setting up conv5_2_conv5_2/relu_0_split
I0118 17:37:14.491909 20113 net.cpp:157] Top shape: 1 2048 60 60 (7372800)
I0118 17:37:14.491914 20113 net.cpp:157] Top shape: 1 2048 60 60 (7372800)
I0118 17:37:14.491919 20113 net.cpp:165] Memory required for data: 3928320240
I0118 17:37:14.491921 20113 layer_factory.hpp:77] Creating layer conv5_3_1x1_reduce
I0118 17:37:14.491931 20113 net.cpp:106] Creating Layer conv5_3_1x1_reduce
I0118 17:37:14.491935 20113 net.cpp:454] conv5_3_1x1_reduce <- conv5_2_conv5_2/relu_0_split_0
I0118 17:37:14.491942 20113 net.cpp:411] conv5_3_1x1_reduce -> conv5_3_1x1_reduce
I0118 17:37:14.500792 20113 net.cpp:150] Setting up conv5_3_1x1_reduce
I0118 17:37:14.500810 20113 net.cpp:157] Top shape: 1 512 60 60 (1843200)
I0118 17:37:14.500814 20113 net.cpp:165] Memory required for data: 3935693040
I0118 17:37:14.500821 20113 layer_factory.hpp:77] Creating layer conv5_3_1x1_reduce/bn
I0118 17:37:14.500831 20113 net.cpp:106] Creating Layer conv5_3_1x1_reduce/bn
I0118 17:37:14.500838 20113 net.cpp:454] conv5_3_1x1_reduce/bn <- conv5_3_1x1_reduce
I0118 17:37:14.500847 20113 net.cpp:397] conv5_3_1x1_reduce/bn -> conv5_3_1x1_reduce (in-place)
I0118 17:37:14.501096 20113 net.cpp:150] Setting up conv5_3_1x1_reduce/bn
I0118 17:37:14.501102 20113 net.cpp:157] Top shape: 1 512 60 60 (1843200)
I0118 17:37:14.501106 20113 net.cpp:165] Memory required for data: 3943065840
I0118 17:37:14.501129 20113 layer_factory.hpp:77] Creating layer conv5_3_1x1_reduce/relu
I0118 17:37:14.501137 20113 net.cpp:106] Creating Layer conv5_3_1x1_reduce/relu
I0118 17:37:14.501140 20113 net.cpp:454] conv5_3_1x1_reduce/relu <- conv5_3_1x1_reduce
I0118 17:37:14.501145 20113 net.cpp:397] conv5_3_1x1_reduce/relu -> conv5_3_1x1_reduce (in-place)
I0118 17:37:14.501603 20113 net.cpp:150] Setting up conv5_3_1x1_reduce/relu
I0118 17:37:14.501612 20113 net.cpp:157] Top shape: 1 512 60 60 (1843200)
I0118 17:37:14.501616 20113 net.cpp:165] Memory required for data: 3950438640
I0118 17:37:14.501633 20113 layer_factory.hpp:77] Creating layer conv5_3_3x3
I0118 17:37:14.501646 20113 net.cpp:106] Creating Layer conv5_3_3x3
I0118 17:37:14.501651 20113 net.cpp:454] conv5_3_3x3 <- conv5_3_1x1_reduce
I0118 17:37:14.501657 20113 net.cpp:411] conv5_3_3x3 -> conv5_3_3x3
I0118 17:37:14.519590 20113 net.cpp:150] Setting up conv5_3_3x3
I0118 17:37:14.519610 20113 net.cpp:157] Top shape: 1 512 60 60 (1843200)
I0118 17:37:14.519614 20113 net.cpp:165] Memory required for data: 3957811440
I0118 17:37:14.519623 20113 layer_factory.hpp:77] Creating layer conv5_3_3x3/bn
I0118 17:37:14.519634 20113 net.cpp:106] Creating Layer conv5_3_3x3/bn
I0118 17:37:14.519654 20113 net.cpp:454] conv5_3_3x3/bn <- conv5_3_3x3
I0118 17:37:14.519683 20113 net.cpp:397] conv5_3_3x3/bn -> conv5_3_3x3 (in-place)
I0118 17:37:14.519951 20113 net.cpp:150] Setting up conv5_3_3x3/bn
I0118 17:37:14.519959 20113 net.cpp:157] Top shape: 1 512 60 60 (1843200)
I0118 17:37:14.519963 20113 net.cpp:165] Memory required for data: 3965184240
I0118 17:37:14.519971 20113 layer_factory.hpp:77] Creating layer conv5_3_3x3/relu
I0118 17:37:14.519978 20113 net.cpp:106] Creating Layer conv5_3_3x3/relu
I0118 17:37:14.519984 20113 net.cpp:454] conv5_3_3x3/relu <- conv5_3_3x3
I0118 17:37:14.519989 20113 net.cpp:397] conv5_3_3x3/relu -> conv5_3_3x3 (in-place)
I0118 17:37:14.520223 20113 net.cpp:150] Setting up conv5_3_3x3/relu
I0118 17:37:14.520231 20113 net.cpp:157] Top shape: 1 512 60 60 (1843200)
I0118 17:37:14.520233 20113 net.cpp:165] Memory required for data: 3972557040
I0118 17:37:14.520237 20113 layer_factory.hpp:77] Creating layer conv5_3_1x1_increase
I0118 17:37:14.520248 20113 net.cpp:106] Creating Layer conv5_3_1x1_increase
I0118 17:37:14.520253 20113 net.cpp:454] conv5_3_1x1_increase <- conv5_3_3x3
I0118 17:37:14.520261 20113 net.cpp:411] conv5_3_1x1_increase -> conv5_3_1x1_increase
I0118 17:37:14.531587 20113 net.cpp:150] Setting up conv5_3_1x1_increase
I0118 17:37:14.531605 20113 net.cpp:157] Top shape: 1 2048 60 60 (7372800)
I0118 17:37:14.531610 20113 net.cpp:165] Memory required for data: 4002048240
I0118 17:37:14.531630 20113 layer_factory.hpp:77] Creating layer conv5_3_1x1_increase/bn
I0118 17:37:14.531643 20113 net.cpp:106] Creating Layer conv5_3_1x1_increase/bn
I0118 17:37:14.531649 20113 net.cpp:454] conv5_3_1x1_increase/bn <- conv5_3_1x1_increase
I0118 17:37:14.531658 20113 net.cpp:397] conv5_3_1x1_increase/bn -> conv5_3_1x1_increase (in-place)
I0118 17:37:14.531903 20113 net.cpp:150] Setting up conv5_3_1x1_increase/bn
I0118 17:37:14.531910 20113 net.cpp:157] Top shape: 1 2048 60 60 (7372800)
I0118 17:37:14.531913 20113 net.cpp:165] Memory required for data: 4031539440
I0118 17:37:14.531935 20113 layer_factory.hpp:77] Creating layer conv5_3
I0118 17:37:14.531945 20113 net.cpp:106] Creating Layer conv5_3
I0118 17:37:14.531950 20113 net.cpp:454] conv5_3 <- conv5_2_conv5_2/relu_0_split_1
I0118 17:37:14.531955 20113 net.cpp:454] conv5_3 <- conv5_3_1x1_increase
I0118 17:37:14.531975 20113 net.cpp:411] conv5_3 -> conv5_3
I0118 17:37:14.532014 20113 net.cpp:150] Setting up conv5_3
I0118 17:37:14.532032 20113 net.cpp:157] Top shape: 1 2048 60 60 (7372800)
I0118 17:37:14.532037 20113 net.cpp:165] Memory required for data: 4061030640
I0118 17:37:14.532039 20113 layer_factory.hpp:77] Creating layer conv5_3/relu
I0118 17:37:14.532061 20113 net.cpp:106] Creating Layer conv5_3/relu
I0118 17:37:14.532066 20113 net.cpp:454] conv5_3/relu <- conv5_3
I0118 17:37:14.532071 20113 net.cpp:397] conv5_3/relu -> conv5_3 (in-place)
I0118 17:37:14.532407 20113 net.cpp:150] Setting up conv5_3/relu
I0118 17:37:14.532415 20113 net.cpp:157] Top shape: 1 2048 60 60 (7372800)
I0118 17:37:14.532419 20113 net.cpp:165] Memory required for data: 4090521840
I0118 17:37:14.532438 20113 layer_factory.hpp:77] Creating layer conv5_3_conv5_3/relu_0_split
I0118 17:37:14.532446 20113 net.cpp:106] Creating Layer conv5_3_conv5_3/relu_0_split
I0118 17:37:14.532451 20113 net.cpp:454] conv5_3_conv5_3/relu_0_split <- conv5_3
I0118 17:37:14.532459 20113 net.cpp:411] conv5_3_conv5_3/relu_0_split -> conv5_3_conv5_3/relu_0_split_0
I0118 17:37:14.532480 20113 net.cpp:411] conv5_3_conv5_3/relu_0_split -> conv5_3_conv5_3/relu_0_split_1
I0118 17:37:14.532500 20113 net.cpp:411] conv5_3_conv5_3/relu_0_split -> conv5_3_conv5_3/relu_0_split_2
I0118 17:37:14.532506 20113 net.cpp:411] conv5_3_conv5_3/relu_0_split -> conv5_3_conv5_3/relu_0_split_3
I0118 17:37:14.532513 20113 net.cpp:411] conv5_3_conv5_3/relu_0_split -> conv5_3_conv5_3/relu_0_split_4
I0118 17:37:14.532590 20113 net.cpp:150] Setting up conv5_3_conv5_3/relu_0_split
I0118 17:37:14.532596 20113 net.cpp:157] Top shape: 1 2048 60 60 (7372800)
I0118 17:37:14.532601 20113 net.cpp:157] Top shape: 1 2048 60 60 (7372800)
I0118 17:37:14.532614 20113 net.cpp:157] Top shape: 1 2048 60 60 (7372800)
I0118 17:37:14.532632 20113 net.cpp:157] Top shape: 1 2048 60 60 (7372800)
I0118 17:37:14.532637 20113 net.cpp:157] Top shape: 1 2048 60 60 (7372800)
I0118 17:37:14.532655 20113 net.cpp:165] Memory required for data: 4237977840
I0118 17:37:14.532658 20113 layer_factory.hpp:77] Creating layer conv5_3_pool1
I0118 17:37:14.532665 20113 net.cpp:106] Creating Layer conv5_3_pool1
I0118 17:37:14.532670 20113 net.cpp:454] conv5_3_pool1 <- conv5_3_conv5_3/relu_0_split_0
I0118 17:37:14.532675 20113 net.cpp:411] conv5_3_pool1 -> conv5_3_pool1
I0118 17:37:14.532861 20113 net.cpp:150] Setting up conv5_3_pool1
I0118 17:37:14.532868 20113 net.cpp:157] Top shape: 1 2048 1 1 (2048)
I0118 17:37:14.532871 20113 net.cpp:165] Memory required for data: 4237986032
I0118 17:37:14.532876 20113 layer_factory.hpp:77] Creating layer conv5_3_pool1_conv_re
I0118 17:37:14.532887 20113 net.cpp:106] Creating Layer conv5_3_pool1_conv_re
I0118 17:37:14.532891 20113 net.cpp:454] conv5_3_pool1_conv_re <- conv5_3_pool1
I0118 17:37:14.532898 20113 net.cpp:411] conv5_3_pool1_conv_re -> conv5_3_pool1_conv
I0118 17:37:14.541841 20113 net.cpp:150] Setting up conv5_3_pool1_conv_re
I0118 17:37:14.541859 20113 net.cpp:157] Top shape: 1 512 1 1 (512)
I0118 17:37:14.541863 20113 net.cpp:165] Memory required for data: 4237988080
I0118 17:37:14.541884 20113 layer_factory.hpp:77] Creating layer conv5_3_pool1_conv_re/bn
I0118 17:37:14.541895 20113 net.cpp:106] Creating Layer conv5_3_pool1_conv_re/bn
I0118 17:37:14.541901 20113 net.cpp:454] conv5_3_pool1_conv_re/bn <- conv5_3_pool1_conv
I0118 17:37:14.541910 20113 net.cpp:397] conv5_3_pool1_conv_re/bn -> conv5_3_pool1_conv (in-place)
I0118 17:37:14.542196 20113 net.cpp:150] Setting up conv5_3_pool1_conv_re/bn
I0118 17:37:14.542202 20113 net.cpp:157] Top shape: 1 512 1 1 (512)
I0118 17:37:14.542207 20113 net.cpp:165] Memory required for data: 4237990128
I0118 17:37:14.542230 20113 layer_factory.hpp:77] Creating layer conv5_3_pool1_conv_re/relu
I0118 17:37:14.542237 20113 net.cpp:106] Creating Layer conv5_3_pool1_conv_re/relu
I0118 17:37:14.542243 20113 net.cpp:454] conv5_3_pool1_conv_re/relu <- conv5_3_pool1_conv
I0118 17:37:14.542249 20113 net.cpp:397] conv5_3_pool1_conv_re/relu -> conv5_3_pool1_conv (in-place)
I0118 17:37:14.542556 20113 net.cpp:150] Setting up conv5_3_pool1_conv_re/relu
I0118 17:37:14.542564 20113 net.cpp:157] Top shape: 1 512 1 1 (512)
I0118 17:37:14.542567 20113 net.cpp:165] Memory required for data: 4237992176
I0118 17:37:14.542572 20113 layer_factory.hpp:77] Creating layer conv5_3_pool1_interp
I0118 17:37:14.542580 20113 net.cpp:106] Creating Layer conv5_3_pool1_interp
I0118 17:37:14.542585 20113 net.cpp:454] conv5_3_pool1_interp <- conv5_3_pool1_conv
I0118 17:37:14.542592 20113 net.cpp:411] conv5_3_pool1_interp -> conv5_3_pool1_interp
I0118 17:37:14.542623 20113 net.cpp:150] Setting up conv5_3_pool1_interp
I0118 17:37:14.542629 20113 net.cpp:157] Top shape: 1 512 60 60 (1843200)
I0118 17:37:14.542631 20113 net.cpp:165] Memory required for data: 4245364976
I0118 17:37:14.542635 20113 layer_factory.hpp:77] Creating layer conv5_3_pool2
I0118 17:37:14.542642 20113 net.cpp:106] Creating Layer conv5_3_pool2
I0118 17:37:14.542646 20113 net.cpp:454] conv5_3_pool2 <- conv5_3_conv5_3/relu_0_split_1
I0118 17:37:14.542654 20113 net.cpp:411] conv5_3_pool2 -> conv5_3_pool2
I0118 17:37:14.542832 20113 net.cpp:150] Setting up conv5_3_pool2
I0118 17:37:14.542840 20113 net.cpp:157] Top shape: 1 2048 2 2 (8192)
I0118 17:37:14.542845 20113 net.cpp:165] Memory required for data: 4245397744
I0118 17:37:14.542847 20113 layer_factory.hpp:77] Creating layer conv5_3_pool2_conv_re
I0118 17:37:14.542857 20113 net.cpp:106] Creating Layer conv5_3_pool2_conv_re
I0118 17:37:14.542862 20113 net.cpp:454] conv5_3_pool2_conv_re <- conv5_3_pool2
I0118 17:37:14.542870 20113 net.cpp:411] conv5_3_pool2_conv_re -> conv5_3_pool2_conv
I0118 17:37:14.551976 20113 net.cpp:150] Setting up conv5_3_pool2_conv_re
I0118 17:37:14.551996 20113 net.cpp:157] Top shape: 1 512 2 2 (2048)
I0118 17:37:14.552017 20113 net.cpp:165] Memory required for data: 4245405936
I0118 17:37:14.552026 20113 layer_factory.hpp:77] Creating layer conv5_3_pool2_conv_re/bn
I0118 17:37:14.552039 20113 net.cpp:106] Creating Layer conv5_3_pool2_conv_re/bn
I0118 17:37:14.552045 20113 net.cpp:454] conv5_3_pool2_conv_re/bn <- conv5_3_pool2_conv
I0118 17:37:14.552054 20113 net.cpp:397] conv5_3_pool2_conv_re/bn -> conv5_3_pool2_conv (in-place)
I0118 17:37:14.552321 20113 net.cpp:150] Setting up conv5_3_pool2_conv_re/bn
I0118 17:37:14.552328 20113 net.cpp:157] Top shape: 1 512 2 2 (2048)
I0118 17:37:14.552331 20113 net.cpp:165] Memory required for data: 4245414128
I0118 17:37:14.552340 20113 layer_factory.hpp:77] Creating layer conv5_3_pool2_conv_re/relu
I0118 17:37:14.552347 20113 net.cpp:106] Creating Layer conv5_3_pool2_conv_re/relu
I0118 17:37:14.552351 20113 net.cpp:454] conv5_3_pool2_conv_re/relu <- conv5_3_pool2_conv
I0118 17:37:14.552356 20113 net.cpp:397] conv5_3_pool2_conv_re/relu -> conv5_3_pool2_conv (in-place)
I0118 17:37:14.552528 20113 net.cpp:150] Setting up conv5_3_pool2_conv_re/relu
I0118 17:37:14.552536 20113 net.cpp:157] Top shape: 1 512 2 2 (2048)
I0118 17:37:14.552539 20113 net.cpp:165] Memory required for data: 4245422320
I0118 17:37:14.552543 20113 layer_factory.hpp:77] Creating layer conv5_3_pool2_interp
I0118 17:37:14.552551 20113 net.cpp:106] Creating Layer conv5_3_pool2_interp
I0118 17:37:14.552556 20113 net.cpp:454] conv5_3_pool2_interp <- conv5_3_pool2_conv
I0118 17:37:14.552563 20113 net.cpp:411] conv5_3_pool2_interp -> conv5_3_pool2_interp
I0118 17:37:14.552592 20113 net.cpp:150] Setting up conv5_3_pool2_interp
I0118 17:37:14.552597 20113 net.cpp:157] Top shape: 1 512 60 60 (1843200)
I0118 17:37:14.552601 20113 net.cpp:165] Memory required for data: 4252795120
I0118 17:37:14.552605 20113 layer_factory.hpp:77] Creating layer conv5_3_pool3
I0118 17:37:14.552613 20113 net.cpp:106] Creating Layer conv5_3_pool3
I0118 17:37:14.552618 20113 net.cpp:454] conv5_3_pool3 <- conv5_3_conv5_3/relu_0_split_2
I0118 17:37:14.552623 20113 net.cpp:411] conv5_3_pool3 -> conv5_3_pool3
I0118 17:37:14.552964 20113 net.cpp:150] Setting up conv5_3_pool3
I0118 17:37:14.552974 20113 net.cpp:157] Top shape: 1 2048 3 3 (18432)
I0118 17:37:14.552978 20113 net.cpp:165] Memory required for data: 4252868848
I0118 17:37:14.552981 20113 layer_factory.hpp:77] Creating layer conv5_3_pool3_conv_re
I0118 17:37:14.552991 20113 net.cpp:106] Creating Layer conv5_3_pool3_conv_re
I0118 17:37:14.552996 20113 net.cpp:454] conv5_3_pool3_conv_re <- conv5_3_pool3
I0118 17:37:14.553004 20113 net.cpp:411] conv5_3_pool3_conv_re -> conv5_3_pool3_conv
I0118 17:37:14.562101 20113 net.cpp:150] Setting up conv5_3_pool3_conv_re
I0118 17:37:14.562121 20113 net.cpp:157] Top shape: 1 512 3 3 (4608)
I0118 17:37:14.562125 20113 net.cpp:165] Memory required for data: 4252887280
I0118 17:37:14.562147 20113 layer_factory.hpp:77] Creating layer conv5_3_pool3_conv_re/bn
I0118 17:37:14.562160 20113 net.cpp:106] Creating Layer conv5_3_pool3_conv_re/bn
I0118 17:37:14.562167 20113 net.cpp:454] conv5_3_pool3_conv_re/bn <- conv5_3_pool3_conv
I0118 17:37:14.562177 20113 net.cpp:397] conv5_3_pool3_conv_re/bn -> conv5_3_pool3_conv (in-place)
I0118 17:37:14.562428 20113 net.cpp:150] Setting up conv5_3_pool3_conv_re/bn
I0118 17:37:14.562435 20113 net.cpp:157] Top shape: 1 512 3 3 (4608)
I0118 17:37:14.562438 20113 net.cpp:165] Memory required for data: 4252905712
I0118 17:37:14.562448 20113 layer_factory.hpp:77] Creating layer conv5_3_pool3_conv_re/relu
I0118 17:37:14.562454 20113 net.cpp:106] Creating Layer conv5_3_pool3_conv_re/relu
I0118 17:37:14.562459 20113 net.cpp:454] conv5_3_pool3_conv_re/relu <- conv5_3_pool3_conv
I0118 17:37:14.562466 20113 net.cpp:397] conv5_3_pool3_conv_re/relu -> conv5_3_pool3_conv (in-place)
I0118 17:37:14.562636 20113 net.cpp:150] Setting up conv5_3_pool3_conv_re/relu
I0118 17:37:14.562644 20113 net.cpp:157] Top shape: 1 512 3 3 (4608)
I0118 17:37:14.562647 20113 net.cpp:165] Memory required for data: 4252924144
I0118 17:37:14.562650 20113 layer_factory.hpp:77] Creating layer conv5_3_pool3_interp
I0118 17:37:14.562666 20113 net.cpp:106] Creating Layer conv5_3_pool3_interp
I0118 17:37:14.562672 20113 net.cpp:454] conv5_3_pool3_interp <- conv5_3_pool3_conv
I0118 17:37:14.562680 20113 net.cpp:411] conv5_3_pool3_interp -> conv5_3_pool3_interp
I0118 17:37:14.562710 20113 net.cpp:150] Setting up conv5_3_pool3_interp
I0118 17:37:14.562716 20113 net.cpp:157] Top shape: 1 512 60 60 (1843200)
I0118 17:37:14.562719 20113 net.cpp:165] Memory required for data: 4260296944
I0118 17:37:14.562722 20113 layer_factory.hpp:77] Creating layer conv5_3_pool6
I0118 17:37:14.562731 20113 net.cpp:106] Creating Layer conv5_3_pool6
I0118 17:37:14.562736 20113 net.cpp:454] conv5_3_pool6 <- conv5_3_conv5_3/relu_0_split_3
I0118 17:37:14.562742 20113 net.cpp:411] conv5_3_pool6 -> conv5_3_pool6
I0118 17:37:14.563064 20113 net.cpp:150] Setting up conv5_3_pool6
I0118 17:37:14.563074 20113 net.cpp:157] Top shape: 1 2048 6 6 (73728)
I0118 17:37:14.563078 20113 net.cpp:165] Memory required for data: 4260591856
I0118 17:37:14.563082 20113 layer_factory.hpp:77] Creating layer conv5_3_pool6_conv_re
I0118 17:37:14.563092 20113 net.cpp:106] Creating Layer conv5_3_pool6_conv_re
I0118 17:37:14.563097 20113 net.cpp:454] conv5_3_pool6_conv_re <- conv5_3_pool6
I0118 17:37:14.563105 20113 net.cpp:411] conv5_3_pool6_conv_re -> conv5_3_pool6_conv
I0118 17:37:14.572240 20113 net.cpp:150] Setting up conv5_3_pool6_conv_re
I0118 17:37:14.572263 20113 net.cpp:157] Top shape: 1 512 6 6 (18432)
I0118 17:37:14.572265 20113 net.cpp:165] Memory required for data: 4260665584
I0118 17:37:14.572273 20113 layer_factory.hpp:77] Creating layer conv5_3_pool6_conv_re/bn
I0118 17:37:14.572286 20113 net.cpp:106] Creating Layer conv5_3_pool6_conv_re/bn
I0118 17:37:14.572293 20113 net.cpp:454] conv5_3_pool6_conv_re/bn <- conv5_3_pool6_conv
I0118 17:37:14.572302 20113 net.cpp:397] conv5_3_pool6_conv_re/bn -> conv5_3_pool6_conv (in-place)
I0118 17:37:14.572561 20113 net.cpp:150] Setting up conv5_3_pool6_conv_re/bn
I0118 17:37:14.572568 20113 net.cpp:157] Top shape: 1 512 6 6 (18432)
I0118 17:37:14.572571 20113 net.cpp:165] Memory required for data: 4260739312
I0118 17:37:14.572593 20113 layer_factory.hpp:77] Creating layer conv5_3_pool6_conv_re/relu
I0118 17:37:14.572600 20113 net.cpp:106] Creating Layer conv5_3_pool6_conv_re/relu
I0118 17:37:14.572604 20113 net.cpp:454] conv5_3_pool6_conv_re/relu <- conv5_3_pool6_conv
I0118 17:37:14.572612 20113 net.cpp:397] conv5_3_pool6_conv_re/relu -> conv5_3_pool6_conv (in-place)
I0118 17:37:14.572808 20113 net.cpp:150] Setting up conv5_3_pool6_conv_re/relu
I0118 17:37:14.572816 20113 net.cpp:157] Top shape: 1 512 6 6 (18432)
I0118 17:37:14.572819 20113 net.cpp:165] Memory required for data: 4260813040
I0118 17:37:14.572824 20113 layer_factory.hpp:77] Creating layer conv5_3_pool6_interp
I0118 17:37:14.572829 20113 net.cpp:106] Creating Layer conv5_3_pool6_interp
I0118 17:37:14.572839 20113 net.cpp:454] conv5_3_pool6_interp <- conv5_3_pool6_conv
I0118 17:37:14.572844 20113 net.cpp:411] conv5_3_pool6_interp -> conv5_3_pool6_interp
I0118 17:37:14.572902 20113 net.cpp:150] Setting up conv5_3_pool6_interp
I0118 17:37:14.572908 20113 net.cpp:157] Top shape: 1 512 60 60 (1843200)
I0118 17:37:14.572912 20113 net.cpp:165] Memory required for data: 4268185840
I0118 17:37:14.572916 20113 layer_factory.hpp:77] Creating layer conv5_3_concat
I0118 17:37:14.572935 20113 net.cpp:106] Creating Layer conv5_3_concat
I0118 17:37:14.572954 20113 net.cpp:454] conv5_3_concat <- conv5_3_conv5_3/relu_0_split_4
I0118 17:37:14.572960 20113 net.cpp:454] conv5_3_concat <- conv5_3_pool6_interp
I0118 17:37:14.572966 20113 net.cpp:454] conv5_3_concat <- conv5_3_pool3_interp
I0118 17:37:14.572971 20113 net.cpp:454] conv5_3_concat <- conv5_3_pool2_interp
I0118 17:37:14.572975 20113 net.cpp:454] conv5_3_concat <- conv5_3_pool1_interp
I0118 17:37:14.572984 20113 net.cpp:411] conv5_3_concat -> conv5_3_concat
I0118 17:37:14.573011 20113 net.cpp:150] Setting up conv5_3_concat
I0118 17:37:14.573017 20113 net.cpp:157] Top shape: 1 4096 60 60 (14745600)
I0118 17:37:14.573029 20113 net.cpp:165] Memory required for data: 4327168240
I0118 17:37:14.573035 20113 layer_factory.hpp:77] Creating layer conv5_4_re
I0118 17:37:14.573045 20113 net.cpp:106] Creating Layer conv5_4_re
I0118 17:37:14.573050 20113 net.cpp:454] conv5_4_re <- conv5_3_concat
I0118 17:37:14.573055 20113 net.cpp:411] conv5_4_re -> conv5_4
I0118 17:37:14.716482 20113 net.cpp:150] Setting up conv5_4_re
I0118 17:37:14.716503 20113 net.cpp:157] Top shape: 1 512 60 60 (1843200)
I0118 17:37:14.716507 20113 net.cpp:165] Memory required for data: 4334541040
I0118 17:37:14.716529 20113 layer_factory.hpp:77] Creating layer conv5_4_re/bn
I0118 17:37:14.716542 20113 net.cpp:106] Creating Layer conv5_4_re/bn
I0118 17:37:14.716548 20113 net.cpp:454] conv5_4_re/bn <- conv5_4
I0118 17:37:14.716558 20113 net.cpp:397] conv5_4_re/bn -> conv5_4 (in-place)
I0118 17:37:14.716857 20113 net.cpp:150] Setting up conv5_4_re/bn
I0118 17:37:14.716866 20113 net.cpp:157] Top shape: 1 512 60 60 (1843200)
I0118 17:37:14.716869 20113 net.cpp:165] Memory required for data: 4341913840
I0118 17:37:14.716892 20113 layer_factory.hpp:77] Creating layer conv5_4_re/relu
I0118 17:37:14.716897 20113 net.cpp:106] Creating Layer conv5_4_re/relu
I0118 17:37:14.716902 20113 net.cpp:454] conv5_4_re/relu <- conv5_4
I0118 17:37:14.716907 20113 net.cpp:397] conv5_4_re/relu -> conv5_4 (in-place)
I0118 17:37:14.717226 20113 net.cpp:150] Setting up conv5_4_re/relu
I0118 17:37:14.717234 20113 net.cpp:157] Top shape: 1 512 60 60 (1843200)
I0118 17:37:14.717252 20113 net.cpp:165] Memory required for data: 4349286640
I0118 17:37:14.717257 20113 layer_factory.hpp:77] Creating layer conv5_4/dropout
I0118 17:37:14.717264 20113 net.cpp:106] Creating Layer conv5_4/dropout
I0118 17:37:14.717268 20113 net.cpp:454] conv5_4/dropout <- conv5_4
I0118 17:37:14.717274 20113 net.cpp:397] conv5_4/dropout -> conv5_4 (in-place)
I0118 17:37:14.717306 20113 net.cpp:150] Setting up conv5_4/dropout
I0118 17:37:14.717312 20113 net.cpp:157] Top shape: 1 512 60 60 (1843200)
I0118 17:37:14.717315 20113 net.cpp:165] Memory required for data: 4356659440
I0118 17:37:14.717319 20113 layer_factory.hpp:77] Creating layer conv6_re
I0118 17:37:14.717329 20113 net.cpp:106] Creating Layer conv6_re
I0118 17:37:14.717334 20113 net.cpp:454] conv6_re <- conv5_4
I0118 17:37:14.717340 20113 net.cpp:411] conv6_re -> conv6
I0118 17:37:14.718412 20113 net.cpp:150] Setting up conv6_re
I0118 17:37:14.718422 20113 net.cpp:157] Top shape: 1 19 60 60 (68400)
I0118 17:37:14.718426 20113 net.cpp:165] Memory required for data: 4356933040
I0118 17:37:14.718432 20113 layer_factory.hpp:77] Creating layer conv6_interp
I0118 17:37:14.718441 20113 net.cpp:106] Creating Layer conv6_interp
I0118 17:37:14.718446 20113 net.cpp:454] conv6_interp <- conv6
I0118 17:37:14.718452 20113 net.cpp:411] conv6_interp -> conv6_interp
I0118 17:37:14.718482 20113 net.cpp:150] Setting up conv6_interp
I0118 17:37:14.718489 20113 net.cpp:157] Top shape: 1 19 473 473 (4250851)
I0118 17:37:14.718492 20113 net.cpp:165] Memory required for data: 4373936444
I0118 17:37:14.718495 20113 layer_factory.hpp:77] Creating layer loss_main
I0118 17:37:14.718502 20113 net.cpp:106] Creating Layer loss_main
I0118 17:37:14.718508 20113 net.cpp:454] loss_main <- conv6_interp
I0118 17:37:14.718511 20113 net.cpp:454] loss_main <- label_data_1_split_1
I0118 17:37:14.718519 20113 net.cpp:411] loss_main -> loss_main
…
